loglizer/checkpoints/20240410000119.pth (torch, 78022 bytes, 6 tensors)

lstm.weight_ih_l0 f4 [256, 1]
0	0x3f6c3ea1	0.92283064
1	0x3f709bbc	0.9398763
2	0x3ea5920b	0.32337984
3	0x40965946	4.6983976
4	0xbe9d3a16	-0.3070838
5	0x3fa8e80e	1.3195817
6	0x3edc5fc6	0.4304182
7	0x3fcff3af	1.6246241
8	0x40154e60	2.3329086
9	0xbf0cdf78	-0.55028486
10	0x3f727a6e	0.9471806
11	0x3effbb50	0.49947596
12	0xbee0aa35	-0.43879858
13	0xbf222a1d	-0.6334551
14	0x3eeb8ba9	0.4600499
15	0xbeaf84c1	-0.3428097
16	0x3ec62dc9	0.38706806
17	0xbe936fa5	-0.28796116
18	0xbe975894	-0.29559767
19	0x3e4961be	0.19666192
20	0x3f600e26	0.8752159
21	0x3f5b09c8	0.855618
22	0xbf65c8d5	-0.8975957
23	0xbc2878b7	-0.010282687
24	0xbe76ca88	-0.24100697
25	0xbf43ff36	-0.76561296
26	0xbf56b13b	-0.8386418
27	0xbeb1d6b0	-0.34734106
28	0x3eaf6321	0.34255317
29	0xbee08217	-0.4384925
30	0x3f8c3a21	1.095524
31	0xbf4691bf	-0.7756614
32	0x3f973dcb	1.1815733
33	0x3f2e91f6	0.6819147
34	0xbdd457d6	-0.10368316
35	0x3f780b84	0.9689257
36	0xbe519c6b	-0.20469825
37	0x3f4107cd	0.7540253
38	0x3f62538d	0.8840874
39	0xbf4d2f4a	-0.8015028
40	0x3d290e65	0.041273493
41	0xbf250cd5	-0.64472705
42	0x3f7d0449	0.98834664
43	0x3f0cdcf6	0.5502466
44	0x3fb8e743	1.4445575
45	0x3f14c245	0.5810893
46	0x3f91f961	1.1404229
47	0xbe1c21a4	-0.15247208
48	0x3f79cf82	0.97582257
49	0x3ebd3c3b	0.36960015
50	0xbe667fe9	-0.22509731
51	0x3f4db967	0.80361027
52	0xbece7ba0	-0.40328693
53	0x404e7ab6	3.2262397
54	0xbf2ca361	-0.67436796
55	0x3f932055	1.1494242
56	0x3f53ac87	0.8268513
57	0x3f058189	0.5215078
58	0x3f19b05e	0.6003474
59	0xbe52e706	-0.20595941
60	0xbef5b9b9	-0.47993258
61	0xbee247c4	-0.44195378
62	0xbe6b5e5c	-0.22985214
63	0x3f4871a8	0.78298426
64	0x3efd3b50	0.49459314
65	0xbefce9f5	-0.49397245
66	0x3f13ee60	0.57785606
67	0xbf5beabe	-0.85905063
68	0x3ed90863	0.4238921
69	0x3f0db9f1	0.5536185
70	0x3ed367fb	0.41290268
71	0x3f6b886a	0.92005026
72	0x3ecd1a8e	0.40059322
73	0xbec77201	-0.38954166
74	0x3e7dead2	0.24796608
75	0xbcabdfae	-0.020980682
76	0xbf0daad8	-0.5533881
77	0x3f001d35	0.50044566
78	0xbe2beb7a	-0.16789046
79	0x3fa11095	1.2583185
80	0x3ee73159	0.45154837
81	0x3e9e5e44	0.30931294
82	0x3f39d219	0.7258621
83	0x3e2e2cce	0.17009279
84	0x3ebc5bd8	0.3678882
85	0xbe03b0f3	-0.1286047
86	0x3f23f12c	0.64039874
87	0x3f55172a	0.8323847
88	0x3f2b70c4	0.6696894
89	0x3ec12e89	0.37730816
90	0x3f08ed3a	0.5348698
91	0x3ee3b1da	0.44471627
92	0x3f8e1ce8	1.1102571
93	0xbf056298	-0.5210357
94	0xbf82cd5d	-1.0218922
95	0xbef93b22	-0.48677927
96	0x3f62b09c	0.88550735
97	0xbec85157	-0.39124557
98	0x3f450903	0.76966876
99	0x3ecf345f	0.40469643
100	0x3eea62ed	0.457786
101	0x3eedfc48	0.46481538
102	0x3ea5216f	0.3225207
103	0xbe52ac58	-0.20573556
104	0x3f010d2a	0.5041071
105	0x3ec01761	0.37517837
106	0xbf342845	-0.70373946
107	0x3f4975f9	0.78695637
108	0xbf070bcf	-0.52752393
109	0x3e236def	0.15959905
110	0x3f6ea6e3	0.932234
111	0x3e8f9fc9	0.28051594
112	0x3eb43830	0.35199118
113	0x3ec52fdb	0.38513073
114	0xbea5dd92	-0.32395607
115	0xbf1a9a17	-0.6039137
116	0xbf161c7a	-0.586372
117	0xbea00466	-0.31253356
118	0xbeb8402d	-0.35986462
119	0x3c91ad57	0.01778285
120	0xbe0b5ca9	-0.13609566
121	0xbe2a86d5	-0.16652997
122	0x3ecc90a3	0.399541
123	0x3ecbc57f	0.39799115
124	0x3f3ed446	0.74542654
125	0xbf0f37fc	-0.559448
126	0x3eeb6020	0.45971775
127	0x3ec307f0	0.38091993
128	0x3f6225f4	0.8833916
129	0xbf072cdb	-0.5280282
130	0x3ec9e6b3	0.39433822
131	0xbf78d58a	-0.97200835
132	0xbf345db7	-0.704555
133	0x3f6d7172	0.9275123
134	0xbe5729a7	-0.21011983
135	0xbf72fa6d	-0.9491337
136	0xbffe43d3	-1.9864448
137	0xbf1ecbdb	-0.6202981
138	0x3f3afa77	0.7303843
139	0xbf396b50	-0.7242937
140	0x3f1c7b53	0.6112568
141	0xbf2af122	-0.6677419
142	0xbdd2524b	-0.102696024
143	0xbf7f3bdc	-0.99700713
144	0xbed75a17	-0.4206092
145	0xbce3c250	-0.027802616
146	0x3f346280	0.704628
147	0x3f36e71b	0.7144639
148	0xbf647624	-0.8924277
149	0xbf26f864	-0.65222764
150	0x3f041d97	0.5160765
151	0xbe33ef8d	-0.1757185
152	0xbf80d176	-1.0063922
153	0xbeb9daad	-0.3629965
154	0x3f8f7cdc	1.1209979
155	0xbf4e0ef2	-0.80491555
156	0x3e40f6a8	0.18844092
157	0x3efc5ee6	0.49291152
158	0x3f484ae9	0.78239304
159	0xbf70d4fb	-0.9407498
160	0x3f90eb75	1.1321856
161	0x3d893950	0.067003846
162	0xbd3ae621	-0.045629624
163	0xbf522f4d	-0.82103425
164	0x3f463398	0.77422476
165	0xbefbebf0	-0.49203444
166	0xbf23f290	-0.64041996
167	0x3e9ecd03	0.31015787
168	0x3ddd47b3	0.10804691
169	0xbd0094fe	-0.03139209
170	0xbf35c0d0	-0.70997334
171	0xbf3f6241	-0.747593
172	0xbe6e465e	-0.2326903
173	0xbefd5592	-0.49479347
174	0xbf8f6b5a	-1.1204636
175	0xc0168047	-2.3515794
176	0xbf801bb9	-1.000846
177	0x3f2bb7d2	0.6707736
178	0x3fa54702	1.2912295
179	0xbfefa46e	-1.8722055
180	0x3f92ee2b	1.1478933
181	0x3f7ae750	0.98009205
182	0x3f2a0358	0.6641135
183	0xbe95c75c	-0.29253662
184	0x400295bb	2.0403888
185	0x3d6432a8	0.055712372
186	0x3ee5425c	0.4477719
187	0xbf01e2e2	-0.5073682
188	0xbe7584fb	-0.2397651
189	0xbf08eca4	-0.53486085
190	0xbc925a03	-0.017865187
191	0xbf8611da	-1.0474198
192	0x3e8d3819	0.27581862
193	0x3e46c4e8	0.19411051
194	0x3e877fe6	0.26464766
195	0x3d54b578	0.051930875
196	0x3f04afb5	0.5183061
197	0x3f41834a	0.75590956
198	0x3f0088b0	0.5020857
199	0x3f938a7e	1.152664
200	0xbf0fcb6a	-0.5616976
201	0xbe89cc80	-0.26913834
202	0x3f890081	1.0703279
203	0x3f949edc	1.161098
204	0x3eca6403	0.39529428
205	0x3e369242	0.1782923
206	0xbe931dda	-0.28733712
207	0xbefa6569	-0.48905495
208	0xbf04f828	-0.51941156
209	0x3de9ded1	0.11419452
210	0x3f7a2557	0.97713226
211	0x3ef2554b	0.47330698
212	0xbfe1da92	-1.7644827
213	0x3b910ef7	0.004426833
214	0xbc9c415c	-0.019074135
215	0x3f8f94f2	1.121733
216	0x40010d4f	2.0164373
217	0x3f8c9b74	1.098494
218	0x3fc46a13	1.5344871
219	0x3e2352ee	0.15949604
220	0x3f7fe548	0.9995923
221	0x3f5c7b67	0.861258
222	0xbe9c5c58	-0.30539203
223	0xbef3ae60	-0.47593975
224	0xbf2761b0	-0.65383434
225	0x3fad4034	1.3535218
226	0x3e68b49e	0.2272515
227	0x3e64e0f3	0.22351436
228	0xbe34a918	-0.17642629
229	0xbf2870d1	-0.65797144
230	0xbea4877b	-0.32134613
231	0x3ee0369d	0.43791667
232	0x3e4dcc5c	0.20097488
233	0x3f3269fb	0.69692963
234	0x3eb5ec8f	0.35532042
235	0x3cceab39	0.02522813
236	0x3e60232b	0.21888416
237	0xbececa7b	-0.40388855
238	0xbf5956b0	-0.848979
239	0xbf371958	-0.71523046
240	0xbe31db13	-0.17368726
241	0x3df531ab	0.11972364
242	0x3f3943cf	0.7236909
243	0x3f6d9ad4	0.92814374
244	0x3fa41624	1.2819257
245	0x3fb99b38	1.4500494
246	0xbeb29138	-0.34876418
247	0x3f3c3d70	0.73531246
248	0xbe1df723	-0.15426306
249	0x3f129647	0.57260555
250	0xbf2cacd8	-0.6745124
251	0xbeeea21d	-0.46608058
252	0x3e77eb3b	0.24210827
253	0x3f080334	0.5312989
254	0x3dcc33f3	0.09970846
255	0xbe4756b6	-0.19466671

lstm.weight_hh_l0 f4 [256, 64]
0	0x3e33becd	0.17553253
1	0xbf069328	-0.5256829
2	0x3e8ec3ea	0.27883846
3	0xbf5b6af8	-0.85710096
4	0xbe4905bb	-0.19631092
5	0x3b91273d	0.0044297264
6	0xbf3c3498	-0.7351775
7	0xc0101fd5	-2.2519429
8	0x3e2c3249	0.16816057
9	0xbf85e2b0	-1.0459805
10	0xbe080039	-0.13281335
11	0xbd4dc913	-0.050240587
12	0x3f82d754	1.0221963
13	0xbf3a82ac	-0.7285564
14	0x3e5e6913	0.2171977
15	0x3f3ddb2c	0.74162555
16	0x3f222d0c	0.63349986
17	0xbe616780	-0.22012138
18	0x3b9bbc04	0.004752638
19	0x3fc182a7	1.5117997
20	0xbf4edd92	-0.8080684
21	0xbfae7f9e	-1.3632696
22	0x3e2f7433	0.1713417
23	0x3d28b39d	0.041186918
24	0x3d610f65	0.054946322
25	0xbd84d6ff	-0.0648632
26	0xbfbc42e5	-1.4707915
27	0xbef87fe2	-0.48535067
28	0x3dec6aea	0.1154383
29	0x3f389059	0.7209526
30	0x3faab7d9	1.3337356
31	0x3e9d4e57	0.3072383
32	0x3e8a23de	0.2698049
33	0xbe8b2cd4	-0.2718264
34	0xbf9c530b	-1.2212843
35	0xbe929a24	-0.28633225
36	0xbf3c0b09	-0.7345434
37	0xbe957902	-0.29193884
38	0x3e882f22	0.2659846
39	0x3dfe9f13	0.12432685
40	0xc02bf668	-2.6869144
41	0x3bc1b418	0.0059113614
42	0xbd7202cc	-0.0590847
43	0x3e524f0b	0.20537965
44	0x3f2c84b3	0.6738998
45	0xbe3e4a10	-0.1858294
46	0xbff29dbc	-1.8954387
47	0xbe9faf7d	-0.31188574
48	0x3e72e066	0.23718414
49	0xbdc32716	-0.095289394
50	0x3df66d7c	0.12032601
51	0x3e919491	0.2843366
52	0x3ef2cc79	0.47421625
53	0xbeadce4f	-0.33946463
54	0x3f57e586	0.843346
55	0xbeb116dc	-0.34587753
56	0x3f1d1b7a	0.6137005
57	0x3d7cdb05	0.06173231
58	0x3e710f00	0.23540878
59	0xbe0c0469	-0.13673557
60	0xbd813b87	-0.06310182
61	0x3f50d150	0.81569386
62	0x3ef6bbeb	0.48190245
63	0xbf584ba9	-0.8449045
64	0xbfb9b387	-1.4507912
65	0x3fa7b9b3	1.3103546
66	0x3ea70581	0.32621387
67	0x3ea01abe	0.31270403
68	0x3e9a3fb0	0.30126715
69	0xbf5368c5	-0.8258174
70	0x3e9e6d19	0.3094261
71	0xbda673ea	-0.081275776
72	0x3f70fa4f	0.9413194
73	0x3d3c1b22	0.045924313
74	0xbeb8c010	-0.36084032
75	0x3e8875b6	0.26652306
76	0x3ef2b919	0.47406843
77	0x3f2a226d	0.6645878
78	0xbf6a5886	-0.91541326
79	0x3e8f9c54	0.28048956
80	0xbf281623	-0.6565878
81	0xbf2819b3	-0.65664214
82	0xbf4ce738	-0.8004031
83	0xbbaf0069	-0.005340625
84	0xbf555d59	-0.8334556
85	0x3e538764	0.20657116
86	0x3f78c22c	0.9717128
87	0x3d0454ba	0.032307364
88	0x3f46b2f5	0.77616817
89	0x3f34386b	0.70398587
90	0xbf4b46b3	-0.79404753
91	0x3ece45d2	0.40287644
92	0xbe7b945a	-0.2456831
93	0xbeeb4b17	-0.45955727
94	0x3d5897a7	0.052879002
95	0xba69f4d0	-0.00089247245
96	0xbf6518ca	-0.8949095
97	0xbe97af53	-0.2962595
98	0xbf2cd60e	-0.6751412
99	0x3f2ac35c	0.66704345
100	0xbe9ec001	-0.31005862
101	0x3eecf581	0.46281055
102	0x3ea6c251	0.32570127
103	0xbeebdae7	-0.46065447
104	0xbfe708cc	-1.804956
105	0x3f0bd734	0.5462525
106	0x3e3c6610	0.18398309
107	0xbc66fa70	-0.014097795
108	0x3d8d7277	0.06906598
109	0x3f008463	0.50202006
110	0xbdb5819d	-0.088626124
111	0x3eff7d2e	0.49900192
112	0x3e8703ff	0.26370236
113	0xbe8fad2f	-0.28061816
114	0xbee5b109	-0.4486163
115	0x3f0c1418	0.5471816
116	0x3e947d15	0.2900168
117	0xbde49140	-0.11160517
118	0xbf0a7b23	-0.5409414
119	0x3d9dc22b	0.0770305
120	0x3df2f595	0.11863247
121	0xbe6e3339	-0.23261727
122	0xbefe79bc	-0.4970225
123	0x3f05adbc	0.5221822
124	0xbf14cb1b	-0.58122414
125	0x3d1c2b1d	0.038127054
126	0x3e5f545f	0.21809529
127	0x3e5ff28a	0.21869865
128	0x3e86e0a5	0.26343265
129	0x3f467219	0.7751785
130	0x3e018500	0.12648392
131	0x3e5f4f74	0.21807653
132	0xbe321729	-0.17391647
133	0x3e846a0d	0.2586216
134	0xbf58ebe5	-0.84734946
135	0x3fa86f9d	1.3159062
136	0xbf208b8c	-0.6271293
137	0xbe19e81a	-0.15029946
138	0x3c26613b	0.0101550175
139	0x3e624fe1	0.22100784
140	0xbdbb86f0	-0.09156597
141	0x3d39b022	0.04533399
142	0x3f43aae8	0.7643266
143	0xbec7e60b	-0.39042696
144	0x3e2e8b57	0.17045341
145	0x3e0520cd	0.13000794
146	0xbec9239c	-0.3928498
147	0x3eb4c64c	0.35307539
148	0xbf994831	-1.1975156
149	0xbdb3e809	-0.087844916
150	0xbea93a54	-0.33052313
151	0x3dc43903	0.095811866
152	0xbe965d8f	-0.29368255
153	0xbe1be30e	-0.15223333
154	0x3f2f3742	0.6844369
155	0xbd2ca6df	-0.04215133
156	0x3f463577	0.7742533
157	0xbf774086	-0.9658283
158	0xbec2f183	-0.38074884
159	0xbfb5fe9d	-1.4218327
160	0xbe762494	-0.24037391
161	0x3fe55dea	1.7919285
162	0x3dcd98c9	0.10038907
163	0x3d81a72c	0.06330714
164	0xbee1ac14	-0.44076598
165	0xbf276291	-0.65384775
166	0x3f0ef340	0.5583992
167	0xbf201a9a	-0.6254059
168	0x3f32b3b6	0.6980547
169	0xbf09713e	-0.5368842
170	0xbe0ec6a9	-0.1394297
171	0x3f7cf02a	0.9880396
172	0xbebc7aa2	-0.3681231
173	0x3f3ab4bd	0.72932035
174	0xbdf39036	-0.118927404
175	0xbfe37781	-1.7770845
176	0x3ee46a16	0.44612187
177	0x3ee68f83	0.45031366
178	0xbd5c3e36	-0.053770266
179	0x3f049d81	0.5180283
180	0xbfcb1942	-1.5867083
181	0xbf9a5a43	-1.2058796
182	0x3f3104a5	0.6914771
183	0xbcc3ce71	-0.02390215
184	0xbe90d336	-0.2828614
185	0x3f8ac6ef	1.084196
186	0x3e87a20b	0.26490816
187	0xbea01a77	-0.3127019
188	0x3f8ceb4c	1.1009307
189	0x3f23fe96	0.6406034
190	0xbf80b6ea	-1.0055821
191	0x3f5d0541	0.8633614
192	0xbe77324d	-0.24140282
193	0x3dcc88cd	0.0998703
194	0x3e86c753	0.26323947
195	0x3eab98de	0.33515066
196	0x3fa37e7e	1.2772977
197	0x3e0d8fd3	0.13824396
198	0xbe87ea74	-0.2654606
199	0x3fc7f726	1.5622299
200	0xbf236e3c	-0.6384008
201	0x3fbda401	1.4815675
202	0xbf90ad17	-1.1302823
203	0xbd8fd4f2	-0.07023038
204	0xbecfee24	-0.40611374
205	0x3e2163ff	0.15760802
206	0xbf35205c	-0.707525
207	0xbf81e7bb	-1.0148844
208	0x3c18434a	0.009293387
209	0xbeed5809	-0.46356228
210	0xbe9f6bfe	-0.3113708
211	0xbff5e192	-1.9209464
212	0x3fb4fdaa	1.4139912
213	0x3f82c43d	1.0216137
214	0x3f55f9c2	0.83584225
215	0x400c2bb2	2.190167
216	0xbed0df36	-0.40795296
217	0xbecd2151	-0.4006448
218	0x3de6f18c	0.1127654
219	0x3fb31a1b	1.3992342
220	0xbed0cb30	-0.4078002
221	0x3ef542c5	0.47902504
222	0xbf89bb49	-1.076028
223	0x3f86ff80	1.0546722
224	0x3f8e7b77	1.1131428
225	0xbf608958	-0.8770957
226	0xbfa24578	-1.267745
227	0x3f796a40	0.9742775
228	0xbe7bcc59	-0.24589671
229	0x3f6131ce	0.8796662
230	0x3f9b4373	1.2129959
231	0x3f8ab32d	1.083593
232	0xbf2cc55b	-0.6748864
233	0x3f89f186	1.0776832
234	0x3f09670e	0.53672874
235	0x3f8c150d	1.0943924
236	0xbfaca6c8	-1.3488398
237	0x3f70dbba	0.94085276
238	0x3f4527fb	0.7701413
239	0xc018141a	-2.376227
240	0x3ed1aeba	0.40953618
241	0xbf0f81dd	-0.5605753
242	0xbf0a9372	-0.54131234
243	0xbf002d24	-0.5006888
244	0xbf93f49b	-1.1559023
245	0xc015ac7e	-2.338653
246	0xbe6497a8	-0.22323477
247	0xbe90f238	-0.28309798
248	0xbf5bd2d1	-0.85868555
249	0x3e49a4cd	0.19691773
250	0xbf9297c2	-1.1452563
251	0x3f0950f6	0.5363916
252	0xbe3477a8	-0.1762377
253	0xbf35996f	-0.70937246
254	0x3e685d39	0.22691812
255	0x3e8e8c33	0.2784134

lstm.bias_ih_l0 f4 [256]
0	0x3e2cb08b	0.16864221
1	0xbf2a661c	-0.66562057
2	0xc012e0d6	-2.294973
3	0xbf8340b4	-1.0254121
4	0x3d1fc86b	0.039009493
5	0x3dc718a8	0.097215
6	0xbfcddb2f	-1.6082515
7	0xbfadfbf8	-1.359252
8	0xbe0d1e18	-0.13781011
9	0x3f1e2ae2	0.61784184
10	0x3ecfa4f3	0.40555534
11	0x3ef30614	0.47465575
12	0x3f70b126	0.9402031
13	0xbdf055a8	-0.11735088
14	0xbeced282	-0.4039498
15	0x3f021a18	0.50821066
16	0x3e85d01a	0.2613533
17	0xbf102976	-0.56313264
18	0x3ea59c20	0.32345676
19	0x3da5dfef	0.080993526
20	0x3f7dafe0	0.9909649
21	0x3f0ce49a	0.5503632
22	0x3fa72ec0	1.3061142
23	0xbfaa2b5e	-1.3294485
24	0x3f283735	0.6570924
25	0xbe878aae	-0.26472992
26	0x3ef918c5	0.4865171
27	0x3f090cc8	0.5353513
28	0xc0033fc4	-2.050767
29	0xbda46f41	-0.080290325
30	0x3f4a1961	0.78944975
31	0x3f256a6e	0.64615524
32	0x3e6aefa3	0.22942977
33	0x3f5132ed	0.8171833
34	0xbfbb5c0a	-1.4637463
35	0x3f1b8f76	0.6076578
36	0xbf177a01	-0.5917054
37	0xbe2bb7f4	-0.16769391
38	0x3f2c1471	0.6721869
39	0x3f840b62	1.0315974
40	0xbf780b2b	-0.9689204
41	0xbd9018cc	-0.0703598
42	0x3f1b5b30	0.60686016
43	0xbf3f65bd	-0.74764615
44	0x3fc2f5a4	1.5231214
45	0x3e955a9f	0.291707
46	0x3f9fa914	1.2473474
47	0x3f1bc032	0.6084014
48	0x3fa1b376	1.2632892
49	0xbf37bfb6	-0.717769
50	0x3f15f0fb	0.5857083
51	0x3f41f03e	0.75757205
52	0x3ffac628	1.9591722
53	0xbf87f37b	-1.0621179
54	0x3e3d050b	0.18458955
55	0xbf1d03ad	-0.61333734
56	0x3ec11d6b	0.37717757
57	0xbef0c1e9	-0.47022942
58	0xbd4ad518	-0.04951963
59	0x3bcf8d39	0.0063339737
60	0xbe952e47	-0.2913687
61	0x3efc28f2	0.4924999
62	0xbfb078e5	-1.3786894
63	0x3f649416	0.8928846
64	0x3eae21a5	0.34010044
65	0xbe7473e8	-0.2387234
66	0xbf3678af	-0.712779
67	0xbefbcd36	-0.4918
68	0x3f6071e9	0.87673813
69	0x3e9c7d2d	0.30564252
70	0xbdcca862	-0.09993054
71	0xbf984947	-1.1897362
72	0xbe3122f2	-0.17298487
73	0xbe90dcc4	-0.2829343
74	0x3f4ce620	0.8003864
75	0x3e208a00	0.15677643
76	0x3f05b59f	0.52230257
77	0x3edd8b75	0.4327046
78	0xbc37719e	-0.011196522
79	0xbf2cb0e2	-0.674574
80	0x3f11b2f2	0.56913674
81	0xbddb871a	-0.10719128
82	0x3f4b6de3	0.7946455
83	0x3f317a89	0.693276
84	0x3f54ea90	0.83170414
85	0x3d483edc	0.048888072
86	0x3f3eec02	0.7457887
87	0xbe4b04fa	-0.19826117
88	0x3f0259f8	0.5091853
89	0x3eabace3	0.3353034
90	0xbf0d4b4f	-0.55193037
91	0x3e97cec5	0.2964994
92	0x3bec830d	0.007217771
93	0xbee23e08	-0.4418795
94	0xbf130e45	-0.5744365
95	0x3f365aa0	0.7123203
96	0xbee2a399	-0.4426544
97	0xbe908b8f	-0.28231475
98	0xbc0afb4c	-0.008482765
99	0x3f25c72f	0.64757055
100	0x3e768bdd	0.24076791
101	0x3f1f7ad6	0.6229681
102	0x3f2a104c	0.6643112
103	0x3eda442f	0.42630145
104	0xbc0700f5	-0.008239974
105	0x3f280a74	0.6564095
106	0x3f6bb55f	0.92073625
107	0x3e3f3d5f	0.18675755
108	0x3f3f670e	0.74766624
109	0x3f0e9125	0.5569022
110	0x3eb118fe	0.3458938
111	0xbf0ea7a0	-0.55724525
112	0x3f2f3903	0.6844637
113	0xbe6472e6	-0.22309455
114	0xbf6ea8ce	-0.93226326
115	0x3e41226f	0.18860792
116	0x3f365439	0.71222264
117	0xbf4da483	-0.8032915
118	0x3f26e3fa	0.65191615
119	0xbe890440	-0.26761055
120	0xbe02a2f7	-0.12757479
121	0x3e18eb13	0.14933424
122	0x3f32ec6d	0.6989201
123	0x3e90e199	0.28297117
124	0xbe3d6c7c	-0.18498415
125	0x3f9232ae	1.1421716
126	0xbd7e0be2	-0.06202305
127	0x3e9d7759	0.30755118
128	0xbf44cf5c	-0.76878905
129	0x3f2a56d1	0.6653872
130	0xbecf73f9	-0.40518168
131	0xbfe13cf7	-1.759673
132	0x3cb8cffd	0.022560114
133	0xbef52cee	-0.4788584
134	0x3f02410a	0.5088049
135	0x3fc1b1fa	1.5132439
136	0x3f597d37	0.8495669
137	0xbec9b911	-0.39399007
138	0x37ebdc98	2.8116905e-05
139	0xbe6e7e2b	-0.23290317
140	0x3e8efaf6	0.27925843
141	0xbe03467e	-0.1281986
142	0xbf8a39d1	-1.0798894
143	0x3f404e6e	0.75119674
144	0xbe927207	-0.2860262
145	0xbef23e1b	-0.47313008
146	0x3e4ce52c	0.20009297
147	0x3f0f4cc1	0.5597649
148	0xbf690748	-0.91026735
149	0x3f3119ba	0.6917988
150	0x3ed8c5e8	0.4233849
151	0x3fa212ca	1.2661984
152	0xbf654ebb	-0.8957326
153	0x3e3413f1	0.17585732
154	0xbf98b0e7	-1.1928986
155	0xbf081f78	-0.5317302
156	0xbed65016	-0.41857976
157	0x3ed7f942	0.42182356
158	0x3f19fdae	0.6015271
159	0xbe8a0f57	-0.26964828
160	0xbf1e37c5	-0.6180385
161	0xc0126d3b	-2.287917
162	0xbf06e966	-0.5269989
163	0xbd66ad71	-0.05631775
164	0xbed086e4	-0.40727913
165	0x3ee35bb1	0.44405892
166	0x3e319242	0.17340949
167	0x3f34114e	0.70338905
168	0xbebb9c24	-0.36642563
169	0x3ed1c8cd	0.4097351
170	0x3e0e464c	0.13894004
171	0x3ecec094	0.403813
172	0xbf274d3f	-0.65352243
173	0x3ea616ab	0.3243917
174	0xbf49179c	-0.7855165
175	0x3f766cff	0.96260065
176	0xbf312f58	-0.69212866
177	0xbf2032f1	-0.6257773
178	0x3f1bedd8	0.60909796
179	0x3f88b740	1.0680923
180	0x3f9effae	1.2421777
181	0xbf8248af	-1.0178431
182	0x3e8cc0c5	0.2749082
183	0xbd997c08	-0.0749436
184	0xbe112263	-0.14173274
185	0x3e162da1	0.14665844
186	0xbe31447a	-0.17311278
187	0x3df65acc	0.12029037
188	0x3e0f4915	0.13992722
189	0x3e2cbee7	0.16869698
190	0x3ecb4327	0.3969967
191	0xbf851c9a	-1.0399354
192	0x3ef9a878	0.48761344
193	0x3ce6a985	0.028157005
194	0xbf5222a1	-0.8208409
195	0x3f93dafe	1.1551206
196	0x3ed250bb	0.41077217
197	0xbc5c9764	-0.013463829
198	0xbe6b94b7	-0.23005949
199	0xbeb9f958	-0.36323047
200	0x3f51a6e9	0.8189531
201	0x3ec1542c	0.3775953
202	0xbf10d8fb	-0.56581086
203	0xbf656863	-0.89612406
204	0x3eb9e9e3	0.36311254
205	0xbe6c6f1e	-0.23089263
206	0x3e1ed415	0.1551059
207	0x3f3d378c	0.7391288
208	0xbe8d0b67	-0.27547762
209	0x3e749140	0.23883533
210	0xbe48a6c5	-0.19594868
211	0xbf1071b5	-0.56423503
212	0x3fa96e4c	1.3236785
213	0x3f1c8910	0.6114664
214	0xbdc56aa4	-0.09639481
215	0xbf84b304	-1.0367131
216	0xbf329f09	-0.6977392
217	0xbf20294a	-0.62563
218	0xbe65c748	-0.22439301
219	0x3f034af2	0.5128623
220	0x3ec08b0f	0.37606093
221	0xbfaa5ed0	-1.3310184
222	0x3ea6fc27	0.32614252
223	0x3f749933	0.95546263
224	0x3f474eb9	0.77854496
225	0xbf448a1f	-0.76773256
226	0xbe86c1a3	-0.26319608
227	0x3f47b33c	0.78007865
228	0xbcdf511c	-0.027260356
229	0x3f24eb5d	0.64421636
230	0x3f0c92b2	0.5491134
231	0x3e839d4f	0.25705954
232	0xbf888781	-1.0666353
233	0xbedfac2c	-0.43686044
234	0x3ea61e16	0.3244483
235	0xbf654728	-0.895617
236	0xbd003fd7	-0.031310882
237	0x3ed6c215	0.41944948
238	0x3f02a39f	0.51030916
239	0x3f7435be	0.95394504
240	0x3e77e27c	0.2420749
241	0xbf75e8d0	-0.9605837
242	0x3f0a4c7a	0.54022944
243	0x3f61ac19	0.88153225
244	0x3fa4bbf8	1.2869864
245	0xbe9610c2	-0.2930966
246	0x3ea7ad66	0.3274948
247	0x3ee11228	0.43959165
248	0x3f164e42	0.5871316
249	0xbf841fa1	-1.0322152
250	0x3f1a2437	0.6021151
251	0x3e93a52f	0.28836963
252	0xbe366694	-0.17812568
253	0x3de5c3f4	0.11219016
254	0xbedb7e12	-0.42869622
255	0x3f2b0190	0.6679926

lstm.bias_hh_l0 f4 [256]
0	0x3d6b86f8	0.057501763
1	0xbefee283	-0.4978219
2	0xc01482db	-2.3204868
3	0xbf844f52	-1.0336707
4	0xbd36d653	-0.04463799
5	0x3e3d613e	0.18494126
6	0xbfde3d7a	-1.7362511
7	0xbf982dc7	-1.188897
8	0xbda27a36	-0.07933466
9	0x3ec3b950	0.3822732
10	0x3eb08f6a	0.34484416
11	0x3edf2d8b	0.43589434
12	0x3f8df498	1.1090269
13	0xbda4074a	-0.08009203
14	0xbec73347	-0.3890631
15	0x3f0c85a2	0.5489141
16	0x3eaf11c7	0.3419325
17	0xbef7c339	-0.4839113
18	0x3e92e22b	0.28688177
19	0x3e501889	0.2032186
20	0x3f8b3472	1.087538
21	0x3f019a17	0.5062575
22	0x3fa3d7be	1.2800214
23	0xbfbbf6d6	-1.4684703
24	0x3f1713f3	0.59014815
25	0xbe7ba58b	-0.24574868
26	0x3f0bcc1f	0.5460834
27	0x3eb8fa81	0.3612862
28	0xc0026e52	-2.0379834
29	0xbe71b3dc	-0.23603767
30	0x3f5e6f43	0.8688852
31	0x3f0f7cf6	0.5605005
32	0x3e67b813	0.22628812
33	0x3f33483b	0.7003209
34	0xbfb5e77f	-1.4211272
35	0x3f1d9d42	0.6156808
36	0xbefdbf29	-0.49559906
37	0xbe9f29b0	-0.31086493
38	0x3ef03502	0.46915442
39	0x3f8772da	1.0581925
40	0xbf6c9f13	-0.9243023
41	0xbdbe1e48	-0.092831194
42	0x3f18b4ae	0.59650695
43	0xbf60311a	-0.87574923
44	0x3fcd5ad2	1.6043341
45	0x3e8e1a44	0.27754414
46	0x3f8d694d	1.104776
47	0x3f219235	0.6311372
48	0x3f99385c	1.1970325
49	0xbf2bf2be	-0.6716727
50	0x3f185bc9	0.59515053
51	0x3f38db93	0.72210044
52	0x3ff76dfd	1.9330441
53	0xbf7323b5	-0.9497636
54	0x3e4ad30a	0.19807068
55	0xbf15e85b	-0.5855767
56	0x3ec6253f	0.38700292
57	0xbe9a400c	-0.3012699
58	0xbd9e6c80	-0.077355385
59	0xbdf9d5b4	-0.12198964
60	0xbea8ad27	-0.32944605
61	0x3f1dd813	0.6165783
62	0xbfaac21e	-1.334049
63	0x3f579d8a	0.8422476
64	0x3ef466e4	0.4773475
65	0xbe60c6f9	-0.21950902
66	0xbf3158db	-0.6927621
67	0xbef5d547	-0.4801428
68	0x3f6096a9	0.8772989
69	0x3ea2fef8	0.3183515
70	0x3b171975	0.0023055945
71	0xbf9a8a5a	-1.2073472
72	0xbdcaa386	-0.09894471
73	0xbeb4f8f8	-0.35346198
74	0x3f15922a	0.58426154
75	0x3d42c505	0.047551174
76	0x3f11bf4e	0.5693253
77	0x3f0d281e	0.5513934
78	0xbc9f6531	-0.019457432
79	0xbf405e36	-0.75143754
80	0x3f20cad3	0.62809485
81	0xbe929f1b	-0.28637013
82	0x3f27ec0a	0.6559454
83	0x3f12386b	0.57117337
84	0x3f40f5ec	0.75375247
85	0x3d1bae88	0.038008243
86	0x3f5f5cc6	0.87250936
87	0xbe861d57	-0.2619426
88	0x3f283b2f	0.65715307
89	0x3f047c17	0.51751846
90	0xbf1a9f59	-0.60399395
91	0x3e27955a	0.16365567
92	0x3cada011	0.02119449
93	0xbef6b747	-0.48186705
94	0xbf08c0e9	-0.5341936
95	0x3f0cbca3	0.54975337
96	0xbec3c858	-0.38238788
97	0xbeeacfff	-0.45861813
98	0xbe3fdd6c	-0.1873681
99	0x3f4a2874	0.78967977
100	0x3ebfd7ce	0.37469333
101	0x3f14a52c	0.5806453
102	0x3f2cc3e5	0.6748641
103	0x3ee07ec0	0.43846703
104	0x3c09493d	0.008379278
105	0x3f3a2b0d	0.7272194
106	0x3f617278	0.8806529
107	0x3e5127ce	0.2042534
108	0x3f4a89d2	0.7911655
109	0x3f21375b	0.6297509
110	0x3ef4c6d1	0.47807935
111	0xbf0a51ed	-0.5403126
112	0x3f12376f	0.57115835
113	0xbc0debd7	-0.008662186
114	0xbf44505b	-0.7668511
115	0x3e945efe	0.28978723
116	0x3f280aca	0.6564146
117	0xbf22b629	-0.63559204
118	0x3f352027	0.70752186
119	0xbe8acd98	-0.2710998
120	0xbe59af6d	-0.21258326
121	0x3e05167d	0.1299686
122	0x3f340e79	0.70334584
123	0x3e8c494b	0.27399668
124	0xbe730476	-0.2373217
125	0x3f9a47e5	1.205319
126	0x3da9fe11	0.083004124
127	0x3ec8eb78	0.39242148
128	0xbf2ba127	-0.67042774
129	0x3f0894e8	0.5335221
130	0xbf1400aa	-0.57813513
131	0xbfec30ec	-1.845243
132	0x3ccd8d28	0.025091723
133	0xbf38c4d9	-0.72175366
134	0x3f128179	0.5722881
135	0x3fcd149d	1.6021916
136	0x3f7205fa	0.9454037
137	0xbe9f1146	-0.31067866
138	0x3d8ca45a	0.06867285
139	0xbea2e953	-0.31818637
140	0x3e866e91	0.2625623
141	0xbe0803cd	-0.132827
142	0xbf947824	-1.1599164
143	0x3f5e0292	0.8672267
144	0xbe69df10	-0.22838998
145	0xbedb8f93	-0.42882976
146	0x3e9dfe26	0.30857962
147	0x3ec130f8	0.37732673
148	0xbf88eab2	-1.0696623
149	0x3f237942	0.638569
150	0x3ecd27be	0.40069383
151	0x3f98e7a4	1.1945691
152	0xbf7e6390	-0.9937067
153	0x3e6c9310	0.23102975
154	0xbf860571	-1.047041
155	0xbf02fcc6	-0.5116695
156	0xbedccbf3	-0.4312435
157	0x3ed8e4a2	0.42361933
158	0x3ebddef3	0.3708416
159	0xbee144f5	-0.43997923
160	0xbf488d34	-0.7834046
161	0xc0118053	-2.2734573
162	0xbefd8a29	-0.4951947
163	0x3d18fdd8	0.03735146
164	0xbe8ede21	-0.27903846
165	0x3eb6283a	0.35577565
166	0x3df78b20	0.12087083
167	0x3f5b6123	0.85695094
168	0xbe9ac3be	-0.30227464
169	0x3ece2091	0.4025922
170	0x3e0a1603	0.1348496
171	0x3ec281e3	0.3798972
172	0xbf3f014b	-0.7461135
173	0x3edd30b4	0.4320122
174	0xbf4339c0	-0.76259995
175	0x3f81b990	1.0134754
176	0xbf1828e8	-0.5943742
177	0xbf36ccb8	-0.71406126
178	0x3f187fa9	0.59569794
179	0x3f806437	1.0030583
180	0x3f957e5f	1.167919
181	0xbf4e441b	-0.8057267
182	0x3eecf42e	0.46280044
183	0xbd302f63	-0.04301394
184	0xbd845bcb	-0.064628206
185	0xbb1a5229	-0.0023547506
186	0xbe5bac8e	-0.21452543
187	0x3d822909	0.06355483
188	0x3ea2a27f	0.317646
189	0x3e8f984d	0.28045884
190	0x3f037f12	0.5136577
191	0xbf847afb	-1.0350031
192	0x3f16401a	0.5869156
193	0x3e003843	0.12521462
194	0xbf38d6df	-0.7220287
195	0x3f9f9342	1.2466815
196	0x3ebdbc7f	0.37057874
197	0xbe0bb6cc	-0.1364395
198	0xbe2171a6	-0.1576601
199	0xbee51317	-0.44741127
200	0x3f4fcaa0	0.81168556
201	0x3ef9b2c4	0.487692
202	0xbf2cbd4c	-0.67476344
203	0xbf73d471	-0.95246035
204	0x3e99e306	0.30056018
205	0xbe2cb790	-0.16866899
206	0xbbcc5119	-0.0062352535
207	0x3f4baa60	0.79556847
208	0xbe070fec	-0.13189667
209	0x3ea5c5a4	0.3237735
210	0xbd36edf6	-0.04466053
211	0xbf0be220	-0.54641914
212	0x3fa6cb46	1.3030784
213	0x3ef702b5	0.48244253
214	0x3d4cba3e	0.049982302
215	0xbf8d6f8e	-1.1049669
216	0xbf27fea5	-0.6562293
217	0xbf140b4c	-0.5782974
218	0xbd8b2bac	-0.06795439
219	0x3f037770	0.5135412
220	0x3e96f3b8	0.29482818
221	0xbf9ff8f6	-1.2497852
222	0x3e60003d	0.21875091
223	0x3f402ed5	0.7507146
224	0x3f57fcf1	0.8437033
225	0xbf377583	-0.71663684
226	0xbe8c5ed4	-0.27416098
227	0x3f3ed32f	0.7454099
228	0x3e386ea0	0.1801095
229	0x3f08ba61	0.5340939
230	0x3f322bdf	0.6959819
231	0x3ed73f1d	0.4204034
232	0xbf884a44	-1.0647664
233	0xbea19061	-0.31555465
234	0x3eb22a35	0.34797826
235	0xbf66a102	-0.9008943
236	0x3d01c7e3	0.031684767
237	0x3f0ec2bb	0.55765885
238	0x3eb9fc93	0.3632551
239	0x3f7db41e	0.9910296
240	0x3ec80065	0.390628
241	0xbf5b0021	-0.8554707
242	0x3ebae8f2	0.36505848
243	0x3f74a820	0.9556904
244	0x3fabd44f	1.3424166
245	0xbec01236	-0.37513894
246	0x3e8356da	0.256522
247	0x3ef42f86	0.47692508
248	0x3ee59767	0.44842073
249	0xbf6e4529	-0.9307428
250	0x3f302f79	0.6882244
251	0x3e8ebbaf	0.27877566
252	0xbe705bad	-0.23472472
253	0x3e8fef0f	0.28112075
254	0xbed3392a	-0.4125455
255	0x3f3f851a	0.7481247

fc.weight f4 [30, 64]
0	0xbd989f90	-0.07452309
1	0x3debd35a	0.115149215
2	0xbd8cb54f	-0.06870519
3	0x3efb0502	0.49027258
4	0x3f6bfd67	0.92183536
5	0xbead077b	-0.3379477
6	0x3eb7386b	0.3578523
7	0x3e643bcb	0.22288434
8	0x3dccae9f	0.09994244
9	0x3ecc3170	0.39881468
10	0xbebb4e28	-0.36583066
11	0x3ebca788	0.36846566
12	0x3eb8f945	0.36127678
13	0x3f0aac53	0.54169196
14	0xbefd0aa2	-0.49422175
15	0xbcab39f7	-0.020901663
16	0x3e9b4a46	0.30330104
17	0xbdbd37d4	-0.09239164
18	0xbee0298c	-0.43781698
19	0xbea11d2b	-0.31467566
20	0x3f711a09	0.9418035
21	0x3f381caa	0.7191874
22	0x3f2e9037	0.68188804
23	0x3e854338	0.26027846
24	0x3f960fbe	1.1723554
25	0x3f568e82	0.838112
26	0x3e57fa79	0.21091641
27	0x3f6f6a33	0.9352142
28	0xbcc78c82	-0.024358992
29	0xbeb5d4ab	-0.35513815
30	0xbf056e8c	-0.52121806
31	0x40323231	2.7843134
32	0x3da37f25	0.07983235
33	0xbe8efa1f	-0.27925202
34	0xbe7fa3f2	-0.24964884
35	0x3f091e39	0.5356174
36	0xbe6c16ae	-0.23055527
37	0x3f1776d4	0.5916569
38	0x3f975a86	1.18245
39	0x3fa026ed	1.2511879
40	0xbe09da0f	-0.13462089
41	0x3f200612	0.6250926
42	0x3e9852be	0.29750627
43	0x3f43a34d	0.7642105
44	0xbf0e8d12	-0.55684006
45	0x3f02a5e3	0.51034373
46	0x3f174ab6	0.59098375
47	0x3f9a0939	1.2034065
48	0x3e11905f	0.1421523
49	0xbf8799ca	-1.0593808
50	0xbf961d6a	-1.1727726
51	0x3e8819ad	0.2658209
52	0xbfb84e6a	-1.439893
53	0xbf22b014	-0.63549924
54	0xc093ec83	-4.622621
55	0x3eb3d02e	0.35119766
56	0xbee1fefe	-0.44139856
57	0xbe8e72a9	-0.27821854
58	0xbe937913	-0.2880331
59	0x3ecf29eb	0.40461668
60	0xbe9edbc9	-0.31027058
61	0xbff2b26b	-1.8960699
62	0x3ee0b464	0.43887627
63	0x3f986547	1.1905907
64	0x3c26e565	0.010186528
65	0x3e59e5fc	0.21279138
66	0xbd466d2e	-0.048443966
67	0x3f015317	0.5051741
68	0x3f53dd87	0.827599
69	0xbeac0901	-0.3360062
70	0x3e96956c	0.29410875
71	0x3e90fac6	0.28316325
72	0x3dfae7e5	0.122512616
73	0x3e9217fd	0.28533927
74	0xbf00f7a1	-0.5037785
75	0x3ec32abd	0.38118544
76	0x3ed25ec9	0.4108794
77	0x3f30f8a2	0.69129384
78	0xbf182e8e	-0.59446037
79	0xbe1f86ee	-0.15578815
80	0x3e506eab	0.20354716
81	0xbe34c79d	-0.17654271
82	0xbf05fb81	-0.5233689
83	0xbe186592	-0.14882496
84	0x3f863867	1.0485963
85	0x3f3c0598	0.73446035
86	0x3f2071fd	0.6267393
87	0x3e87ef10	0.26549578
88	0x3f9c9183	1.2231907
89	0x3f2e0348	0.67973757
90	0x3d9e8edd	0.07742093
91	0x3f539c1f	0.82660097
92	0xbe54a27d	-0.2076511
93	0xbe8f00a1	-0.27930167
94	0xbf0a8937	-0.54115623
95	0x403f6a1e	2.9908519
96	0x3da44c22	0.08022334
97	0xbebfebf6	-0.3748471
98	0xbdff0b89	-0.12453372
99	0x3f05b52a	0.5222956
100	0xbe78ee5c	-0.24309677
101	0x3f18f270	0.5974493
102	0x3f84d53c	1.0377574
103	0x3fafd8a9	1.3737994
104	0xbe0ed14a	-0.13947025
105	0x3ed8d8c7	0.42352888
106	0x3ef8aabd	0.48567763
107	0x3f4a4a52	0.79019654
108	0xbeed0187	-0.46290228
109	0x3f1432f3	0.5789024
110	0x3f071eb8	0.5278125
111	0x3f99cc71	1.2015516
112	0x3eb14993	0.34626445
113	0xbf89647b	-1.0733789
114	0xbf8ae6e8	-1.0851717
115	0x3e94d2eb	0.29067168
116	0xbfcab2c9	-1.5835811
117	0xbf4e1b6a	-0.8051058
118	0xc0981dbc	-4.7536297
119	0x3eaf7841	0.34271434
120	0xbeb0a8d4	-0.34503806
121	0xbeb8120b	-0.35951266
122	0xbe19d6b1	-0.15023305
123	0x3ea15733	0.3151184
124	0xbe99eea9	-0.30064896
125	0xbfe0f593	-1.7574943
126	0x3ebd88f7	0.37018558
127	0x3f843f51	1.0331823
128	0x3e5b6678	0.21425807
129	0xbe90dd13	-0.28293666
130	0x3db0f43b	0.08640333
131	0xbf7e5387	-0.993462
132	0xbda731ee	-0.0816382
133	0x3e6f3879	0.23361386
134	0x3e4449dc	0.191688
135	0xbdfdb5a7	-0.12388163
136	0xbd0610c1	-0.03273082
137	0xbede5752	-0.43425995
138	0x3eafec10	0.3435979
139	0x3ec7584e	0.3893456
140	0xbf21453c	-0.6299627
141	0xbdf4375a	-0.1192462
142	0x3ee29078	0.44250846
143	0x3eb2d11c	0.34925163
144	0x40066ceb	2.1003978
145	0x3f07f1b9	0.53103215
146	0xbdcf7e84	-0.10131553
147	0x3e0c0ec4	0.13677508
148	0xbed5d9f4	-0.41767848
149	0x3e9f1fba	0.31078893
150	0xbc8b6823	-0.01701743
151	0xbf3cc049	-0.73730904
152	0x3f13cee2	0.57737553
153	0xbcb280cb	-0.021789929
154	0xbef3ae91	-0.4759412
155	0x3e1f51d1	0.15558554
156	0xbd1fcf40	-0.03901601
157	0x3eca2e81	0.39488605
158	0xbe7c31b6	-0.24628338
159	0xbe10cfa2	-0.14141706
160	0x3efac735	0.48980108
161	0xbdcc108f	-0.09964096
162	0x3e9c2414	0.30496275
163	0xbe96cd00	-0.29453278
164	0xbf381a19	-0.7191482
165	0xbd85a308	-0.06525236
166	0xbdbc4682	-0.09193136
167	0xbec90459	-0.3926113
168	0xbfdc2858	-1.7199812
169	0x3f1e9200	0.6194153
170	0xbdd82dab	-0.105555855
171	0xbe1129ee	-0.14176151
172	0xbe202283	-0.15638165
173	0xbf1bb248	-0.6081891
174	0xbe488be2	-0.19584611
175	0x4009185a	2.1421113
176	0xbebaad34	-0.36460268
177	0x3e1252d6	0.14289412
178	0xbf47894c	-0.77943873
179	0xbf7fdc04	-0.9994509
180	0x3fcedb8e	1.6160753
181	0x3f09ee5c	0.5387933
182	0x3f7612a3	0.9612219
183	0xbed2485f	-0.4107084
184	0x3d434e00	0.04768181
185	0x3defbf78	0.11706442
186	0x3f4ea432	0.8071929
187	0xbeb2e098	-0.34936976
188	0xbd19796b	-0.03746931
189	0xbcfd983d	-0.030956382
190	0xbf88b512	-1.0680258
191	0x3c1ab21d	0.00944188
192	0xbeb519ce	-0.3537125
193	0xbe473c30	-0.19456553
194	0x3e9e4c05	0.30917373
195	0xbf4fc471	-0.8115912
196	0xbc06a8a4	-0.008218918
197	0x3e7b4204	0.24536902
198	0x3eaea094	0.34106886
199	0x3e40fc73	0.18846302
200	0xbf68e617	-0.9097609
201	0xbed4ac95	-0.4153792
202	0xbdd51a69	-0.10405428
203	0x3dc1dea6	0.09466295
204	0xbea2a640	-0.31767464
205	0xbecf67d5	-0.40508905
206	0xbd6686dc	-0.056280956
207	0x3f061949	0.5238233
208	0xbe26740a	-0.16255203
209	0x3d8be293	0.06830325
210	0x3e85442a	0.26028568
211	0x3eac1f7a	0.33617765
212	0xbeb179b8	-0.34663177
213	0x3e281153	0.16412859
214	0xbd9d2e5f	-0.0767486
215	0xbf4ffdf1	-0.8124686
216	0xbf6663b8	-0.8999591
217	0x3e61d498	0.22053754
218	0xbee05740	-0.43816566
219	0xbd923f6a	-0.071410015
220	0xbf1b40e6	-0.606459
221	0x3e522e1e	0.20525405
222	0x3de193fa	0.110145524
223	0xbf0553d5	-0.5208104
224	0xbfb226cd	-1.3918091
225	0xbf5566e6	-0.83360136
226	0xc0392f0f	-2.8934972
227	0xbe952006	-0.29125994
228	0xbf72913c	-0.9475286
229	0x3e5da466	0.21644744
230	0xbea24a3a	-0.31697255
231	0xbe21b106	-0.15790185
232	0x3f1e9937	0.6195254
233	0x3dd79038	0.105255544
234	0xbebae735	-0.36504522
235	0xbe56a93e	-0.20962998
236	0x3f1d9b4f	0.6156511
237	0x3e566a9c	0.20939106
238	0xbeceea8a	-0.40413314
239	0xbfcff205	-1.6245733
240	0x3e40d56b	0.18831412
241	0x3ddfe660	0.109326124
242	0x3ecb2759	0.39678457
243	0x3fcefcf2	1.6170943
244	0xbf4768ff	-0.77894586
245	0xbf377106	-0.71656835
246	0x3e70c27d	0.23511691
247	0x3e3a4eab	0.18194072
248	0xbf236b14	-0.63835263
249	0x3e8ecbfe	0.2789001
250	0xbf33d252	-0.702428
251	0x3e78d940	0.24301624
252	0x3de6ccaf	0.11269509
253	0x3b1d113b	0.002396657
254	0x3f893cb3	1.0721649
255	0xbe4e0bb2	-0.20121649

fc.bias f4 [30]
0	0xbf05a273	-0.52201
1	0xbee502b5	-0.44728628
2	0xbc8ed71f	-0.017436562
3	0xbd6f9dd9	-0.058500145
4	0x3ecf9910	0.40546465
5	0xbe06f54f	-0.13179515
6	0xbd82adab	-0.06380781
7	0xbed7020b	-0.41993746
8	0xbec71caa	-0.38889056
9	0xbe6945df	-0.2278056
10	0xbef19f73	-0.47191963
11	0xbe2a123d	-0.1660852
12	0xbf158eaf	-0.5842084
13	0xbf0559a2	-0.52089894
14	0xbf19dff9	-0.6010738
15	0xbec83597	-0.39103386
16	0xbda71b30	-0.081594825
17	0xbf0c6484	-0.54840875
18	0xbea54d9f	-0.32285783
19	0xbec27fb7	-0.37988064
20	0xbf07106c	-0.5275943
21	0x3dc64f3f	0.09683084
22	0xbeaebad2	-0.34126908
23	0x3d1af2d1	0.037829224
24	0xbefe63e9	-0.496856
25	0x3e6c9732	0.23104551
26	0x3c5964d8	0.013268672
27	0xbf13cb01	-0.57731634
28	0xbee79848	-0.4523337
29	0xbf0ca6af	-0.5494184
