loglizer/checkpoints/20240408222126.pth (torch, 814150 bytes, 10 tensors)

lstm.weight_ih_l0 f4 [512, 1]
000000 7f b1 3b 3f 8a 00 d3 3f 20 a8 a8 be 1b a2 93 bf
       0.7331771 1.648454 -0.3294077 -1.1533846
000010 aa 71 d4 bf 86 86 94 bd 01 0c e8 be 9e ea e2 3f
       -1.6597188 -0.07252221 -0.45321658 1.772785
000020 19 c7 01 40 28 5a 45 bf a2 fe 48 bf 71 b0 97 3f
       2.027777 -0.7709069 -0.7851354 1.1850721
000030 8b 1c b1 3f 20 d4 8a be 96 cf e7 3f c2 c0 8f 3f
       1.3836836 -0.27114964 1.8110225 1.12307
000040 5a fd e0 3f b5 db b8 bf 53 ab d0 bf 94 e9 4a bd
       1.7577317 -1.4442049 -1.6302284 -0.049539164
000050 25 8e a3 bf 78 bc cc be 11 7c 77 3f d9 ab 37 bf
       -1.2777754 -0.3998754 0.96673685 -0.71746594
000060 19 cc 80 3f 35 db 87 3d 30 82 b1 3f d1 ea 36 bf
       1.0062286 0.06633607 1.3867855 -0.7145205
000070 bb ba f9 3f a6 10 58 bf ff da 48 40 b3 0b 08 bf
       1.9510111 -0.84400403 3.1383665 -0.5314285
000080 22 c1 4e bf 56 4d 88 3f 73 da 21 bf 5a fd ac 3f
       -0.8076345 1.0648601 -0.6322395 1.3514817
000090 55 20 3d 3f a8 63 df 3f ac 4d c3 3f 6f e7 bb bf
       0.7387746 1.7452288 1.5258079 -1.4680003
0000a0 e8 02 bc 3f 4c 86 3a bf aa f5 ee 3f f2 8d a4 3f
       1.4688387 -0.7286117 1.8668721 1.2855818
0000b0 c8 f8 b0 bf f3 10 75 bf ad aa 90 bf 13 b6 60 bf
       -1.3825922 -0.9572899 -1.1302086 -0.87777823
0000c0 a6 42 19 bf 5d 69 0a 3f 47 38 da bf 25 e7 f1 be
       -0.5986732 0.5406702 -1.7048424 -0.47246662
0000d0 ea f1 48 bf 0a bd ce 3f ab 51 ce b8 ca 85 72 3f
       -0.7849413 1.615144 -9.838057e-05 0.94735396
0000e0 1e b9 d7 bf 8e 1e 92 bf cb 61 bc 3f 84 73 88 bf
       -1.6853368 -1.1415575 1.4717344 -1.0660253
0000f0 55 cb 91 bf 9d f7 d6 bf 40 9f ad 3f 08 7e 63 3f
       -1.1390177 -1.6794316 1.3564224 0.88864183
000100 5d 2b 47 3f 80 e6 0a bf cf dd d5 3f 32 92 eb 3f
       0.7780054 -0.54257965 1.6708316 1.840399
000110 4b cd 85 3e e1 9a 82 3e c3 4d 7d bf e0 90 b0 3d
       0.2613319 0.25508788 -0.9894678 0.08621383
000120 f4 8a 6d bf 02 ff f0 be 0d c9 c6 bf 7f a0 9e bf
       -0.9279015 -0.47069556 -1.5530106 -1.239273
000130 77 b2 8e bf a5 1a b1 bf df 08 25 bf d0 97 06 40
       -1.1148213 -1.3836256 -0.6446666 2.103016
000140 b9 39 91 bf 1d fe 91 3d c5 62 f8 3e 95 be 56 3f
       -1.134574 0.071285464 0.48512855 0.83884555
000150 62 37 05 40 1f 04 9a 3f 2d db 6b 3e 5f 3b 03 bf
       2.0815053 1.2032508 0.23032828 -0.5126247
000160 46 60 c5 bf a6 bc c0 3f fa 4c 87 3f 6f 49 8f bf
       -1.5420005 1.5057571 1.0570366 -1.1194285
000170 72 27 77 be da 45 00 40 17 66 ec 3f 74 bf 47 3f
       -0.24136141 2.0042634 1.8468655 0.7802651
000180 37 d7 f4 bf 72 a7 f3 3f 32 21 bd 3e a4 7d 33 bf
       -1.9128178 1.9035475 0.3693939 -0.7011359
000190 98 95 e2 3f 95 f4 50 3f 12 d3 04 bf 39 62 73 bf
       1.7701902 0.816232 -0.5188457 -0.9507175
0001a0 e6 80 ba bf 8e b5 86 bf 00 07 d6 be 19 64 8f be
       -1.4570587 -1.0524156 -0.41802216 -0.28006056
0001b0 ae d1 cd bf 78 bc a6 bf 14 d8 8b 3e 52 48 83 3f
       -1.6079614 -1.3026266 0.27313292 1.0256445
0001c0 55 6a bb 3f 52 04 04 c0 4c d9 4e 3e 94 a1 0e 3f
       1.4641825 -2.0627637 0.2020008 0.557153
0001d0 e9 56 5f bf 98 32 57 bf 92 5e 1d bf 8b c4 0d bf
       -0.8724199 -0.84061575 -0.6147243 -0.55378026
0001e0 27 2e 52 bf cf a5 f0 bf c3 54 7c 3f 9f 74 66 3f
       -0.8210167 -1.8800601 0.98566836 0.900217
0001f0 59 1c db 3e 87 03 af be c3 9d 0d c0 bb 36 d0 3f
       0.42795065 -0.3418238 -2.212754 1.6266702
000200 bf fc c5 be f1 c0 30 c0 64 02 35 3f 90 b4 63 bf
       -0.38669392 -2.7617762 0.7070677 -0.8894739
000210 04 42 98 bf d4 96 e7 bc 27 2b 92 3f cd a5 f6 bf
       -1.1895146 -0.028270163 1.1419419 -1.9269348
000220 e2 d0 86 bf 7f ec 0f bf 48 8a 7a bd 2c c3 c5 3e
       -1.0532496 -0.5622024 -0.06116703 0.38625467
000230 e6 7b 41 bf 84 34 60 3f c0 b8 78 bf c2 d6 75 bf
       -0.7557968 0.8758013 -0.97156906 -0.9603082
000240 b6 c0 df be b9 be 2c 3d 4d d6 71 bf 66 52 47 3f
       -0.43701714 0.042174075 -0.9446762 0.77860105
000250 04 f0 1c bf 77 b4 b4 bf 52 d2 04 3f 68 ec f2 be
       -0.61303735 -1.4117573 0.51883423 -0.4744599
000260 c0 05 f3 3e ce ef 1a bf 2a f9 5a 3f b4 0d ac bf
       0.47465324 -0.6052216 0.85536444 -1.3441682
000270 cf ff 52 3f 9a 46 08 bf c9 45 32 3f 0b 2f 8d bf
       0.8242158 -0.5323273 0.69637734 -1.1029981
000280 a1 c2 df 3f ad ba b9 bd 1e 5c b1 bf 59 40 94 bf
       1.7481271 -0.09068809 -1.3856237 -1.1582137
000290 10 0d e1 3f e3 65 93 bf fc 36 c5 bf ec e0 ac be
       1.7582111 -1.1515468 -1.5407405 -0.33765352
0002a0 a0 5e bf 3e b3 f1 73 bf 56 38 e8 3f 42 4e d5 3e
       0.3737688 -0.9529068 1.8142192 0.41661268
0002b0 5a 31 ff 3d a4 37 05 c0 e5 78 1b bf 0b d2 5f be
       0.12460585 -2.081521 -0.60731345 -0.21857469
0002c0 82 5c 66 3f d5 5c 40 be 19 d4 43 3f a7 d9 0e 3f
       0.89984906 -0.18785413 0.7649551 0.5580086
0002d0 f7 41 71 bd 21 e3 e0 be fc 3d ae be 0f c9 f9 be
       -0.0589008 -0.43923286 -0.34031665 -0.48786208
0002e0 0f 31 84 3f 67 14 cc be b1 90 aa 3e 94 85 a0 bd
       1.0327471 -0.39859316 0.33313516 -0.07837978
0002f0 05 d6 c8 be 34 53 c4 be 95 82 12 3f ca eb 35 3f
       -0.39225784 -0.3834473 0.572305 0.7106291
000300 6c b2 10 3f 39 72 35 bf c2 42 e0 3e f0 f1 b8 3e
       0.5652225 -0.70877415 0.43800932 0.36122084
000310 d0 82 d6 3e 1b e8 4d be 7d ba bb be d9 44 0c 3d
       0.41896677 -0.20108072 -0.36665717 0.034245346
000320 62 2d 72 be a4 99 61 bf a1 6a 5d 3f 1b 0f 23 3f
       -0.23650125 -0.8812506 0.8649083 0.63694924
000330 03 e4 43 be 52 c4 90 bf e9 80 4e be a4 0b b0 3e
       -0.19129948 -1.1309912 -0.20166363 0.3438388
000340 48 ce 5b bf 9f 3d d7 bf 95 32 b9 be c4 20 15 3f
       -0.85861635 -1.681568 -0.36171404 0.5825312
000350 7a 48 22 3f c3 0f eb be 05 ca 07 bf 68 25 05 40
       0.6339184 -0.45910463 -0.5304263 2.080408
000360 57 42 27 bf 53 3f 42 bf 59 1f 8c bf 79 43 e5 be
       -0.653356 -0.75877875 -1.0947067 -0.4477804
000370 b0 cd b2 bf 4f f3 19 3f dc d3 b3 3e 03 de 87 bf
       -1.3969021 0.60136884 0.35122573 -1.0614628
000380 f0 77 04 bf 73 aa 8c 3e 8e 1b 21 40 5a 27 7c 3f
       -0.5174551 0.27473792 2.5173068 0.98497546
000390 22 46 0d 3f 0e b2 cd be 7b 86 93 bf 25 58 02 bf
       0.5518514 -0.40174907 -1.1525415 -0.5091575
0003a0 45 af 5d bf 1c b8 66 be 65 fe 01 3f df 47 5b 3e
       -0.86595565 -0.2253117 0.507788 0.21414135
0003b0 ee 88 11 bf 12 27 a4 3f c5 90 e4 3e d4 e5 d6 bf
       -0.56849563 1.2824423 0.446417 -1.6788888
0003c0 3a e5 a7 3e 27 ce 1a be 93 66 32 3f 72 5f 88 bf
       0.32792073 -0.15117703 0.69687766 -1.0654128
0003d0 9f 63 a6 3d 15 6c 8c 3e bf ef 76 3e 64 74 01 bf
       0.0812447 0.2742621 0.24114893 -0.50568223
0003e0 3a 9b 9c 3e f3 04 35 bd 96 98 b4 3e 4c 75 8c 3e
       0.30587178 -0.044194173 0.35272664 0.2743324
0003f0 de fb 18 bf 76 e9 08 bf 7d b8 f4 be 61 c3 98 3e
       -0.5975932 -0.53481233 -0.47797003 0.29836562

lstm.weight_hh_l0 f4 [512, 128]
000000 9d 60 05 3e 2c 17 0b be 50 46 0f be c0 2a 4e 3d
       0.13025136 -0.13583058 -0.13991666 0.05033374
000010 49 90 a3 3d fd 2d 99 be 79 90 d8 3e d4 86 8c 3e
       0.079865046 -0.299179 0.42297724 0.27446616
000020 51 0f c7 3e f4 c2 35 3d 95 0d 62 3c 3c 05 f5 be
       0.38878873 0.044375375 0.0137971835 -0.47855556
000030 d1 63 4a be d2 e9 3b be 95 38 48 3e 48 e7 ea be
       -0.1976464 -0.18350914 0.19552834 -0.4587958
000040 b6 19 b2 3e 03 8b cb 3d 05 3a 7e 3e dc 7e 87 be
       0.3478524 0.09938624 0.2482682 -0.26463974
000050 5b 4b 07 be 44 be 32 3d 73 e7 57 3e f5 d7 50 3c
       -0.1321234 0.043638483 0.21084385 0.012746801
000060 a1 bc c5 be 4a 60 38 bc 91 86 c8 be 02 2d 97 3e
       -0.38620475 -0.011253426 -0.39165166 0.29526526
000070 08 59 ea be 85 2c a6 bd e3 bc f5 bd 63 80 3c 3e
       -0.4577105 -0.0811396 -0.11998918 0.1840835
000080 fa 90 8f 3e 15 89 1a bf df b9 b3 bd 16 97 a5 be
       0.28040296 -0.6036542 -0.087756865 -0.32341832
000090 bc bb 19 bd 7d 3d 70 be 43 2d 31 3e d7 16 97 bd
       -0.037532553 -0.23460956 0.17302422 -0.07377403
0000a0 3d cb 83 be 69 b7 4f be fd 55 8d be 52 c6 ae be
       -0.25740996 -0.20284809 -0.27604666 -0.3413568
0000b0 2a 7c 04 3e f0 d1 46 be f6 a4 16 be be b8 24 bc
       0.1293799 -0.19416022 -0.14711365 -0.010053812
0000c0 a7 1a 95 3e 9a aa b7 bb ae 94 3c be b9 5d 82 3e
       0.29121897 -0.005605054 -0.18416092 0.2546213
0000d0 b5 99 ae bd e6 8e 81 bd 3f 20 b6 3c b2 7b 2c 3e
       -0.08525411 -0.06326084 0.022232173 0.16844061
0000e0 ee af 2b be 92 84 68 3d c7 12 7a bc c6 a5 aa bd
       -0.1676633 0.056767054 -0.015263266 -0.083324
0000f0 6a f1 ab 3c 74 70 a2 be 00 14 91 be bd 16 46 3e
       0.020989139 -0.3172642 -0.2833557 0.19344611
000100 67 38 65 be d7 fc 27 bd a2 f8 18 3e 11 58 15 3f
       -0.22384797 -0.04101261 0.14938596 0.58337504
000110 c4 72 29 3f 19 ae 2b be 46 c8 a4 bd 71 1d a6 bc
       0.66190743 -0.16765632 -0.080460116 -0.02027771
000120 f0 59 21 bd 8e 12 01 3d 08 b1 99 3e 3a 47 99 3e
       -0.03939241 0.031511836 0.30017877 0.29937154
000130 40 e0 75 be c0 ca f7 3c fb bd fd 3d 17 54 b3 be
       -0.24011326 0.030248046 0.123897515 -0.35025093
000140 ab 1b ef 3d 0d 88 cd be 7a 57 f3 bd 94 89 8a bc
       0.11675199 -0.4014286 -0.11881919 -0.016911305
000150 2e b8 9d be 71 3c 93 be 1a d9 1e bd 4b 3e 18 be
       -0.3080458 -0.2875705 -0.038781263 -0.14867513
000160 06 59 00 be 3b 2f 83 3d cd 44 c9 3d 26 58 2b be
       -0.1253396 0.06405493 0.09827576 -0.16732845
000170 c4 c0 87 3e 59 fb c5 3e 75 19 b0 3d d2 96 07 3e
       0.26514256 0.38668326 0.085986055 0.13241127
000180 c7 00 7d bc 65 68 86 3e e2 09 41 3e 57 74 17 3f
       -0.01544208 0.26251522 0.18851426 0.59161896
000190 c0 09 9c 3e 64 c9 9d 3e c5 54 b3 bd 79 e6 2d 3e
       0.3047619 0.3081771 -0.08756403 0.1698245
0001a0 5e 47 2e bd 6b 26 51 be 3c 53 83 be 4b 00 5d 3e
       -0.04254853 -0.20424812 -0.2564944 0.21582143
0001b0 b9 fd 11 3e e9 a1 4a 3d 4d 75 0b bb f8 04 ba 3d
       0.14256944 0.049470816 -0.0021279634 0.09082979
0001c0 b7 27 76 be 71 90 80 3e dc e5 db 3d 98 86 c3 3e
       -0.24038588 0.251102 0.107372016 0.38188624
0001d0 a6 b4 87 be 5a c3 fa be b7 01 ad be e3 57 e3 bd
       -0.2650501 -0.48977166 -0.3379037 -0.111007474
0001e0 3a 93 83 3e 4e 40 15 3e 53 9a 51 3e 37 ab 07 be
       0.25698262 0.14575312 0.20469026 -0.13248907
0001f0 f2 86 1b 3e 2f ea 94 bd 67 1f 5f 3c 09 a3 0a 3f
       0.15188196 -0.072712295 0.013618327 0.5415502
000200 76 be 20 3f 51 9f b5 bf 4a df 18 40 13 f9 1b 40
       0.6279062 -1.4189245 2.3886285 2.4370773
000210 59 3f 0f 3f fb 88 9d bf 5c 00 d4 3b ff f7 78 be
       0.55956036 -1.2307428 0.0064697694 -0.24313353
000220 df ad 17 3f 46 4a c5 3f 20 29 96 3d f1 58 24 3d
       0.5924968 1.5413291 0.07332063 0.040123884
000230 c8 b0 86 bf 1a 7c 01 3f b4 f1 0d 40 ed 58 be bf
       -1.0522699 0.5057999 2.2178774 -1.4870888
000240 17 41 da 3e 5d 8e 1f bf 04 b7 92 bf 6d e4 a6 3f
       0.42627785 -0.62326604 -1.1462102 1.303846
000250 3a fb 49 bf 28 73 39 bf 8a a2 46 3f 28 3b 46 c0
       -0.78898966 -0.7244134 0.77591765 -3.0973606
000260 80 7a b8 3e f8 cd a0 3f b4 a1 a2 bf 25 4d fc 3d
       0.3603096 1.2562857 -1.2705598 0.12319402
000270 74 0c 37 c0 a3 1f 51 3e 1b b8 1d 3e f4 4a 11 41
       -2.860135 0.20422225 0.15402262 9.080799
000280 a1 00 35 40 eb 2b 89 3e 41 92 a3 3e 37 47 9a 3f
       2.8281634 0.2679132 0.3194752 1.2052983
000290 07 fd c7 3e 6a 5d 40 c0 8d 9a e1 3d ff 39 bd bf
       0.39060232 -3.0057015 0.11015806 -1.4783324
0002a0 c4 9b 09 bf f2 ca 91 be 39 e5 38 bd 8c 81 31 be
       -0.53753304 -0.28475147 -0.04514048 -0.17334574
0002b0 f0 a2 70 3e 53 a0 71 3f 29 05 e5 be 5c b4 14 3f
       0.23499656 0.9438526 -0.447305 0.58087707
0002c0 e1 07 90 bf 70 79 31 be 0e cf 0e c0 8d 18 36 bd
       -1.1252404 -0.17331481 -2.2313876 -0.044457007
0002d0 34 4c 98 bf 1b db 58 3e e1 71 69 bf 88 ef 0a 3e
       -1.1898255 0.21177332 -0.9118939 0.13567936
0002e0 7d 32 18 3f b9 7a 69 be 1b 8d 9e 3e 67 f5 8d 3f
       0.5945204 -0.22800721 0.3096703 1.1090516
0002f0 68 2f 5f 3f 18 f1 22 3f e0 32 c2 bf 9f bf 80 40
       0.8718171 0.6364913 -1.5171776 4.0233912
000300 2b 65 af be b5 21 c0 be 82 e1 26 40 a4 b0 18 3f
       -0.34256873 -0.37525716 2.607514 0.5964453
000310 df 98 5e be 5a 21 7b be d8 e1 21 bf ad 73 d6 be
       -0.21738003 -0.24524441 -0.63235235 -0.4188513
000320 4c 50 6f bf 26 0d 03 c0 2e ad 39 3f 89 ab 92 3f
       -0.934819 -2.0476775 0.72529876 1.1458598
000330 04 bd 66 be 38 f5 4d bf 50 98 00 3e fd c8 c9 3b
       -0.22533041 -0.804523 0.12558103 0.006157993
000340 3f 02 86 3e ad ba d8 3e b2 a6 b8 3e db 52 36 3e
       0.2617359 0.42329922 0.36064678 0.17805044
000350 5e 3f 93 bf e8 be 76 3f b8 4e 06 3f a5 8c c4 3e
       -1.1503713 0.9638505 0.52463865 0.38388553
000360 e4 bf c2 bf f4 8d a2 be 6c 8f 7f 3f 76 3e f6 be
       -1.521481 -0.31748927 0.9982822 -0.4809453
000370 13 0e a7 be 3d 55 cb 3f cf f8 8b 3d 23 5b 8a bf
       -0.32627925 1.5885388 0.06834566 -1.0809063
000380 cd 92 c9 3f 3b 9c bb be b3 2e 37 3f f0 36 de 3e
       1.5747925 -0.36642632 0.7155563 0.4340129
000390 91 3f a3 3e 5c 7d 60 bf ee 29 78 bf d2 d1 4b bf
       0.31884435 -0.87691283 -0.9693898 -0.79617035
0003a0 3a 76 31 3d 5f d6 75 be a8 18 29 bf d4 f2 fc be
       0.04332564 -0.24007557 -0.6605325 -0.49404013
0003b0 1c 6a e0 3f 15 6d 2f c0 de 1f fe bc 0a 98 97 bf
       1.7532382 -2.7410328 -0.031021055 -1.1843274
0003c0 00 0a be bf 57 be 12 c0 7a 92 09 3f 00 cc 93 3f
       -1.4846802 -2.2928674 0.5373913 1.1546631
0003d0 e9 d7 9d be 5a ea c2 be 8d 08 0c 3f 8b a9 6d be
       -0.3082879 -0.3806942 0.5470055 -0.23209207
0003e0 5b a0 c8 be 38 46 7e 3d 4f 68 be be 17 08 88 bf
       -0.39184842 0.062078685 -0.37188956 -1.0627469
0003f0 0f d7 af be 22 bf fb be f9 9a fd bd f8 5d 05 3f
       -0.34343764 -0.4916926 -0.12383074 0.5209651

lstm.bias_ih_l0 f4 [512]
000000 bf 3d 35 3e bf f8 6c 3d 7e 01 57 be 64 50 5c bf
       0.17699336 0.05785441 -0.20996663 -0.86060166
000010 6e 1d d2 bd 88 24 af bf bb 49 30 c0 de ed f0 3f
       -0.102595195 -1.3683023 -2.7545002 1.8822591
000020 8e 74 d9 bf 37 90 25 40 a7 68 9f 3d f5 59 c2 3f
       -1.6988695 2.5869272 0.07783633 1.5183703
000030 aa 03 2f 3f ec b4 ff bf 86 da ad 3f 5d c3 d7 3f
       0.68364966 -1.9977088 1.3582313 1.6856495
000040 2a c5 a4 3f e8 a7 81 bf ab 4c ac 3e 36 26 c2 bf
       1.287267 -1.0129366 0.33652243 -1.5167911
000050 0f 51 7b 3e 2a fd f7 3e 01 09 c9 3e b0 df ea 3e
       0.2454264 0.48435336 0.39264682 0.45873785
000060 22 93 b2 3f 58 e7 1c 40 15 16 61 3f 89 67 13 3d
       1.3951151 2.45162 0.8792432 0.03598741
000070 f3 a3 fe 3f b4 a4 91 3f fd f7 b3 bf 01 2f 02 40
       1.9893783 1.1378388 -1.4060055 2.034119
000080 1f 42 22 40 1f 96 c5 3f 14 96 20 bf a3 b3 8a 3f
       2.5352857 1.5436438 -0.62729 1.0836071
000090 99 f5 50 c0 93 eb d2 3f 63 2c d6 3f c5 7d 04 bf
       -3.26499 1.6478142 1.6732296 -0.5175441
0000a0 40 01 b5 3f 64 9c 14 3f ba ff 02 40 fc bb c5 3f
       1.4141006 0.58051133 2.0468583 1.5447993
0000b0 65 4d 0a c0 98 f4 9b 3f f1 c4 02 c0 ec 5f d3 bf
       -2.1609738 1.2184019 -2.0432703 -1.6513648
0000c0 b6 3d b7 3e 9c c8 60 c0 73 3a 26 be 52 1c 1c 3f
       0.3578927 -3.5122442 -0.16233234 0.60980713
0000d0 9a 1c 70 3e b6 30 ba 3f c0 bd f0 3d a5 9f df 3e
       0.2344841 1.4546115 0.11754942 0.43676487
0000e0 89 7e 3c bf 38 54 06 c0 df 47 bf 3e a3 4b 51 3f
       -0.7363058 -2.0988903 0.3735952 0.8175604
0000f0 13 8a d5 be 72 8c a3 3f 15 38 09 3f e8 33 f5 3f
       -0.41706905 1.2777236 0.536012 1.9156466
000100 c1 4f 8a 3e ec fa 25 3d 07 53 c9 3f 01 76 29 40
       0.27013972 0.0405225 1.5728463 2.6478274
000110 f8 b7 22 3f bd 7f 8f bf e3 8a b9 bf 15 3c 6d be
       0.63561964 -1.1210858 -1.449551 -0.2316745
000120 1a 92 b9 bf 48 d6 01 be 2e 51 85 3f 09 42 06 3f
       -1.4497712 -0.12679398 1.0415399 0.5244451
000130 14 3b 06 3f bb a9 a7 bf a4 e6 e0 bf ee 4e 11 40
       0.52433896 -1.3098673 -1.7570386 2.2704425
000140 b1 21 24 3f f8 f1 dc 3e de b7 c0 bb 1d 4b 77 3f
       0.6411391 0.43153358 -0.0058812937 0.9659899
000150 bf 31 00 40 f3 c6 0d 3f fa 09 8f 3e 21 e2 43 3f
       2.0030363 0.553817 0.279373 0.7651692
000160 7d 8d ec 3f 06 81 ae 3f 2e d1 a6 3f 6f dc 21 c0
       1.8480679 1.3633125 1.3032587 -2.5290792
000170 87 8b 3b 3f 56 23 00 40 a1 bf 1f 40 4e 96 1c bf
       0.73259777 2.0021567 2.496071 -0.61166847
000180 5d 9e 13 c0 d2 30 e9 3f 2d e8 89 c0 1d 71 92 bf
       -2.3065407 1.8218024 -4.309592 -1.144077
000190 35 89 cd 3f 7b da af 3e ea d3 f7 3f a6 b4 9a bd
       1.6057497 0.34346375 1.9361546 -0.07553987
0001a0 31 6e 5a bf 1a d4 e3 be 87 21 bb 3f 26 7b 40 bf
       -0.8532439 -0.44497758 1.4619607 -0.7518791
0001b0 40 8c b4 3f 4a 3f 2e 3d f1 f3 ce bf 34 e8 05 40
       1.4105301 0.042540826 -1.6168195 2.0922976
0001c0 ba 80 37 3f 5a b1 8d 3e 11 a7 14 40 e0 18 04 40
       0.71680796 0.2767437 2.322697 2.0640182
0001d0 dc 4d 1a c0 db 94 d1 3f 3e 1f bb bf 54 e4 04 40
       -2.4110022 1.6373552 -1.4618909 2.076436
0001e0 13 01 52 bf 9b 7b 9a bf 84 2d 99 3f 49 cc 88 3f
       -0.8203289 -1.2068971 1.1967015 1.0687343
0001f0 5b 17 52 3f d9 6a 81 3d c1 c4 bd bf 08 bd 1c 40
       0.8206689 0.06319208 -1.482567 2.4490376
000200 87 b2 d8 be 73 46 29 3f 65 0c 36 3f 7e 75 64 bf
       -0.42323706 0.6612312 0.7111266 -0.8924178
000210 f9 75 b3 3c e0 3f 12 be 54 8e f2 be a4 b0 a7 bf
       0.02190684 -0.14282179 -0.47374213 -1.3100781
000220 58 0a 6f bf 4a d0 0b bf 4d 22 14 3f 65 ba 60 3f
       -0.9337516 -0.546147 0.5786484 0.87784415
000230 23 c7 cc be e3 da 18 be 7d 8e 16 bf 50 d4 9f be
       -0.3999568 -0.14927249 -0.5881117 -0.3121667
000240 36 2a 0b bf 58 bd 43 be 83 18 17 bf a7 ed 62 3e
       -0.54361284 -0.19115198 -0.59021777 0.2216097
000250 80 85 94 bf 92 82 0d 3f 85 27 11 3f 56 7e 26 3f
       -1.1603241 0.5527736 0.56700927 0.65036523
000260 4d 76 ea 3e d4 b1 2f bf f7 87 7c 3f bb e3 01 bf
       0.4579338 -0.6863072 0.98644966 -0.50738114
000270 69 f4 13 3f 67 43 6a bf ee 3a 3a bf 4f dc 91 bf
       0.57794815 -0.915091 -0.7274617 -1.1395358
000280 f9 d2 0e 3f 79 b3 94 bf fc 47 34 bf 9d d5 a4 bf
       0.5579067 -1.1617271 -0.7042234 -1.287769
000290 22 2e 1f 3f c5 f7 ce bf e5 77 b5 bf 69 a0 4d bf
       0.6217977 -1.6169363 -1.4177214 -0.8032289
0002a0 20 23 01 3f 71 4f 69 bf 65 15 70 3f e4 2c d2 3e
       0.5044422 -0.9113684 0.93782645 0.41049874
0002b0 40 30 95 3d 7d 77 11 be 28 38 1b bf 51 62 47 bf
       0.072845936 -0.14205737 -0.6063256 -0.77884394
0002c0 a1 dd 9a 3f 70 7a b9 be 4a 31 a7 3f 97 3a 63 3f
       1.2098886 -0.36226225 1.3061917 0.88761276
0002d0 f9 e7 a7 bf cd 88 2f bf 30 33 92 3e e2 55 98 be
       -1.3117667 -0.68568116 0.28554678 -0.29753023
0002e0 6c 97 fe bc a0 ed 6a bf a7 07 28 3f 47 d2 81 be
       -0.031078063 -0.91768837 0.65636677 -0.2535574
0002f0 10 b4 99 be ae 6d b6 3f ca f5 b4 be 82 17 0a 3f
       -0.3002019 1.4252222 -0.35343772 0.5394212
000300 0c 52 e4 be bc 49 52 bf eb 9f 27 3f 86 9a 61 3f
       -0.44593847 -0.8214376 0.6547839 0.8812641
000310 4a 60 75 3f 51 dc 58 bf 84 cb 2c bf 2a 4c ac 3d
       0.9585005 -0.84711176 -0.6749804 0.08412965
000320 c6 f6 ad be 44 8c 13 bf 51 8c 64 3f c8 e5 54 3f
       -0.33977336 -0.57635903 0.89276606 0.8316312
000330 94 ff 0b 3e 89 bf 94 bc c2 89 38 be 8e 5b 25 3f
       0.13671714 -0.018157737 -0.180213 0.64592826
000340 a4 99 4b bf 64 ea 4f 3f 05 df 2b bf b9 d4 c8 3e
       -0.7953131 0.81217027 -0.67137176 0.39224795
000350 b6 89 14 3f b8 78 a6 bd 7b a9 1d bf b8 ca d3 3e
       0.5802263 -0.08128494 -0.6158673 0.413656
000360 50 da 8b bf 15 ba 70 bf 18 12 8c bf 03 6e 3b bf
       -1.0925999 -0.9403394 -1.0943022 -0.7321474
000370 ea fa 9f bf 4e 3d 21 3f 01 23 2d 3f 1c 0d 34 3f
       -1.2498448 0.6298417 0.67631537 0.70332503
000380 df cd 2f bf a0 24 ae 3e da 53 27 bf 9e dc 43 bd
       -0.6867351 0.34012318 -0.6536232 -0.04781782
000390 f0 d4 0c 3f d7 d5 96 be 1e 51 2e 3f 03 6e 44 bf
       0.55012417 -0.29460022 0.68092525 -0.76730365
0003a0 72 07 54 bf 6a d6 a7 be ee f1 f0 3e 02 ed 5f be
       -0.8282386 -0.32780772 0.47059578 -0.21867755
0003b0 d4 fa 46 bf b2 5c 8b bf b4 65 90 bf cf 54 66 bf
       -0.77726483 -1.0887663 -1.1281037 -0.8997316
0003c0 56 45 1a 3f 38 25 79 be 30 1a de 3e f3 32 8c bf
       0.6026205 -0.24330604 0.43379354 -1.0953048
0003d0 8c c0 d1 bd cf c1 03 40 85 13 4d bf 4b 66 da be
       -0.102418035 2.0587041 -0.8010791 -0.42656168
0003e0 5e 07 af 3d 25 21 b3 be f5 6c c8 3e ca f0 33 3f
       0.08546327 -0.34986225 0.39145628 0.7028929
0003f0 71 25 22 bf b5 84 9a bf 0b db b8 be fc 9b 39 3f
       -0.6333838 -1.2071749 -0.36104617 0.7250364

lstm.bias_hh_l0 f4 [512]
000000 fc d4 6c 3e 0f 64 b4 bd 6c 6c 9d be 20 6e 3a bf
       0.23128122 -0.08808147 -0.30746782 -0.7282429
000010 2b 59 33 bd ef 54 b2 bf b1 28 29 c0 1c 99 e9 3f
       -0.04378621 -1.393217 -2.6431086 1.824985
000020 d9 8f d9 bf d5 59 21 40 ad 46 d2 3d b3 68 b4 3f
       -1.6997024 2.521108 0.102673866 1.4094452
000030 4a 20 28 3f 93 41 f7 bf 28 9e b2 3f 14 f1 d7 3f
       0.6567427 -1.9316887 1.3954515 1.6870446
000040 8a 4b a2 3f d1 5a 7a bf 1c ad 9d 3e ef 05 be bf
       1.2679303 -0.97794825 0.30796134 -1.4845561
000050 ee f2 75 3e 8d 70 ef 3e 24 1f a7 3e ef 1f e8 3e
       0.24018452 0.46765557 0.32640946 0.45336863
000060 87 b9 b6 3f 92 f8 23 40 61 67 55 3f 85 bd 59 bc
       1.4275368 2.5620465 0.8336087 -0.013289814
000070 b9 b2 06 40 99 96 a0 3f 3d 53 bc bf 92 73 03 40
       2.1046584 1.2545959 -1.4712902 2.0539289
000080 d3 d0 1b 40 b2 4a bb 3f 91 e0 23 bf 81 f5 88 3f
       2.4346206 1.463217 -0.64014536 1.0699922
000090 f0 eb 4d c0 f3 f4 e0 3f e4 ef cb 3f 0f ae 29 bf
       -3.2175255 1.7574753 1.5932584 -0.6628122
0000a0 f8 9b b4 3f 93 96 19 3f d9 7f fa 3f df 7d ba 3f
       1.4110098 0.59995383 1.9570266 1.4569663
0000b0 c2 a8 10 c0 58 17 a7 3f 0e 73 01 c0 e5 87 cc bf
       -2.2603002 1.3053999 -2.0226474 -1.5978972
0000c0 36 7a a8 3e 45 51 5e c0 df 3a 28 be ce e8 ff 3e
       0.3290574 -3.4737103 -0.16428708 0.49982303
0000d0 35 1a 71 3e a0 fe c1 3f d7 cb b6 3c c7 c9 d4 3e
       0.23545153 1.515583 0.022313995 0.41560194
0000e0 1d 18 47 bf 59 f0 04 c0 15 dd d2 3e 48 ff 58 3f
       -0.7777117 -2.0771697 0.41184297 0.8476453
0000f0 23 7a 00 bf 4d cb 9f 3f 14 b7 e3 3e 0e 01 f8 3f
       -0.50186366 1.2483917 0.44475615 1.9375322
000100 e8 89 4e 3e a0 31 32 bd c6 c8 b6 3f e6 4c 28 40
       0.20169795 -0.043504357 1.4280021 2.6296935
000110 71 da 00 3f 0a 81 89 bf 3f 43 c0 bf ce 04 34 be
       0.50333315 -1.0742505 -1.5020522 -0.17579958
000120 7d f5 cd bf 30 75 dd bd b6 5b 6c 3f 50 96 1a 3f
       -1.6090542 -0.10813367 0.9232744 0.6038561
000130 d8 2d 04 3f 27 f4 a9 bf 9e 9c e2 bf c0 11 10 40
       0.5163245 -1.3277634 -1.7704046 2.2510834
000140 13 e0 23 3f 5c 7d d2 3e f7 75 38 bd 27 69 7b 3f
       0.64013785 0.41111267 -0.045034375 0.98207325
000150 60 e5 f9 3f 57 38 02 3f 25 97 9a 3e 7d 0d 43 3f
       1.9523125 0.5086722 0.3019344 0.76192456
000160 d9 5c f3 3f cf 1f 9a 3f ee 99 a2 3f 0b bb 27 c0
       1.901271 1.2040957 1.2703226 -2.6207912
000170 94 c5 34 3f 86 77 05 40 d5 ff 1e 40 57 74 f4 be
       0.7061398 2.0854201 2.4843647 -0.4774501
000180 55 a3 15 c0 73 5d f8 3f 38 b3 8c c0 d8 d4 9e bf
       -2.338094 1.9403518 -4.3968773 -1.2408705
000190 80 14 c9 3f 86 3f a3 3e 83 a1 f5 3f 90 27 0d be
       1.5709381 0.31884402 1.9189914 -0.13784623
0001a0 3b de 7e bf 01 c8 b9 be 80 c4 b5 3f b7 85 5d bf
       -0.99557847 -0.36285403 1.4200592 -0.8653216
0001b0 59 81 b4 3f 3f 27 ed 3c 0e 04 cb bf 87 6f 04 40
       1.4101974 0.028949378 -1.5860612 2.069307
0001c0 40 0f 38 3f 61 22 64 3e 5c a8 0e 40 ed 19 06 40
       0.7189827 0.2227874 2.2290258 2.0953324
0001d0 fb da 13 c0 69 a0 de 3f da 70 b8 bf db 54 05 40
       -2.3102405 1.7392703 -1.440944 2.0833042
0001e0 25 ff 3e bf cc 7e a9 bf fa a5 96 3f 04 84 86 3f
       -0.7460807 -1.324182 1.1769402 1.0509038
0001f0 c9 3b 55 3f b2 8b 1a 3d 8e 28 ba bf ce ea 14 40
       0.8329435 0.03773088 -1.4543626 2.3268313
000200 3d 10 da be d7 4d 14 3f dd 6f 31 3f 45 28 60 bf
       -0.42590514 0.57931274 0.69311315 -0.87561446
000210 15 65 26 bc f3 5c 30 be 6d ba c5 be bb 89 a5 bf
       -0.010155936 -0.17222957 -0.38618794 -1.2932657
000220 c2 92 8a bf bc e8 0a bf f0 4f 19 3f d6 26 54 3f
       -1.0826037 -0.54261374 0.598876 0.8287176
000230 06 60 e4 be 3d 5a 69 be 70 9f 34 bf 4b 8c a7 be
       -0.4460451 -0.2278833 -0.7055578 -0.32724223
000240 c7 88 17 bf 32 e0 34 bd 5d c3 fb be d4 91 83 3e
       -0.5919308 -0.04415912 -0.49172488 0.25697196
000250 0e 6e 9d bf 5b 0c 04 3f 0f f2 f9 3e 74 a1 29 3f
       -1.2299211 0.5158135 0.4881749 0.6626198
000260 1a 33 01 3f c1 ca 26 bf 84 5e 87 3f 3f e5 e4 be
       0.504686 -0.6515313 1.0575719 -0.4470615
000270 e5 6f fc 3e 87 7a 69 bf c7 ec 52 bf 40 00 8d bf
       0.4930412 -0.91202587 -0.82392544 -1.1015701
000280 3d 60 04 3f 66 0b 8a bf 1d 26 43 bf bb 31 ad bf
       0.5170935 -1.0784729 -0.7623003 -1.3530802
000290 16 c9 26 3f ea 9d cc bf 09 88 a2 bf e3 04 61 bf
       0.6515058 -1.5985692 -1.2697765 -0.8789808
0002a0 54 1d 17 3f 79 6a 7f bf 33 29 4f 3f 02 71 a0 3e
       0.59029126 -0.9977184 0.8092224 0.31336218
0002b0 36 3d 93 3d 22 1c df bd a7 85 f2 be 4b 58 54 bf
       0.071894094 -0.10894038 -0.47367594 -0.82947224
0002c0 49 62 a2 3f 04 78 aa be 61 74 a3 3f 0d d7 6c 3f
       1.2686244 -0.3329469 1.2769891 0.9251564
0002d0 77 ab a5 bf 13 33 30 bf 97 2d 41 3e 1a 49 99 be
       -1.2942952 -0.68827933 0.18865047 -0.29938585
0002e0 f8 ea 88 3d 2e 6f 80 bf 38 86 01 3f 70 37 92 be
       0.06685442 -1.0033929 0.50595427 -0.2855792
0002f0 b8 0f dd be 1d e0 b0 3f 0c ec 70 be 08 fe 31 3f
       -0.43176055 1.3818394 -0.23527545 0.69528246
000300 6f 7f f1 be 46 e0 41 bf ef b2 24 3f 0d b3 7a 3f
       -0.47167537 -0.7573284 0.6433553 0.9792946
000310 c9 2f 82 3f e9 6d 70 bf cd e1 43 bf 53 26 99 3d
       1.0170833 -0.9391771 -0.7651642 0.07478013
000320 1a 65 d8 be a8 ec 07 bf ae 49 62 3f dc 57 4a 3f
       -0.42264634 -0.53095484 0.88393676 0.7904031
000330 47 5e d7 3d 56 3a 22 b9 34 37 22 be cf 46 10 3f
       0.10516029 -0.00015471256 -0.15841371 0.56358045
000340 ac d2 4e bf 88 ce 52 3f 15 f8 28 bf 50 a2 c2 3e
       -0.8079021 0.8234639 -0.66003543 0.3801446
000350 a2 23 f8 3e 87 e3 52 bd f6 e7 15 bf 73 45 bc 3e
       0.48464686 -0.05148652 -0.5855707 0.36771736
000360 9d 12 8d bf 30 56 65 bf bc 76 80 bf 0e 33 63 bf
       -1.1021305 -0.89584637 -1.0036235 -0.8874978
000370 bd e2 a2 bf 17 9e 3b 3f a1 b8 0f 3f 98 ac 1d 3f
       -1.2725445 0.732881 0.56141096 0.6159148
000380 dc 72 4d bf 07 12 dd 3e cd 02 2a bf 1c a4 82 bd
       -0.80253386 0.43177816 -0.66410524 -0.06378958
000390 0a 45 19 3f b7 88 89 be 12 a2 08 3f 3c fb 6a bf
       0.5987097 -0.26862118 0.533723 -0.91789603
0003a0 81 86 37 bf 2a 8c 83 be 1d a9 0c 3f 4f fa 6e be
       -0.7168961 -0.25692874 0.54945546 -0.23337673
0003b0 9c 3a 3b bf ed 3b 8e bf b6 7d 9a bf c0 67 66 bf
       -0.73136306 -1.1112038 -1.2069614 -0.9000206
0003c0 2b 89 08 3f 7c 11 94 be fa 3d ea 3e 00 c1 8c bf
       0.533343 -0.2891959 0.4575041 -1.0996399
0003d0 38 b9 c8 3c b6 78 0a 40 28 b0 45 bf c5 8a 02 bf
       0.024502382 2.1636176 -0.7722192 -0.50992996
0003e0 45 ec 3f 3e 66 fe 9f be 5f 0d bd 3e fd 28 3b 3f
       0.18742473 -0.31248778 0.36924264 0.7310942
0003f0 df 62 3c bf fc 60 8e bf bc da a3 be ba 90 34 3f
       -0.73588365 -1.1123347 -0.3200282 0.70533335

lstm.weight_ih_l1 f4 [512, 128]
000000 e0 31 15 bd 6b 84 ee be 12 43 a6 3e b2 81 bd bd
       -0.036424518 -0.46585402 0.32473046 -0.09253253
000010 a0 1a 26 be ee 35 26 bd e5 26 ab 3e 3e 28 55 bf
       -0.16221094 -0.040578775 0.33428112 -0.8326453
000020 84 31 ae be 6b 1f c2 be 30 3a a1 bd 1c e0 0f 3f
       -0.34022152 -0.37914595 -0.078724265 0.5620134
000030 e3 af b4 3d 73 c2 5c 3e 1c 10 24 3e ed e1 3f 3f
       0.0882261 0.21558551 0.1602177 0.7495411
000040 72 0b a8 be 26 4c c1 3c 66 7e 02 bd 3e 91 d6 3e
       -0.32821232 0.02359588 -0.031858824 0.41907686
000050 e3 15 1c 3e 7d 45 2b 3f 78 d6 0c bf 43 3a c8 3d
       0.15242724 0.66902906 -0.55014753 0.097767375
000060 f5 6c 05 bf dc 70 2e 3f 3e e7 28 bf 64 12 11 bf
       -0.5211938 0.6814096 -0.6597785 -0.56668687
000070 79 19 9a 3e 98 e1 8e 3e 69 37 33 3e 00 4e c2 3e
       0.3009756 0.2790649 0.17501606 0.37950134
000080 b7 4e 5f 3d bd cb 1c 3f 7a 48 14 3f 9f 38 2c 3f
       0.054518428 0.6124838 0.5792309 0.67273897
000090 18 a5 07 3f ce 4d 88 3e 58 6b 39 bd c8 8b 7c 3e
       0.5298629 0.2662186 -0.045268387 0.24662697
0000a0 0d b7 d7 3d 75 f8 f0 3e 6e 3b 29 3e 9d d8 18 3f
       0.10532961 0.47064558 0.16526577 0.59705526
0000b0 e3 8c 0e bd 81 9d d4 be 68 8b 55 3e 54 91 28 3d
       -0.03480233 -0.41526416 0.2085396 0.04115422
0000c0 80 10 20 bf b0 d5 03 3f d7 b7 95 bb 8d 80 98 be
       -0.62525177 0.51497936 -0.0045690346 -0.29785576
0000d0 91 16 45 be d0 bb b4 3e b2 46 cb be 40 26 89 be
       -0.1924689 0.3529954 -0.39702374 -0.26786995
0000e0 58 95 18 3e d7 7f 2b bd 9d 85 0d bf 37 2f 09 bf
       0.1490072 -0.041869964 -0.55282 -0.5358767
0000f0 12 c3 8c bd ab 77 f4 3e a7 8c ad 3e a0 46 cc be
       -0.06873144 0.4774755 0.33896372 -0.39897633
000100 e2 9b 80 3e 0f 0c 84 3c b0 1d 40 be b5 02 16 bf
       0.2511893 0.016119031 -0.18761325 -0.5859788
000110 91 7f 30 bf 4b 7d 48 3e 09 fd c5 3d c9 18 a2 3d
       -0.6894465 0.19579045 0.09667403 0.07914884
000120 29 b9 c3 3d e9 0c 49 3e c9 d9 b0 bd ef ac 28 be
       0.09556801 0.19633831 -0.08635289 -0.16472219
000130 97 11 b7 3e 0e a0 39 be 95 96 b2 bd 64 0f 0e 3f
       0.35755607 -0.18127462 -0.087201275 0.55492234
000140 1d c9 e5 bd 19 db 95 3e ca 93 a4 bd 25 2e cd bd
       -0.1122 0.2926872 -0.08036001 -0.10018567
000150 80 9b 33 3e 17 cf 7c 3e 75 1b d0 3d a0 af 8e 3e
       0.17539787 0.24688374 0.10161487 0.27868366
000160 84 88 86 3e b1 ca 08 3f 6c 80 bb be 9d dc 02 3e
       0.26276028 0.5343428 -0.36621416 0.1277947
000170 bf 52 77 bd 2e a2 3e bf 76 23 fb be cb 80 9e be
       -0.060381647 -0.74466217 -0.49050492 -0.30957636
000180 30 eb a6 3e a8 a1 3e bf d6 fd bf be 57 3d 01 bf
       0.3260131 -0.7446542 -0.3749835 -0.5048422
000190 44 a0 fc be 86 b5 85 bf 31 06 2b 3e 34 43 84 bd
       -0.49341023 -1.0446022 0.1670158 -0.064581305
0001a0 5e ec f0 3e 74 52 e7 3d a8 4b 4b 3e 09 53 82 bc
       0.47055334 0.112950236 0.1985308 -0.015908735
0001b0 d8 1d cd bd 77 82 e3 be f9 ac 2c 3e 6f d0 41 be
       -0.10015458 -0.44435474 0.16862859 -0.18927167
0001c0 53 1e a4 3e af 53 3b be 58 d1 9b be 7d e6 ed bd
       0.32054386 -0.18293642 -0.30433154 -0.11616228
0001d0 14 f4 29 3e 00 08 4d 3f 50 b8 11 3f a7 1a 4c 3e
       0.16597015 0.8009033 0.56921864 0.19932042
0001e0 20 98 0c be a6 da 72 bd 06 7f 12 be 61 97 23 3f
       -0.13729906 -0.05929055 -0.14306268 0.6390286
0001f0 26 2c 4c be 03 e4 e7 3c 59 36 4b bd 68 dd 22 bf
       -0.19938716 0.028306967 -0.049612377 -0.6361909
000200 13 a1 27 bd 56 90 7a be b3 30 de bd 2b 07 2b 3e
       -0.040925097 -0.24469122 -0.108491324 0.16701953
000210 a8 76 7b 3f 6b a1 38 bf ea b5 2b be 05 ac 0e 3e
       0.9822793 -0.72121304 -0.16768613 0.13932808
000220 7d aa d1 3e d1 0c db 3e 1e 48 22 bf f9 1f e8 be
       0.40950385 0.42783216 -0.6339129 -0.45336893
000230 24 95 91 bf 01 28 68 be ff be 0e 3f b6 e1 4c bf
       -1.1373639 -0.2267151 0.55760187 -0.8003191
000240 77 a2 dc 3e ac db 20 3e 3c b2 f0 3e ee 1c cd be
       0.430927 0.15708798 0.47010982 -0.40061134
000250 d6 4d f8 bd 41 2f 44 be 41 11 ca 3e 19 ae 98 be
       -0.12124221 -0.19158651 0.3946629 -0.29820326
000260 1c 9e 3d bf 87 f0 21 bf 93 06 fa bd 90 9a d4 be
       -0.7406938 -0.6325764 -0.12208285 -0.41524172
000270 06 1e 01 bf f2 cb 87 be 3f b2 00 bf be 25 52 3f
       -0.5043644 -0.26522785 -0.5027198 0.8208884
000280 f6 de b2 3e 23 dc 10 bf d3 b1 ff be cf 82 39 bf
       0.3493573 -0.565859 -0.49940357 -0.72465223
000290 7d 67 62 be 1e 4a 03 bf af 6f 3a 3f 88 27 69 be
       -0.2210979 -0.5128497 0.72826666 -0.22768986
0002a0 1f d8 61 bf 84 a9 04 bf 35 a5 df be ef c2 41 bf
       -0.882204 -0.5182116 -0.4368073 -0.7568807
0002b0 b4 93 0f 3e c9 c4 e7 3c 1f 0d 6f be 3f f6 56 be
       0.14021188 0.028292077 -0.23344849 -0.20992373
0002c0 5d d2 00 be 4a 17 bd 3c 09 4a 36 bf ae cc 47 3f
       -0.12580247 0.023082394 -0.7120672 0.7804669
0002d0 3b a5 03 3f 02 fa 66 bf 4a 56 54 3e c2 fd 85 3e
       0.51423997 -0.9022523 0.20736042 0.26170164
0002e0 9f 70 14 be e4 39 41 bd 87 7a 26 3f 3d 0c 23 3e
       -0.14496087 -0.04717435 0.6503071 0.15922637
0002f0 45 ea 0e 3e 14 c6 c1 3b 49 06 1c bf f3 30 85 3f
       0.13956554 0.0059135053 -0.6094709 1.0405563
000300 1f f1 ad be 67 06 37 bd b5 03 93 3e 21 0c 6c 3f
       -0.33973023 -0.04468384 0.28713766 0.9220601
000310 eb b0 ae 3d a1 af ef be b9 ee 16 be af 90 2a be
       0.08529838 -0.46813682 -0.14739503 -0.16656755
000320 d7 c8 07 bf 70 ad 12 bf f1 ee 75 3e e9 7a 8c 3f
       -0.5304083 -0.57295895 0.2401693 1.0975009
000330 46 55 76 be a5 ae d9 3a d5 b0 ba 3d f6 05 18 bf
       -0.24055967 0.0016607834 0.09115759 -0.59384096
000340 2c b6 e4 3e 2f 4e 13 3f f2 28 08 bf 80 5a 88 3f
       0.44670236 0.57541174 -0.5318748 1.0652618
000350 2f 81 13 bf 47 57 29 bf 2c fd 64 be 78 e5 31 bf
       -0.57618994 -0.661488 -0.22362202 -0.69490767
000360 ec 11 6e be a6 d3 1d bf 7e d0 4d 3e 7c 44 97 be
       -0.23249024 -0.61651075 0.20099065 -0.29544437
000370 b3 82 3d 3e 7c 91 f6 3e 02 24 0c 3f f2 36 4c bf
       0.18506889 0.4815787 0.54742444 -0.7977134
000380 b8 f8 cb 3e 4a 18 eb 3e de 42 14 3e 73 76 31 3f
       0.39838195 0.4591697 0.14478633 0.69321364
000390 89 e5 b6 3f d3 1e 08 be 5d 99 68 be 79 8d 86 3f
       1.4288799 -0.13293009 -0.22714753 1.0511924
0003a0 a0 3c 48 bd f8 52 85 be 0c 80 48 bf 94 44 10 3e
       -0.04888594 -0.26039863 -0.78320384 0.1408866
0003b0 83 ef 90 3e 68 07 02 3f b1 83 9f 3e 05 82 0a bf
       0.28307733 0.5079255 0.3115516 -0.54104644
0003c0 89 57 f4 be 3a ea 84 3d 86 60 30 3f 49 99 84 3f
       -0.47723034 0.06489988 0.68897283 1.0359279
0003d0 a2 5c ec bd 69 27 4e bf 1c 89 48 bd 86 27 26 bf
       -0.11541106 -0.80528885 -0.048958883 -0.6490406
0003e0 36 37 76 3e 4c 3b 93 bc 86 18 19 3f 83 2f 0e bf
       0.24044499 -0.01797261 0.59803045 -0.5554125
0003f0 f1 2a 74 3e f0 a1 4f 3f 8b 09 47 3d ad c2 2e 3f
       0.23844506 0.8110647 0.048593085 0.682658

lstm.weight_hh_l1 f4 [512, 128]
000000 2e ba 10 3e 31 e7 27 3e ff 2a fc 3e c6 f7 38 3d
       0.14133522 0.16396786 0.49251553 0.04515817
000010 8e 8f f8 bc 1a 30 32 bd d1 d9 65 bd c1 fb cd 3d
       -0.03034189 -0.043502904 -0.05611593 0.10057784
000020 48 c2 f1 3b 7e 64 c8 3d dd 23 ca 3c 3e 8b f2 3c
       0.0073778965 0.09784792 0.024675304 0.029607411
000030 3d 45 52 be 66 38 2a 3f 3b a5 df bd 4c d9 da 3b
       -0.20534225 0.6649231 -0.10920187 0.006678736
000040 41 c4 b9 3d e7 1c 68 3e d6 1d e5 bc 5c 3c 0b bf
       0.090706356 0.22667275 -0.027968328 -0.54388976
000050 02 78 c1 3e 4b fd c2 bd 45 c5 16 bc 48 ec 2d bd
       0.3778687 -0.09520968 -0.009202306 -0.042461663
000060 ac 4b 18 3e af 08 12 3e 32 11 c7 bd 80 8b 71 bd
       0.14872617 0.14261125 -0.097200766 -0.05897093
000070 ff 43 ee 3c 3b 07 03 bf 5e ec 4e bd 8c 62 c6 3e
       0.029085157 -0.5118291 -0.050518386 0.3874706
000080 c0 fd 23 3d b9 dd 57 bd cb ff b9 3e fd 09 44 bd
       0.040036917 -0.052701686 0.36327967 -0.047861088
000090 dc 88 99 3e 14 fa 41 bc 24 24 06 bf a0 c0 cb 3e
       0.29987228 -0.011839408 -0.52398896 0.397954
0000a0 18 83 2e 3f d1 a9 5d bd ba ba 74 bd 75 19 db bd
       0.68168783 -0.054117028 -0.05974839 -0.10698215
0000b0 b2 26 92 be ab 13 8b bb 3c 09 2e be 9e 3c 39 be
       -0.28545147 -0.004244288 -0.1699571 -0.1808953
0000c0 e1 4a 93 3d fa c9 fb 3c 2b 83 05 3e 21 f0 b5 3d
       0.071920164 0.030735958 0.13038318 0.088836916
0000d0 b8 68 26 3f 29 cb d5 3e ff f0 70 be c8 a4 1b 3d
       0.6500354 0.4175656 -0.23529433 0.037998945
0000e0 59 15 d6 3c 70 01 8a bd 58 ae d8 3d 96 c0 b9 3d
       0.026133226 -0.067385554 0.105801284 0.09069936
0000f0 2c 72 e8 be f2 06 d0 3c 17 24 89 be a6 16 47 bf
       -0.45399606 0.025393937 -0.26785347 -0.77768934
000100 97 5d a3 3d 6b df 89 3e fc 72 13 bd 10 98 86 3d
       0.07976835 0.26928267 -0.03599833 0.06571972
000110 4d d6 db bc 97 8d 33 3f 92 ac c0 3d 9b ae ad bc
       -0.026835585 0.70137924 0.09407915 -0.021201422
000120 00 c5 03 be 01 b7 14 39 40 d3 ce 3c c0 24 6f bd
       -0.12868118 0.00014182554 0.025247216 -0.058384657
000130 92 15 66 3e b9 98 85 3e 6d 3f b9 bd 83 5f 89 bb
       0.22469166 0.2609308 -0.09045301 -0.004192294
000140 db e5 bf 3e 2d 8e 16 3f c1 61 44 3d 20 a8 b1 3e
       0.37480053 0.58810693 0.047944788 0.34698582
000150 66 71 53 3e 9f 37 1e 3e 30 70 f9 bd 22 2a 26 bd
       0.20648727 0.15450905 -0.12179601 -0.040567525
000160 b1 81 ad be 42 11 05 3e bf 29 c0 3e 17 6b 2b be
       -0.3388801 0.12994865 0.3753185 -0.1674007
000170 cf 56 68 3e b0 75 d1 3e c6 2b b0 bd 91 e6 0e bf
       0.22689365 0.409101 -0.08602099 -0.55820566
000180 e5 3c 52 be 50 33 eb bd 60 73 8c bc da c0 f3 bc
       -0.20531042 -0.114843965 -0.017144859 -0.029755045
000190 0c bf 5f bd 28 3b 17 3d ec 1f 3f bf 75 17 2b bf
       -0.054625556 0.03692165 -0.74658084 -0.6683267
0001a0 7e dc 88 3d 4b 09 b9 3c b0 7b 8f be 50 66 e4 3d
       0.066826805 0.022587439 -0.28024054 0.11152327
0001b0 6e 76 33 bf 1b d3 7e 3d a1 94 25 bf 13 0b fe bd
       -0.70102584 0.062213045 -0.64679915 -0.12404456
0001c0 1a 80 73 bf e7 6b 0d be 09 67 9c 3d e3 aa c5 3e
       -0.9511734 -0.13810693 0.0763684 0.3860694
0001d0 af 92 9e 3d 11 55 66 3e 6f 9a da bd 54 64 88 3d
       0.077428214 0.22493388 -0.10673987 0.06659761
0001e0 40 88 b5 be 0b fb fc 3e 85 a3 9f bd df b6 ee 3d
       -0.35455513 0.4941028 -0.07794861 0.11655974
0001f0 71 e7 09 bb 97 1b a1 3d 29 cd 53 be 8e 55 6d be
       -0.002104249 0.078665905 -0.20683731 -0.23177168
000200 1f bf c8 bb 72 8a 02 be 25 e3 72 bc ad 69 15 be
       -0.006126299 -0.12748125 -0.014824663 -0.14591093
000210 43 c3 00 bb f9 96 ac 3d 3a 9a 84 bc 09 28 40 bc
       -0.0019647635 0.08427233 -0.016186822 -0.011728295
000220 18 a3 a4 bc c3 3a d6 be cd 9e 48 be cd 8b ad bc
       -0.0200973 -0.41841707 -0.19591828 -0.021184826
000230 c1 38 c6 ba 14 ac 2a be 8d 3d 5b 3e 57 d3 7f bd
       -0.0015123115 -0.16667205 0.21410199 -0.06245741
000240 ab 0a 77 bd 13 de 45 be a3 78 bb 3d 14 5b 0d 3e
       -0.06031291 -0.19322996 0.09153869 0.13804275
000250 da e4 a5 be eb 0c 3e 3d ea c5 d2 bc c0 f3 e5 3d
       -0.32401162 0.04639904 -0.025729138 0.11228132
000260 b8 9a 8f bd bf 67 50 3d 61 0c de 3c 39 20 68 3d
       -0.07011932 0.05088019 0.027105512 0.056671355
000270 b5 df 3c bd ea be 56 bc 7a 3a 31 bd a4 3b c9 bc
       -0.04611178 -0.013107041 -0.04326866 -0.024564572
000280 f5 18 35 3e dd 34 ea 3d 74 67 11 3f 3f 40 35 bd
       0.17685302 0.11435864 0.5679848 -0.044250723
000290 94 b7 d5 bd 90 db 3b 3e 5d 00 35 3e 22 d6 df bd
       -0.104354054 0.18345475 0.1767592 -0.109295145
0002a0 b7 b9 af bc 2a e9 17 3e 80 2a 55 3d 3f 6b e2 3d
       -0.02145086 0.14835039 0.052042484 0.11055612
0002b0 87 86 95 3e 97 c6 0f 3d 60 85 62 be 54 a3 69 3e
       0.292042 0.0351015 -0.22121191 0.22816211
0002c0 cc 24 6d 3e 75 f3 ac bc 35 7c 3c 3d e8 d4 7f bc
       0.23158568 -0.021112183 0.04601689 -0.015614726
0002d0 1e 66 67 be 7d c8 7a bd e7 36 05 3d e8 91 ba bd
       -0.22597548 -0.061226357 0.032523062 -0.09109861
0002e0 20 7e 41 bc d3 39 06 3d 16 ce ae bd 43 98 30 bc
       -0.011809856 0.03276999 -0.085354015 -0.0107784895
0002f0 73 48 29 3e dc 81 6e 3b a6 8b e9 3e 46 5b 85 3d
       0.16531543 0.003639332 0.45614356 0.0651155
000300 5f ef 3f be be d7 95 bd da 83 b3 3c fc ef 36 be
       -0.18743657 -0.0731654 0.021913458 -0.17864984
000310 27 95 b4 be ce 33 d6 3c 94 d2 b9 bd f3 fa 13 be
       -0.35270044 0.02614775 -0.09073368 -0.14451198
000320 88 82 10 be 44 f1 a9 bd c2 02 85 bd ca c5 0e 3d
       -0.14112294 -0.08297971 -0.06494667 0.034856595
000330 c5 60 8e be 7f db 34 be 88 df 1c 3e 4a 5d ab 3d
       -0.27808204 -0.17661856 0.15319645 0.08367403
000340 89 f5 43 be 75 71 04 be 38 13 79 be 64 ce 0c be
       -0.19136633 -0.12933905 -0.24323738 -0.13750607
000350 7c 5c 21 bd 91 a5 5d bf b2 7b 96 3d dc 6a 80 3d
       -0.03939484 -0.8658076 0.07347812 0.06270382
000360 9c 88 1b 3e 0a b7 25 be 1c de d6 bd b5 bd 9e bd
       0.15188831 -0.16183105 -0.10491583 -0.077510275
000370 11 8e 1a be 3e e7 3d 3c bc 8e 0a bd 51 59 2d 3e
       -0.15093257 0.011590777 -0.03382753 0.16928603
000380 e8 0a 8c 3e 76 f2 1c 3e ab ed 8c bd 11 33 22 be
       0.2735207 0.15326867 -0.06881269 -0.15839793
000390 34 db 0e 3d 71 02 03 be 85 ee 6c bc 0a 36 e2 3d
       0.034877017 -0.127939 -0.014461164 0.110454634
0003a0 5d a6 e2 bc d0 d1 e0 3c bb 7c 88 be 7f 75 5e be
       -0.027667219 0.027443796 -0.26657662 -0.21724509
0003b0 46 8a 8d bd 27 06 7f bd bf 1b c6 3d 95 72 e9 3d
       -0.06911139 -0.062261727 0.09673261 0.11398808
0003c0 53 48 29 bd f8 f9 f7 3d de 10 83 3e ba c4 ad bd
       -0.04132874 0.12108225 0.25598806 -0.08484788
0003d0 94 d1 1d be 95 b6 38 be 5a e0 80 bc 42 92 84 bb
       -0.15411979 -0.180384 -0.01573198 -0.0040457556
0003e0 1d 95 2a 3d 7c 76 ab bd 37 be ee 3e 35 05 7a be
       0.04164611 -0.083722085 0.46629497 -0.24416049
0003f0 b8 9e 3f ba 50 d2 05 be 52 6d 8d 3d a6 09 b2 3e
       -0.0007309723 -0.13068509 0.06905617 0.34772986

lstm.bias_ih_l1 f4 [512]
000000 7b 0e 12 bf ce a1 0f 3f 2d e1 6a be af 73 1b bf
       -0.57053345 0.5610627 -0.2293746 -0.60723394
000010 a2 59 46 bf a6 eb 5b 3f 42 e9 8a bf c0 23 8a be
       -0.7748052 0.85906446 -1.0852435 -0.269804
000020 77 c7 47 3c 7f 37 20 3f 52 47 e7 3e a3 fd 84 bf
       0.012193552 0.6258468 0.451716 -1.0389904
000030 c5 e9 a3 3e 99 08 c2 3e 24 1a 19 3f 67 45 0b bf
       0.3201429 0.37897184 0.5980551 -0.54402775
000040 b9 30 fb be ce 10 11 3f 0b 78 bc be f3 c8 7a bf
       -0.4906061 0.56666267 -0.36810336 -0.97962874
000050 12 75 13 bf 26 f0 d6 be c6 32 29 be 69 92 d0 3d
       -0.5760051 -0.41980094 -0.16523275 0.101841755
000060 41 23 0d bf 85 08 c4 3e 11 6c 69 bf 0c b6 46 3e
       -0.5513192 0.3828775 -0.9118052 0.19405383
000070 79 b6 c7 be 18 9e 30 bf 70 b9 2e bf bf 93 bd 3e
       -0.39006403 -0.6899123 -0.68251705 0.37026784
000080 fb 25 1b 3f 0f 39 e3 be ef 91 3f 3f 5b ee 17 bf
       0.6060483 -0.4437947 0.7483205 -0.59348077
000090 ac 3c 3e 3f 08 d2 4d 3f 4f 06 11 3f 3d 60 be 3e
       0.7431133 0.8039861 0.5665025 0.371828
0000a0 45 d2 c8 3e 30 09 b3 3e 70 68 08 bf 8b 84 06 3e
       0.39222923 0.34967947 -0.5328436 0.13136499
0000b0 9f dd 39 3f 71 f8 7a 3e 65 24 e6 3e fc be 53 3f
       0.7260379 0.24508835 0.44949642 0.82713294
0000c0 f3 eb f8 be 78 ee 97 be 5d 8a e8 be 48 2b 45 3e
       -0.48617515 -0.29674125 -0.45418063 0.19254792
0000d0 16 ce 82 bf 02 c3 8b 3e 6d 52 ae bf c5 48 d8 3e
       -1.0219142 0.27297217 -1.3618904 0.4224302
0000e0 58 19 dc be 01 d2 01 be e8 95 1b bf 9f b2 b1 be
       -0.42988086 -0.12677766 -0.60775614 -0.3470659
0000f0 a7 ea ea 3e 96 4c 7d be f3 d5 47 3f ad 2d 71 be
       0.4588215 -0.24736246 0.78060836 -0.2355258
000100 47 cf 0f 3f 8b 2f ac 3e c1 97 30 bf 9d f1 6e 3f
       0.56175655 0.33630022 -0.6898156 0.9333742
000110 6d 63 b6 3e c0 50 11 3d 28 05 81 3f 9f c4 39 3f
       0.3562273 0.0354774 1.0079699 0.72565645
000120 af 21 0f 3f 67 7c b3 bf 42 e0 ec be a0 c8 e3 be
       0.5591077 -1.402234 -0.46264845 -0.44489002
000130 eb 2e b1 bf d8 b9 99 bf 42 64 06 bf 71 72 78 3f
       -1.3842443 -1.200984 -0.5249673 0.97049624
000140 93 c4 07 3f ec ff ca be 9d 6b f7 3e 8c 2f af 3d
       0.53034323 -0.39648378 0.4832429 0.08553991
000150 09 19 1b 3f 6a 51 1e 3f af 70 5a 3f 7e 75 05 bf
       0.60585076 0.6184298 0.8532819 -0.52132404
000160 b8 23 81 bf 27 be 39 3e 8e 1c 93 bf 32 8f 52 3d
       -1.0089025 0.18138944 -1.1493089 0.051406093
000170 27 84 9d 3e 44 3a 84 3e e9 47 eb be 1e 82 2e bf
       0.30764887 0.25825703 -0.459533 -0.68167293
000180 d6 a0 4e 3f 79 ca ac 3e a7 76 13 3e 35 f0 19 3f
       0.80714166 0.33748224 0.14400731 0.6013215
000190 dd 66 bf 3d 1a fe 89 bf 0e 65 04 bf 15 9d 12 3f
       0.093457915 -1.0780671 -0.517167 0.5727094
0001a0 a1 a2 64 bf 25 e6 8e bf 7e 2c 96 3f ff c3 45 3f
       -0.8931065 -1.1163985 1.1732328 0.7725219
0001b0 d0 91 31 3f 9f ec 78 3f 01 6b 55 bb ac 25 0f bf
       0.6936312 0.97236055 -0.0032565 -0.5591686
0001c0 8c 41 2a bf 57 6b b9 bf a6 b5 8d be c5 d0 d5 3e
       -0.66506267 -1.4485883 -0.2767765 0.4176084
0001d0 31 0c 1a 3e cc 06 2d 3f 46 df 3d bf 67 36 9e bf
       0.15043713 0.67588496 -0.74168813 -1.2360352
0001e0 43 56 29 bf 8c 75 81 bf 3c e8 03 3f e3 bf 9a 3e
       -0.6614725 -1.0113997 0.51526237 0.30224523
0001f0 b9 0b 84 bf e9 cd a4 3e 84 56 d9 3e 50 9b 7f bf
       -1.0316077 0.32188347 0.4244882 -0.99846363
000200 1b ec ec be 51 dd e4 3e ac 12 50 3f 3e 98 a0 3e
       -0.46273884 0.447001 0.8127849 0.31366152
000210 0d 1d ba be 7e 8a fe 3e 01 7a 83 bc 7a ab 8c bf
       -0.3635029 0.49715036 -0.016049387 -1.098983
000220 b0 21 0b bf 36 86 c1 3e 90 3e bc 3e b3 c7 07 bf
       -0.5434828 0.37797707 0.3676648 -0.5303909
000230 bb 85 a5 bf cf 61 93 3e 48 3e 2d 3f 15 d2 5f be
       -1.2931436 0.2878556 0.6767316 -0.21857484
000240 7d 15 98 bd 99 98 8a 3e eb 9c 9e be ab 9a c6 bd
       -0.074259736 0.27069548 -0.30979094 -0.09697469
000250 ef 3d d5 3e 73 52 75 be 2a 45 b6 be e3 62 2c 3e
       0.41648814 -0.23957233 -0.35599643 0.16834597
000260 4c 94 24 be 56 34 1c 3e 74 db 71 3b c3 5d 2b bf
       -0.16072196 0.1525434 0.0036904486 -0.66939944
000270 72 0d f6 3c 55 51 f3 be ae 00 02 be 3c 53 14 3f
       0.030035708 -0.4752299 -0.12695572 0.57939506
000280 3f 74 2d bd c0 74 53 bd 8e 40 06 3f 33 72 b8 be
       -0.04234719 -0.051625013 0.5244225 -0.36024627
000290 11 20 13 3f d8 ac 89 3e 02 a3 d3 3e d5 35 e5 3e
       0.57470804 0.26889682 0.41335303 0.44767633
0002a0 32 bb 99 bf e7 61 c0 3e 73 cf 25 be 51 ee 46 3d
       -1.2010252 0.37574694 -0.16192417 0.04856712
0002b0 42 aa eb 3e ca 59 24 3f ac a0 f9 3e 7d 5e 7f bf
       0.46028334 0.6419951 0.48755395 -0.9975355
0002c0 8a 9f b6 be 80 2c 8d be 1d 0b 01 be 80 52 b3 3e
       -0.35668594 -0.27573013 -0.12601896 0.3502388
0002d0 1f 96 69 3f 7a 6e 6e 3e 3f a3 aa 3e cb 59 f4 3e
       0.9124469 0.23284331 0.33327672 0.47724757
0002e0 1b 1a a1 be 31 6a 0f bf e6 6e 22 be 9d 2a a8 bd
       -0.3146523 -0.5602141 -0.15862617 -0.08211253
0002f0 8f 57 9b bf 9e b7 21 be 38 3a 10 3f 7e 29 e1 bd
       -1.2136096 -0.157927 0.56338835 -0.10994242
000300 5f 45 2e 3f 21 2e 91 3e c2 bf 02 be 75 6c 05 3f
       0.680746 0.28355506 -0.12768462 0.5211862
000310 fd 22 0a 3e 21 fc 7b 3d ee 95 2a 3f 7f 2e 9e be
       0.1348991 0.061519746 0.66635025 -0.3089485
000320 f0 07 c3 3e b8 e0 bb 3e 9d f8 9d bc 3c 86 16 be
       0.38091993 0.36694884 -0.019283587 -0.14699644
000330 90 9a a2 3e bb b2 da 3e c3 d8 19 bd a3 64 c1 3e
       0.31758547 0.42714486 -0.037560236 0.37772092
000340 15 9f a6 bf fb 90 22 3f 50 f8 13 3f 31 23 9e be
       -1.3017298 0.6350247 0.5780077 -0.30886224
000350 3b be 5c 3e 8c 8e 2b 3f a8 1c 04 bf ee 3d 89 be
       0.21556942 0.67014384 -0.51606226 -0.2680506
000360 6f da ac 3f 86 2a 10 3f 30 3e f8 bd 99 ee 3a bf
       1.3504161 0.56314886 -0.12121236 -0.7302032
000370 39 8b 14 3f 02 dd c3 bd da df 58 be c5 b8 d1 3e
       0.58024937 -0.09563638 -0.21179143 0.4096128
000380 db 93 13 3f d5 b9 03 be dc 3a b0 3e 4a 84 e6 3e
       0.57647485 -0.12863858 0.34419906 0.45022804
000390 68 fb 30 3e 58 2c 51 3f d2 c1 3f 3f d2 8f 4e 3f
       0.17283404 0.8170829 0.7490512 0.806882
0003a0 36 6b 0c be 51 a0 40 be d4 b2 34 bf e8 3b 10 bf
       -0.13712773 -0.18811156 -0.7058537 -0.5634141
0003b0 89 f9 15 3f 3a 79 1d 3f cc c5 f8 3e 87 0c f3 be
       0.58583885 0.615131 0.48588407 -0.47470495
0003c0 54 81 37 bf 52 ff 14 3f 37 70 fe be 30 7c 19 3f
       -0.71681714 0.5820209 -0.49694988 0.5995512
0003d0 d4 93 1a 3e 55 9f 76 bf 39 9c 82 be 70 52 3a 3e
       0.15095454 -0.9633687 -0.25509813 0.1819551
0003e0 1c 5c 49 3e 6e 36 1e 3f ab b3 31 3f 31 bf ed 3e
       0.19664043 0.61801803 0.69414777 0.4643493
0003f0 43 f3 a3 3f f8 8d e4 3e e5 99 0c 3e 6f c0 9f 3f
       1.2808613 0.44639564 0.13730581 1.2480601
