loglizer/checkpoints/20240409160844.pth (torch, 211462 bytes, 10 tensors)

lstm.weight_ih_l0 f4 [256, 1]
00000000: 9701 e33f eac2 dbbe 0eb9 a6bf aecb f43f
00000010: feec d03f 6175 cd3f bd94 c83f f957 0640
00000020: ef52 a13f 4e93 b23f c1e9 4d3e 7faf b73f
00000030: b830 c3be a62e f03f b727 203f 30c4 a43f
00000040: 4eff 723f 8584 be3f f43e e2be a963 853f
00000050: 51bd ca3f 63d5 d83f 7c98 8f3f e1f0 a73f
00000060: f284 08bf 479d 8cbf 7bf9 14bf 2e31 acbe
00000070: 14b2 f33f 9f03 b5be 0621 d53f 10c6 953f
00000080: 5d8a ae3f 749f c53e a725 a03f 63ed 283f
00000090: 8f04 c63f 4611 363f 0940 db3f 7790 7cbf
000000a0: bc0b a33f 4e15 fbbe 6805 3cbf f362 d23e
000000b0: defd 2b3f f832 f83f 04cf f43f 41cb e43f
000000c0: b40c c83f 60d7 923f 1772 4ebf 47c4 2f3e
000000d0: 8bfe 6abf 04d4 033f 7035 0540 ebd4 50be
000000e0: 1f64 ee3f 52ea 8cbf 6202 3740 c64d a13f
000000f0: e448 0b40 9dd2 9cbf a971 0a3f d6a6 dd3f
00000100: a517 7dbf 0f7f 84bf 685a c7bf 9141 c03e
00000110: 23c1 fb3e c39d 8b3f 0a46 b33e 5ab2 243e
00000120: e6a2 6cbf 88ed 12be b872 33bf f839 8f3e
00000130: ffd9 15c0 5fcc 143d d091 163f b38c 0e3f
00000140: 199c 003e 39ca 343f 060f f83e 482e d83d
00000150: dbdc b63e 1734 0c3f 7922 db3e 3ac7 543f
00000160: ab44 babf a1bf 85bf 9d1e 063f ca21 513f
00000170: 4011 7b3f 22d5 8c3f b21c d13e dec0 61bf
00000180: 1809 3c3f 745c 513f f48e 633e 4ade 83bf
00000190: 6af2 8b3c 33a3 763f 8c49 ea3e e92c 96be
000001a0: f65a 0f3f afbe 253e 4721 a9be 8df9 b93e
000001b0: 336f 763f 5046 bfbf cb2b 5a3f 61c6 a33e
000001c0: 2e43 073f f997 a23e f31e 823e 0a3c 86bf
000001d0: 3702 1dbf 632f db3e b296 103f b1ce 5d3e
000001e0: 141c 9a3f cff7 85be c029 a63f 5456 813e
000001f0: 8b7e 503f 94c9 8c3f 1c7f e5bf 32d9 973e
00000200: 0576 2b40 5a86 9dbe 32b6 1c40 2bcb ad3f
00000210: 3e5a d0bf 26d3 c53f 1129 5f3d e1ed 64bf
00000220: 3167 a7bf 23bb 1ebf 1e62 053d eb0f a3bf
00000230: 20ca 823f c656 8cbf 14c4 17bf 1ed2 9bbf
00000240: f841 6b3f db6d a73f 6a42 8d3f 8c5a 9e3f
00000250: 8b52 9b3e 884d c3bf a562 9b3f 859c acbf
00000260: dc01 ccbf 37f7 07c0 5f55 eb3e f176 b7bf
00000270: ba17 b63f a7fe d5be 69de 963f 6723 c7bf
00000280: 6788 a73f 35bd 89bf 3c8e 913f a891 8cbf
00000290: 8cbd a93f 62e5 283f 55ed 5e3f efea e43f
000002a0: 308b 403f a7a1 aebf 0460 43bf 65de 44be
000002b0: fc11 cbbb 04eb c33f 11b8 c5be ac1a b0bf
000002c0: 4f38 92bf 54ed 43bf 6828 9f3f 43d4 24c0
000002d0: 0b61 393f ccde 943f 7a38 a7bf 514f 68be
000002e0: 3574 d53f 7b32 76bf b0f2 0b3f bb59 043f
000002f0: a7cd 9bbf c486 233f a6b0 8dbf bd44 92bf
00000300: b4af de3f c964 553f 377b 453f 9311 0c3d
00000310: 51e8 a13f 8fc4 b73d 69f7 c93f 26fe 9c3f
00000320: 723a 01bf 9cfa 98c0 0d81 b43f 4cd3 d13f
00000330: 27a1 d3bd 22ae 4cbf 8975 a2bf 0a14 8ac0
00000340: 07e1 87bf fe5b 0240 af96 e33f 0530 0440
00000350: 2129 963d 178a c83d 6b70 25bf 9194 a83f
00000360: 7992 0340 1f4f 2abd 7935 b93f b566 213f
00000370: 0cef c33d 46ba de3f f7ba 61bf 4184 9b3f
00000380: 4729 24c0 c230 083d 948b ce3e be91 2b3f
00000390: 7f8c 3ebf 8387 e4bf 8017 8bc0 b417 893f
000003a0: e63d aa3f 90f2 d83f 88cb 103f a2d4 ce3e
000003b0: 1a84 02bf a6ef 2abf 48a7 d6bf 4dd7 60bf
000003c0: 26a6 973f 76eb 79c0 e8d6 c43f 3923 de3f
000003d0: 2c4d ffbe 06be 9dbf 3179 5fbf e112 ce3f
000003e0: 2690 d43f 0a08 4c3f 8d4e 5a3f 48ae efbf
000003f0: 1026 c93f ddf8 63bf 15a3 2a3e 62a7 05c0
1.773486 -0.42922145 -1.3025224 1.9124658 1.6322324 1.6051446 1.5670391 2.0991194
1.2603434 1.3951204 0.20108701 1.4350432 -0.38123107 1.8764236 0.625606 1.2872372
0.94920814 1.4884192 -0.44188654 1.0421039 1.5839025 1.694012 1.121841 1.3120385
-0.5332786 -1.0985497 -0.58193177 -0.3363127 1.903872 -0.35354325 1.6650703 1.1701069
1.3635975 0.38598216 1.251149 0.65987223 1.5470141 0.7112011 1.7128917 -0.98657936
1.2737956 -0.49039692 -0.7344575 0.41091117 0.67184246 1.9390554 1.9125676 1.7874528
1.5628877 1.1471977 -0.8064284 0.17164718 -0.9179465 0.51495385 2.0813866 -0.20393722
1.8624305 -1.1009009 2.8595204 1.260186 2.176324 -1.2251774 0.5407968 1.7316539
-0.98864204 -1.0351275 -1.5574465 0.37550023 0.4917079 1.090752 0.35014373 0.1608366
-0.92436063 -0.14348423 -0.7009692 0.27973914 -2.3414304 0.036327716 0.5881624 0.5568344
0.12559547 0.7062107 0.48448962 0.105557024 0.35715374 0.5476698 0.42799738 0.83116496
-1.4552206 -1.0449106 0.5239046 0.81692183 0.98073196 1.1002543 0.40842205 -0.88184917
0.73451376 0.817817 0.22222501 -1.0302212 0.017083365 0.9634277 0.45759237 -0.2933114
0.5599817 0.16186021 -0.330332 0.36323205 0.96263427 -1.4943333 0.8522307 0.3198729
0.52836883 0.3175657 0.25414237 -1.0487072 -0.61331505 0.4280959 0.5647994 0.21660878
1.2039819 -0.26165625 1.2981491 0.25261176 0.8144309 1.0999017 -1.7929416 0.29657894
2.6790783 -0.30766565 2.4486203 1.3577627 -1.627754 1.5455062 0.054482523 -0.89425474
-1.3078367 -0.620043 0.032564275 -1.2739233 1.0217934 -1.0963981 -0.59283566 -1.2173498
0.91897535 1.30804 1.1035893 1.2371383 0.30336413 -1.5258036 1.2139479 -1.3485266
-1.5938067 -2.1244638 0.4596357 -1.4333173 1.4225991 -0.41795847 1.1786624 -1.5557679
1.3088502 -1.0760866 1.1371531 -1.0981951 1.326097 0.6597501 0.8708089 1.7884196
0.75212383 -1.3643082 -0.76318383 -0.19225462 -0.0061972123 1.5306096 -0.38616994 -1.375814
-1.1423434 -0.7653401 1.2434206 -2.5754554 0.724137 1.1630492 -1.306411 -0.22686507
1.6676089 -0.9617078 0.54667187 0.5169942 -1.2172135 0.6387751 -1.1069534 -1.1427227
1.739737 0.8335691 0.77141136 0.034196448 1.2649022 0.089730375 1.5778629 1.226506
-0.50479805 -4.780592 1.4101883 1.6392608 -0.10333472 -0.79953206 -1.2692119 -4.314946
-1.0615548 2.0368648 1.778036 2.0654309 0.073320635 0.097919635 -0.6462466 1.3170339
2.055815 -0.041579362 1.4469444 0.63047343 0.09567079 1.7400596 -0.8817591 1.2149736
-2.5650194 0.033249624 0.40340865 0.6701926 -0.7443313 -1.7853855 -4.3466187 1.0710359
1.330014 1.6949024 0.56560564 0.403966 -0.5098282 -0.66771924 -1.67698 -0.8782852
1.184758 -3.9049964 1.5378084 1.7354499 -0.49863565 -1.2323616 -0.872943 1.6099511
1.6606491 0.79699767 0.8527611 -1.8725061 1.5714741 -0.8905161 0.16663773 -2.0883412

lstm.weight_hh_l0 f4 [256, 64]
00000000: 42e8 293f 7e62 0cbf 56c9 21be ade2 6f3e
00000010: 27e2 1bbf 6d43 193f c229 f3be 675e 8cbe
00000020: c4f5 2dbe 9677 f7bd 6af5 823d 412a abbe
00000030: 8d95 e1be 9984 f9be 6184 763e 96dc bcbe
00000040: b1ec 1b3f 2e56 2d3f c8a9 003f 70fc 163f
00000050: 8488 5dbf d313 26bf 73d5 053f e745 31bf
00000060: 989a aebe aa44 0fbe d788 b03e 4d59 72bf
00000070: 6141 0e3f f582 753e 4196 dd3e ff47 20bf
00000080: 9b3a b03e ba1e 243d a4cd f63f fbf4 d1be
00000090: 00de 213e c8af cb3e 9d2e f63e dbd3 8dbe
000000a0: ac85 083f 399d 8cbf f291 1d3d 446b 913e
000000b0: cb5b 783e 9dbd 203f f6e6 99be 5c44 f1be
000000c0: e8db 11bf 6dd6 08be 6980 7d3e b480 a1bd
000000d0: c3ca 3a3e 72c6 033f f6fe c5be 4a47 debe
000000e0: c0ec dc3e 53c4 2a3e e1fb 953d 1ec0 9d3e
000000f0: 0b2e c2be 9c8d 073f 0f10 843e d727 40be
00000100: 90a8 07c0 b1f6 4fbf 6eba 8fbf 4aff 6dbf
00000110: 7a9b 503f 472e 89bf 00b1 2f3e a3f3 933f
00000120: 77e7 4cbe 30a8 6cbf 86ad a43f 3db6 ff3f
00000130: e492 d9be d048 263f 6298 8ebd 2473 8abf
00000140: ebd2 b83d ff87 23c0 2974 d8bf 9b01 0ec0
00000150: 5280 d6bf 9fa5 3c3f 4b39 67bf 4d9f 0440
00000160: 8c97 c5bf 96b7 0ebf 7c87 b3bd d4fc 2f3f
00000170: 0673 50bf 8e90 083e 094b 93bf 7597 4a3e
00000180: a19a 993f 7522 773c 9f09 43c0 4f87 d13f
00000190: c49d 6d3d 8630 a23f f7d3 b83f 6558 9ebe
000001a0: 427d b7bf a8cb 0d40 c012 033f 812d 1640
000001b0: 68e5 76bf deca 723e 8b62 893e 911e 57bf
000001c0: bff7 a33f 92eb 4ec0 4f14 ec3d efbf 2a40
000001d0: cee5 b7be fae7 663f 24f2 b3bf d719 7c3e
000001e0: b039 e8be e9e4 9fbe f9b4 94bf 1dfd 6f3f
000001f0: f35d d43f 9dd3 323f da56 4940 0416 2cbf
00000200: 094e 203f a10c 86be bde5 a13e b7ae 0a40
00000210: 10a0 00bf 11f2 093f 6ec8 a03f d9c1 50bf
00000220: 83e5 1b3f d635 21c0 1df1 073f ba20 383f
00000230: 7944 afbf ebcb d5be 348d 8d3e 05fa 04c0
00000240: 59d5 c73f c481 f83e 5b07 393a f8e1 833e
00000250: 3976 7b3e dc3b 4abf e632 c33e 6b11 4e3f
00000260: 0099 f0bf 589e 69c0 babc e1bc 378b 80bf
00000270: dcde a63f 9ed7 a63e c507 de3e b834 55bf
00000280: fd73 53be 5729 c2be c873 193f ea35 29bf
00000290: 47f4 1c3f d4ed 8d40 add1 c43f dfb0 24be
000002a0: 8807 dbbf ff9e 06c0 7482 ac3e ac41 4b3f
000002b0: a588 47bf 57ae 2240 86cd 75c0 3db1 64c0
000002c0: 8955 00bf 9944 9cbf 66cf 03be 79ed 7cbf
000002d0: 9e1d b93e b57f 0b3f 46ee 58c0 a66d 0ebf
000002e0: 1a12 a73e 61b4 60bf f1d7 6cbe ea07 7e3f
000002f0: eb76 18bf 2025 9d3e 7b59 1bbf c6f8 b8bf
00000300: fa83 c53e b468 9dbe cf3e a2bc 7cd4 193d
00000310: d085 98be e31e 523e 62c5 54be 7810 4dbe
00000320: 5542 dbbd fe5d 613d e553 e6bd 7903 c3be
00000330: f871 283e 5881 bbbc ed0e 193e c5fc aebe
00000340: e439 2b3e 1f2b 0c3e e485 e3bc 1814 0f3e
00000350: 0333 743e 31dc debd cec8 323e 6080 7ebe
00000360: fb7d dbbd 8c88 26be 11c4 083b 3174 71bd
00000370: 560d 043c 0a00 c93a 3788 c03d 885b 6ebe
00000380: c247 353e 2063 163e 6418 853e a951 67be
00000390: c389 42bb ebdd 4a3e f876 0d3e 4315 da3d
000003a0: 6e49 c33e b411 293d 2747 60bd f6e7 07be
000003b0: bd24 033e 78c4 153e 204c c5bd 53a4 3fbe
000003c0: a7a7 30be b349 7a3d b52a 3f3e 045c 74be
000003d0: 9f66 b13d c724 4cbc d3a7 16be 6577 2c3d
000003e0: 4ca9 3a3e 73ab f13d b075 473d a7b1 20bd
000003f0: 1816 85be a131 e23d 3a62 323e 0453 69be
0.6637002 -0.5483779 -0.1579946 0.23426314 -0.60891956 0.5986851 -0.47492796 -0.27415773
-0.16988283 -0.12083356 0.06394465 -0.33430675 -0.4405941 -0.48733976 0.24073936 -0.36887044
0.6090804 0.67709625 0.50259066 0.5897894 -0.8653643 -0.64874 0.5227882 -0.6924729
-0.3410232 -0.13991037 0.344794 -0.9466751 0.5556851 0.23975737 0.43278697 -0.6260986
0.34419712 0.040068366 1.9281507 -0.41007218 0.15807343 0.39782548 0.48082438 -0.27700695
0.5332897 -1.098548 0.038469262 0.2840215 0.24253766 0.62789327 -0.30059022 -0.47122467
-0.56976175 -0.13363047 0.24756016 -0.07885876 0.1824141 0.5147468 -0.38671082 -0.43413764
0.43149376 0.16676454 0.07323433 0.30810636 -0.37925753 0.52950454 0.25793502 -0.18765198
-2.1196632 -0.81235796 -1.1228769 -0.92967665 0.8148724 -1.0717248 0.17157364 1.1558727
-0.20010172 -0.92444134 1.2865455 1.997749 -0.4249488 0.64954853 -0.069626585 -1.0816388
0.090246044 -2.5551755 -1.6910449 -2.218848 -1.675791 0.7369022 -0.903218 2.072223
-1.5436873 -0.5574888 -0.08766076 0.6874516 -0.8142551 0.13336393 -1.1507274 0.19784339
1.2000314 0.015083899 -3.0474622 1.6369418 0.058011785 1.2671058 1.4439687 -0.30926815
-1.4335101 2.2155552 0.51200485 2.3465273 -0.96443796 0.237102 0.26832995 -0.84031016
1.2809981 -3.233128 0.11527311 2.6679647 -0.35917515 0.9019772 -1.405827 0.24619232
-0.45356512 -0.31229332 -1.1617728 0.93745595 1.6591171 0.69854146 3.145926 -0.67221093
0.6261907 -0.2618151 0.3162059 2.1669137 -0.50244236 0.5388499 1.2561166 -0.8154579
0.6089708 -2.518911 0.53102285 0.71924937 -1.3692771 -0.4175714 0.27646792 -2.07776
1.5611984 0.48536503 0.0007058286 0.25758338 0.24556817 -0.7899759 0.3812477 0.8049533
-1.8796692 -3.6502895 -0.027555812 -1.0042485 1.3036761 0.32586378 0.43365303 -0.8328357
-0.20649715 -0.37922165 0.59942293 -0.6609789 0.6131024 4.4352818 1.5376488 -0.16083096
-1.7111673 -2.1034544 0.33693278 0.7939708 -0.7794288 2.5418909 -3.8406692 -3.5733178
-0.50130516 -1.2208434 -0.12872085 -0.98799855 0.3615541 0.5449174 -3.389543 -0.5563606
0.32630998 -0.87775236 -0.2312925 0.99230826 -0.59556454 0.30692387 -0.6068341 -1.445092
0.38577253 -0.30743945 -0.01980534 0.037556157 -0.2978959 0.20519595 -0.2077842 -0.20025814
-0.10706011 0.05502128 -0.1124647 -0.38088587 0.16449726 -0.022888824 0.149471 -0.34177223
0.16721302 0.13688324 -0.027773805 0.13972509 0.23847584 -0.10881842 0.17459413 -0.24853659
-0.10717388 -0.16263026 0.0020868818 -0.0589487 0.00805982 0.0015335095 0.09400981 -0.23277104
0.17703155 0.1468625 0.2599517 -0.22589745 -0.0029684163 0.19811217 0.13814914 0.106485866
0.3814196 0.04127665 -0.054755356 -0.1327208 0.12806983 0.14625728 -0.0963366 -0.18715028
-0.17251454 0.06110544 0.18668635 -0.23863226 0.086621515 -0.01245994 -0.14712457 0.04210605
0.18228644 0.118002795 0.04869622 -0.039231922 -0.2599342 0.11044622 0.17420283 -0.22785574

lstm.bias_ih_l0 f4 [256]
00000000: 428a 0140 e645 01bf ab7f b63f c978 bd3f
00000010: 3277 0340 13e2 e13f ece5 21c0 61e6 e83f
00000020: 1b06 a4bd 8a24 b33f 6208 70bf c75e 9b3f
00000030: d39b 2abf ec3f a03f 6d87 673f e993 c03f
00000040: 7603 c23e 7298 ac3f 5821 4640 264f 983f
00000050: ad03 d43f ded0 0840 42e5 a43f cd8f ff3f
00000060: 4532 3640 f178 993f 0da5 ddbd 7059 663f
00000070: 306d e83f 2e46 963f 6b2e e23f 5db4 2c40
00000080: 8f28 8b3f 8765 263f 82db ad3f 13ad 283f
00000090: b93d ab3f b829 e1bd ba91 0040 2bc9 953f
000000a0: c636 883f f8d3 5040 d98b b5bf 2598 97bf
000000b0: 3f48 3bbf b39a 0840 cf7a a9bd af81 d73f
000000c0: 206e d03f 74ea ae3f 5713 7f3f 4c9b 0040
000000d0: f0bd 3ebe d116 033f 88b1 fb3f db5d c8bf
000000e0: dcc7 0d40 ec9d b3bf 295e 453f d1c1 ef3f
000000f0: 422a db3f ae1c efbd 0dfb cd3e 2007 f33f
00000100: 41c0 a6bf 8913 943e fb14 94bf 2b8b 4f3f
00000110: b833 2d3f 5266 613f 9e9f ae3e 1d90 c2be
00000120: 3a53 83bf 9d17 b23f 20f7 4ebf bc48 0b3f
00000130: 682e 22bf f4bd 2b3e 9238 233f 1923 283f
00000140: 4b41 6f3f 08a5 483f 14a1 573f a1f7 3cbf
00000150: fd6e e5be 727e 593f 6dc7 68bf c029 213f
00000160: 03aa c83e add7 4ebf 16b7 2c3f 2d9f 493f
00000170: 63c0 513f 0831 6a3f e4c8 f83e 9b67 91bf
00000180: 75f0 1a3f 632b 3b3f 4e56 903f a6c0 c7bf
00000190: fa9c 69be cefe a33f bc87 713f 3f13 1c3e
000001a0: 0e73 163f 3c52 da3e e30e f93e cd51 65be
000001b0: fece 7d3f b12e 053e ce90 61be 4f78 f73e
000001c0: 419e f53e 9f2f 6c3f c9c7 dc3d b79b 44be
000001d0: 0595 4bbf cd8b 1fbf bba1 883f dc1f 283f
000001e0: 4c9b e03e cfab c43e 4934 23be fbc8 563f
000001f0: f704 8a3f 4470 6e3f 0443 1bbf f733 423f
00000200: 6650 01c0 c7e8 0e40 562b f2bf a442 af3f
00000210: 83c1 b1bf 2d08 d13f 2f87 be3f 256f f7be
00000220: 711a 6abf 9ccc 8fbf d608 14c0 ae0c a3bf
00000230: bd91 a5bf 35d5 8cbf 3217 97be a98a b5bf
00000240: f383 503f 90b4 8d3f ffa6 833f 47c2 9a3f
00000250: 6c9d d33e c30e bbbf 1426 8c3f f8f7 d0bf
00000260: 8628 a9bf c726 9f3f d985 61bd 7e50 cdbf
00000270: d2ed 953f 52fd 3abf 6163 aa3f b2a5 9dbf
00000280: 0bdf 9e3f d838 b1be 8180 b43f 1679 86bf
00000290: 1c2f 993f 1607 eb3e f1de e03f 5efc bbbf
000002a0: 644e 353f 5876 c2bf 2137 a83f a4b5 c9bc
000002b0: 08e4 cebf bc86 cc3f a8db b4be e9c3 bfbf
000002c0: d370 9bbf b901 acbf e38a 4f3f f2d4 a13f
000002d0: d0a7 483f 03f1 623f cb89 aabf 4196 803f
000002e0: e225 1dbf 11e2 e0be 6938 873f c76c b93f
000002f0: d92f acbf 1a5b e43c 546f cc3f 94a3 afbf
00000300: b827 0b40 d91d d1bf 8614 183f 40dd 1540
00000310: e0a1 e4be 29c5 b63f 6c11 e7be 6596 7cbf
00000320: 371c 4d40 9356 3a40 6c78 13bf 8f19 16c0
00000330: 9145 9cbf 01a1 7e3d 1954 a0bf 6bd7 2140
00000340: f34a a73f 3222 a0be 9324 00c0 c4b3 c2bf
00000350: c595 1e40 4880 b43f bbfa 66be 9a3b 8abf
00000360: 05d9 d83f d5c0 e03f a20b adbf 4863 9e3f
00000370: da8a 0c40 598e a3be 371a bf3e 4438 a1be
00000380: 7a6c 8f3f de0b 0cc0 9aa6 f3bc eacb adbf
00000390: f409 bcbe 0e28 8e3f 1884 5240 b905 1bbf
000003a0: 3fa5 bfbf 89bf a43f ee29 fcbd e67d 58be
000003b0: 8da8 53bf f626 f73f 2a7e af3f 95ec 373f
000003c0: 72af 26c0 6665 3c40 925c a43f b0c3 cd3f
000003d0: 148d 9dbf f7ac ad3f 3179 ae3f a731 02c0
000003e0: 24a3 0e40 32b7 49bf 2767 a43e edbc a93f
000003f0: 73c9 e6bf 12c3 ccbe 6898 423a 283f af3f
2.0240636 -0.5049728 1.4257711 1.4802486 2.05415 1.7647117 -2.5296583 1.8195306
-0.08008977 1.3995526 -0.9376279 1.2138299 -0.6664402 1.2519507 0.9044102 1.5045139
0.37893265 1.3484023 3.0957851 1.1899154 1.6563622 2.1377482 1.2882464 1.996576
2.8468182 1.1990033 -0.108224966 0.8998022 1.8158321 1.1740167 1.7670416 2.6985085
1.0871753 0.6499867 1.3582613 0.6588909 1.3378211 -0.10994285 2.0088944 1.1702017
1.0641716 3.2629375 -1.4183303 -1.1843306 -0.73157114 2.134442 -0.08275377 1.6836451
1.6283607 1.36653 0.99638885 2.0094786 -0.18627143 0.5120669 1.9663553 -1.5653642
2.2153234 -1.4032569 0.770968 1.8731023 1.7122271 -0.11675392 0.402306 1.8986549
-1.3027421 0.28921154 -1.1568903 0.8107173 0.6765704 0.88046753 0.34106153 -0.38000575
-1.0259774 1.3913456 -0.8084583 0.5440786 -0.6335206 0.1677168 0.63758194 0.65678555
0.93459004 0.7837682 0.8423016 -0.7381535 -0.4481124 0.84958565 -0.909293 0.6295433
0.3919221 -0.80797845 0.67466867 0.7875851 0.81934184 0.91481066 0.48590767 -1.1359743
0.6052316 0.7311308 1.1276338 -1.5605667 -0.22813788 1.2812135 0.9434774 0.15241717
0.5876931 0.42640865 0.4864417 -0.22394486 0.9914397 0.13006093 -0.22027895 0.48333976
0.479723 0.92260164 0.107802935 -0.19200025 -0.7952426 -0.62322694 1.0674356 0.65673614
0.43868482 0.3841233 -0.15937914 0.8390042 1.0782765 0.93140054 -0.6064913 0.7586054
-2.0205321 2.2329576 -1.8919475 1.3692212 -1.388718 1.633062 1.4885005 -0.48326984
-0.91446596 -1.1234317 -2.3130393 -1.2738245 -1.2935101 -1.1002566 -0.29509884 -1.4182941
0.8145134 1.1070728 1.0285338 1.2090539 0.4133104 -1.461388 1.094912 -1.6325674
-1.3215492 1.2433709 -0.055059288 -1.6040189 1.1713202 -0.73042786 1.3311578 -1.2316191
1.2411817 -0.3461368 1.4101716 -1.0505702 1.1967502 0.45903844 1.7568036 -1.4686391
0.7082274 -1.5192366 1.3141824 -0.024622746 -1.616334 1.5978618 -0.35323834 -1.4981662
-1.2143806 -1.3438026 0.810713 1.2643111 0.7838106 0.88649005 -1.3323301 1.0045854
-0.6138593 -0.43922475 1.056409 1.4486321 -1.3452102 0.027875472 1.5971475 -1.3721795
2.1742992 -1.6337234 0.59406316 2.341629 -0.4465475 1.4278919 -0.4513048 -0.98666984
3.204847 2.911534 -0.57605624 -2.34531 -1.220873 0.062165264 -1.2525665 2.528773
1.3069748 -0.3127609 -2.0022323 -1.521111 2.4778912 1.4101648 -0.22556584 -1.0799439
1.6941229 1.7558848 -1.3519175 1.2374048 2.1959748 -0.3194454 0.37324688 -0.3148824
1.120498 -2.1882243 -0.029742528 -1.3577855 -0.36726344 1.1105974 3.2893124 -0.6055561
-1.4972304 1.2870952 -0.12312685 -0.21141776 -0.82679063 1.9308765 1.3710377 0.7184537
-2.6044583 2.9436889 1.284075 1.6075344 -1.2308679 1.356841 1.3630735 -2.0342805
2.2287073 -0.7879516 0.3210995 1.326078 -1.8030227 -0.39992577 0.0007423223 1.3691149

lstm.bias_hh_l0 f4 [256]
00000000: 9cda f43f cda1 acbe c63b b33f 266a bc3f
00000010: 6e39 fc3f 9f1c ed3f 0e17 2ac0 b9b4 fe3f
00000020: 0110 b1bc 78fd 943f 2893 7fbf 9568 963f
00000030: 8ec7 febe ce04 a53f fd56 6b3f bbc9 c53f
00000040: 2845 eb3e 50bc b63f 21ca 4340 33f4 a73f
00000050: 3060 e03f 38fe 0540 2e8e a13f 41c4 ed3f
00000060: 6ee9 3140 e0e6 9b3f 5b4c 47bd 92c9 393f
00000070: 1b10 ea3f b956 823f 6b59 ec3f f438 2740
00000080: 9bc1 8a3f e17a 083f 1550 b33f ebba 2a3f
00000090: f98a b73f b798 81be 5826 e73f c330 993f
000000a0: eeec 8d3f d263 4f40 20df b6bf cefd a7bf
000000b0: f27d 26bf a4b2 0740 77ba 66be b46a da3f
000000c0: f1f2 c73f f2d0 b43f 12bf 803f 29ac fc3f
000000d0: 137f 59be 7ada 1f3f 476b fd3f 2fd0 c4bf
000000e0: c968 0e40 a8fd 9dbf e83d 3e3f f054 df3f
000000f0: 904a d63f 2e10 f03b c4d5 e43e c08b ec3f
00000100: f42e 95bf e8e9 9d3e 1985 91bf 1487 523f
00000110: 7858 2d3f 3aa7 643f 9df7 e23e 8694 cbbe
00000120: 34b2 73bf 8910 a93f 8825 83bf 14a5 de3e
00000130: 6024 16bf 26a3 923e 361b 213f ea75 143f
00000140: da58 7e3f 56c6 1a3f 2c1f 343f db39 5cbf
00000150: 0aac 06bf 5eb5 563f 8056 48bf 47dc 103f
00000160: 3736 0a3f 9431 20bf 1563 1f3f 3f9d 273f
00000170: 6354 553f 62f4 5f3f f4b1 063f 6b36 a6bf
00000180: 345e 2a3f fc08 0e3f f9e0 723f 0590 b5bf
00000190: 29f2 c0bd db93 9e3f 623b 743f 6888 283e
000001a0: 41b4 1a3f 7f93 fe3e fb88 e43e 5d67 53be
000001b0: 0379 843f acc7 4f3e 386b b4bd ed11 003f
000001c0: 669a bb3e 668a 913f f2e2 8b3e 7500 babd
000001d0: 5cde 59bf d53a e9be e5bf 8f3f 303b 273f
000001e0: c914 b53e 69c1 ba3e fcab 1ebe db7c 543f
000001f0: f851 833f df9a 7e3f a644 ecbe 0dee 573f
00000200: a809 f6bf 3978 0640 6527 04c0 a74e a43f
00000210: 906e b1bf eaf0 b13f 57a7 c63f 95e4 c9be
00000220: 8f91 51bf b522 85bf 37a4 0fc0 43f7 adbf
00000230: dcb4 a7bf df6c 8dbf 6910 c0be 8fb0 a6bf
00000240: 2945 5f3f 2e60 933f bd89 913f fb67 833f
00000250: 9f00 823e 1edf c1bf 843e 893f 1f23 dabf
00000260: e3b2 b5bf bc36 a63f 05f4 b93d 1abf cabf
00000270: d24e 943f a587 3abf f4db 8c3f 1e73 b3bf
00000280: 54b4 893f 7cd1 a9be a592 b83f 95f7 74bf
00000290: 4299 a93f c7d3 bd3e 5825 da3f 7254 a8bf
000002a0: 77ba 453f 6660 c3bf 16b1 a73f 22d0 46bd
000002b0: 18be dabf 434d da3f fc1f a9be e940 b9bf
000002c0: cded 8ebf c84e b7bf a81c 4c3f e681 993f
000002d0: 14a5 353f 359f 8c3f fb7c 92bf 7eac 843f
000002e0: c468 09bf 9596 16bf 6aeb 813f aa29 b23f
000002f0: 6870 95bf 7bfd 0e3e 0d5e db3f f801 afbf
00000300: ba82 1140 6bb1 c4bf 4560 313f 48b9 1b40
00000310: 5f36 f9be 7307 a73f cbff c1be 9411 89bf
00000320: 25a5 4c40 7562 4140 b45c 2fbf 92b4 19c0
00000330: 2e47 a4bf d9bf fe3d ebfa b4bf 1a74 2540
00000340: 08ac b93f 1f4b 69be c7eb ecbf f16b c0bf
00000350: 4644 1d40 74fc a33f 362e a2bd 14f8 92bf
00000360: 2329 de3f cccf e63f 8005 99bf 8c79 9e3f
00000370: f057 0740 84ee 73be 571e 883e 5706 05bf
00000380: 8ac3 973f bac6 08c0 3ebd 26bd f13b b2bf
00000390: 86bb 23be 9b0f 803f 6dea 5b40 7c69 e2be
000003a0: 0468 bfbf 9046 b43f f4f9 cbbd 83e5 5dbe
000003b0: 0788 43bf f76b 0440 82ab 9c3f 136b 413f
000003c0: 9e2d 1dc0 881f 4340 b3f0 8d3f c841 d73f
000003d0: b474 96bf 902c a33f 9363 a53f e09b ffbf
000003e0: 71c2 0540 e6bc 2fbf 597e d03e 9082 a83f
000003f0: 1808 eebf 788a 6cbe 1364 8a3c d880 b93f
1.9129214 -0.33717194 1.4002616 1.4719894 1.9705026 1.852436 -2.6576571 1.9898902
-0.021614077 1.1639853 -0.9983392 1.1750666 -0.49761623 1.2892091 0.9192961 1.5452188
0.459512 1.4276218 3.059212 1.3121399 1.7529354 2.0936413 1.2621515 1.8575517
2.7798724 1.2179832 -0.048656803 0.72573197 1.8286165 1.0182716 1.8464788 2.6128511
1.0840334 0.533125 1.4008814 0.66691464 1.4339286 -0.25311825 1.8058577 1.1968006
1.108793 3.2404675 -1.4286842 -1.312433 -0.6503593 2.1202784 -0.22532068 1.7063813
1.5621015 1.4126265 1.005831 1.9740039 -0.21239881 0.62442744 1.9798363 -1.5376033
2.2251456 -1.2343035 0.7431321 1.7447796 1.6741505 0.0073261475 0.4469434 1.8480148
-1.1654954 0.3084252 -1.1368743 0.8223736 0.6771312 0.8931767 0.4432954 -0.39761752
-0.9519379 1.3208171 -1.0245829 0.4348532 -0.58649254 0.28640097 0.62932146 0.5799242
0.99354327 0.60458887 0.70360065 -0.8602578 -0.5260626 0.83870494 -0.7825699 0.56586117
0.53988975 -0.6257565 0.6226056 0.65474313 0.8333189 0.87482274 0.52615285 -1.2985357
0.6654999 0.5548246 0.9487453 -1.4184576 -0.094211884 1.2388872 0.9540311 0.16458285
0.60431296 0.49721906 0.44635758 -0.20644899 1.034943 0.20291013 -0.08809513 0.5002735
0.36641234 1.1370361 0.27321583 -0.090821184 -0.8510492 -0.45552698 1.1230437 0.6532469
0.3536742 0.36475685 -0.15495294 0.83003014 1.025939 0.99455065 -0.46146125 0.8434761
-1.9221697 2.1010878 -2.0649045 1.2836503 -1.3861866 1.3901646 1.5519818 -0.39432207
-0.8186273 -1.0401217 -2.2443979 -1.3591083 -1.3102069 -1.104885 -0.3751252 -1.3022631
0.87214905 1.1513727 1.1370159 1.0266107 0.253911 -1.5146215 1.0722203 -1.7041968
-1.4195217 1.2985454 0.09079746 -1.583957 1.1586554 -0.7286323 1.1004624 -1.4019506
1.0758157 -0.33167636 1.4419752 -0.9569028 1.3249896 0.37075636 1.7042646 -1.3150771
0.7723765 -1.5263793 1.3100917 -0.048538335 -1.7089262 1.7054828 -0.33032215 -1.4472934
-1.1166321 -1.4320917 0.79731226 1.1992767 0.70955014 1.0986086 -1.1444391 1.036514
-0.53675485 -0.5882352 1.0149968 1.3918965 -1.1674929 0.13963883 1.7138077 -1.3672476
2.273604 -1.5366644 0.6928752 2.4331837 -0.48674294 1.3049148 -0.37890467 -1.070849
3.1975796 3.0216343 -0.6850083 -2.4016461 -1.2834222 0.12438936 -1.4139074 2.5852113
1.4505625 -0.22782563 -1.8509454 -1.5032941 2.457292 1.2811418 -0.0791897 -1.1481957
1.7356304 1.8032165 -1.1954803 1.2380843 2.1147423 -0.23821455 0.26585647 -0.519628
1.1856549 -2.1371293 -0.04070782 -1.3924543 -0.15989503 1.0004762 3.4361832 -0.44221103
-1.4953618 1.4084034 -0.09959784 -0.21669583 -0.76379436 2.0690897 1.223984 0.7555401
-2.4559093 3.0487995 1.108908 1.681695 -1.1754365 1.2747974 1.2921013 -1.9969444
2.0899928 -0.6864761 0.40721396 1.3164845 -1.859622 -0.23099697 0.016893422 1.4492445

lstm.weight_ih_l1 f4 [256, 64]
00000000: 6512 78bf a47c 19c0 416d 4f3c 2d3e dcbf
00000010: d6b4 86bf 070a 273f d9af 17bf 0d55 bcbe
00000020: 740a ff3f 1bc5 16bf 065b 1140 8afe 71be
00000030: 61d1 8e3f a21d d3bd 6e80 df3f db1d a9bf
00000040: c426 2b3c b92d 993e 29a9 22bf 1a54 c43e
00000050: 6c44 84bf 4756 2ebf 045f d83f c53d 71bf
00000060: 23cc 1040 8ecd fe3e b5ae 543e 1550 fabe
00000070: 84b6 02be 7835 3d40 4aaf 223f addb b13e
00000080: 9f09 04bf ea5b aa3f 286a 6d3e ddca 98be
00000090: 6a36 d7bd 1b97 ff3f ea59 af3f ec2e fdbe
000000a0: dfb0 913f 4e34 b13f bfd9 cdbe 5297 bfbf
000000b0: 8906 23bf 8b5f 35bf 0574 603f 19f9 f4be
000000c0: fd2c 56be 3eac 9ebf 2a9c 92bf d514 133e
000000d0: 2c71 afbf 64af fb3e ecf5 f9bc ea0c 0cc0
000000e0: e71a 483f df75 5a3f dd9e 0bbe 75a3 473f
000000f0: 9362 d4be ae30 4dbf 2a0b 60bf 05c8 21bd
00000100: 55fe b43f c572 8d39 86d5 3ebe 9176 393e
00000110: 3322 0dbf 7e3f b4be 7c08 923e 2848 06bf
00000120: 6e21 c3be 647d 5940 fb58 93be 2548 e4bf
00000130: 5b23 6640 4a83 963f 83df af3f 1414 9140
00000140: 3a5c 1dc0 1c3c c53f f66c 743f 7303 b73f
00000150: 5b64 c93f 6a6c 803e 244e 8ebe 18bc 7abf
00000160: fa19 903f 7906 dbbf ba5f 713f 49ef 513f
00000170: a21d 0ebf a05f 5b3d cb5b 94be 950f 943c
00000180: 34a3 5bc0 b6b6 5e3f eee6 b3bd 9eeb bfbf
00000190: 9ad8 93bd 6a07 45c0 dd75 b9c0 4d4e 7e3f
000001a0: b911 903f d80e 2c3f 444f cfbf f428 1fc0
000001b0: 4087 57bf cebe 1cc0 d6f1 1b40 fca0 fe3f
000001c0: ecd3 f3bf 7749 b040 eb67 ccbf f121 29bf
000001d0: da9b 93bf 144d 8fbf b4a6 f03f 87e7 e6bf
000001e0: 9363 003f c79f 84be 8928 aa3f 2dce 78c0
000001f0: a3f5 e8bf 3cd1 adbf 2281 12c0 c1c1 8240
00000200: 3087 94bd 7a48 afbf 839d 10bf f7de 263f
00000210: 38f7 5d3e a9e9 8bbd f48f b4bf 37dd ccbb
00000220: 7ce4 723f f26d ea3e 5cec b93e c0a0 fd3e
00000230: 1eff ee3f ccf4 9abe dd03 9fbd c738 0f3f
00000240: 75f9 2dbf 64ba 873c bbb6 813f a22c 843f
00000250: e0b1 c63f f17b 313e 5b5f ecbd bd21 c73f
00000260: c2a9 9b3f f896 5bbf 313e da3f 61e1 ae3d
00000270: 53c1 163f 3ec6 1a3f 7c55 9ebd 5f0b ea3e
00000280: 0158 1b40 3253 573e f873 56c0 09aa 5f3f
00000290: 2cfb bdbe f310 46c0 b8c7 9ebf 42a4 7f3d
000002a0: f2ca 87bf a89d 5640 cb20 e9bf a96b a9bf
000002b0: 6e62 893f 9690 10c0 924e a53f bbdc a73f
000002c0: ec00 89bf 8e1a ebbf e0fa 13c0 f310 7a3f
000002d0: 11f8 2dbe 539c ddbe 7155 a83f 1180 16c0
000002e0: f1f6 533e 7cc9 65c0 6bb8 48bf eb52 8bbf
000002f0: ab15 eebe 86b0 de3f 1db4 2dbf e16d 96bf
00000300: 16d8 89bc bb6b 8f3e b175 c6be e62b 93b9
00000310: b999 473f 31e2 10bf 9b9e dfbc 3fcb 003f
00000320: 726e a33e f181 ce3e 1f11 b8bd 6e7f 3c3f
00000330: 023a e1bd 171a b93e b27a 413e 2716 2e3f
00000340: b393 5ebf 8749 38bf 42b0 2cbf 1047 2bbf
00000350: 3580 2abf bbe1 3e3f f59e 24bf d954 6c3f
00000360: 9655 0c3f 72e1 c2be 0b53 a5be bfd3 783f
00000370: ac12 3dbf 6e03 b6be b133 3cbf ce19 793f
00000380: ba7d 27bf 8f5c 3abe f493 89bf b9a7 ef3e
00000390: dced b4bd 0629 f3be 59a5 1ebf 92ad 4ebf
000003a0: 0ded 47bf 3f80 913d 7594 69be 994c 92bf
000003b0: 4353 9a3d 5204 8bbf 3897 c73c 9f76 213f
000003c0: 80ea 993e 7877 5d3f 1c13 23bf 617e 313f
000003d0: 3f57 0cbf 9703 79bf 9ebd 973f a6c6 0c3f
000003e0: bf04 5ebf 9069 91be 6df4 2fbf 9976 0dbf
000003f0: ac9b 103f 596a b8be 1c98 5d3e 8e61 733f
-0.9690307 -2.3982325 0.0126603255 -1.7206475 -1.0523937 0.65249676 -0.592527 -0.3678364
1.9925065 -0.5889451 2.2711806 -0.23632255 1.1157647 -0.103083864 1.7461069 -1.3212236
0.010446254 0.29917696 -0.6353937 0.38345414 -1.0333381 -0.681004 1.6903996 -0.9423488
2.2624595 0.497662 0.2076977 -0.48889223 -0.12764937 2.9563885 0.6354872 0.34737912
-0.5157718 1.33093 0.23185027 -0.29842272 -0.105084255 1.9967989 1.3699315 -0.4944986
1.1382102 1.3844087 -0.4020519 -1.4968054 -0.63681847 -0.7084891 0.8767703 -0.47846296
-0.20915599 -1.2396314 -1.1453907 0.14363416 -1.3706412 0.4915725 -0.030512773 -2.1882882
0.7816605 0.85336107 -0.1363482 0.7798379 -0.41481456 -0.80152404 -0.87517035 -0.039497394
1.4140116 0.00026979126 -0.1863614 0.18111636 -0.5513031 -0.3520469 0.28522098 -0.5245385
-0.38111442 3.3982782 -0.28778824 -1.7834517 3.595908 1.1758816 1.3740085 4.533701
-2.458754 1.5408969 0.9547876 1.4297928 1.5733751 0.25082713 -0.27793992 -0.9794326
1.1257927 -1.711135 0.9428669 0.82005745 -0.55513966 0.053557992 -0.28976282 0.018073836
-3.4318361 0.86997545 -0.08784281 -1.499378 -0.07219048 -3.0785775 -5.7956376 0.9933823
1.1255409 0.6721015 -1.6196065 -2.4868746 -0.8419075 -2.4491458 2.4366355 1.9892879
-1.9049048 5.508968 -1.5969213 -0.66067415 -1.1531937 -1.1195397 1.8800874 -1.8039407
0.5015194 -0.2590315 1.329362 -3.887584 -1.8199962 -1.3579478 -2.2891316 4.0861516
-0.072523475 -1.3693993 -0.56490344 0.6518397 0.21676338 -0.068316765 -1.4106431 -0.006251957
0.9487989 0.45787007 0.3631314 0.49536705 1.8671606 -0.3026489 -0.07764409 0.5594601
-0.67958766 0.01656837 1.013389 1.0326121 1.5523033 0.17332436 -0.11541625 1.5557171
1.2161181 -0.85777235 1.7050229 0.08539081 0.5888874 0.60458744 -0.077311486 0.457118
2.4272463 0.2102783 -3.3508282 0.8736883 -0.3710569 -3.0947845 -1.2404699 0.062412508
-1.0608809 3.3533726 -1.8213133 -1.323598 1.0733163 -2.2588248 1.2914603 1.3114237
-1.0703406 -1.8367479 -2.3121872 0.9768211 -0.16989161 -0.43283328 1.3151075 -2.3515666
0.2069967 -3.5904226 -0.784064 -1.088468 -0.46500906 1.7397621 -0.67852956 -1.1752282
-0.01682667 0.2801188 -0.38761666 -0.00028070732 0.7796894 -0.5659514 -0.027297309 0.5031013
0.319202 0.40333512 -0.089876406 0.7363194 -0.10997392 0.36152717 0.18894461 0.6800255
-0.8694412 -0.71987194 -0.6745645 -0.6690531 -0.6660188 0.7456319 -0.6430505 0.9231697
0.54818094 -0.38062626 -0.3228992 0.971981 -0.73856616 -0.35549492 -0.73516375 0.97305
-0.6542622 -0.18199371 -1.0748277 0.4680765 -0.088344306 -0.47492236 -0.6197105 -0.807336
-0.78096086 0.07104539 -0.22810538 -1.1429626 0.07535412 -1.0860693 0.024364099 0.63071626
0.30061722 0.8651042 -0.63701034 0.69333464 -0.54820627 -0.972711 1.1854742 0.54990613
-0.8672599 -0.2840085 -0.6873234 -0.5525909 0.56487536 -0.36018637 0.21640056 0.9507073

lstm.weight_hh_l1 f4 [256, 64]
00000000: e53f d63f 378c f63f d16f e2bf c62a 7fbe
00000010: e20b e9be 4956 c5bf 06b9 21c0 4ef0 8b3d
00000020: 41d3 83bf 5156 3dbf 3d7c 6e3e 192a 693f
00000030: 598f 4b3f ece9 b7be 6c5f b33f 2f90 073e
00000040: 422e c23f 913b 1d3f 3251 a8bf 99ad 00c0
00000050: 97bc f2be 325c 903f a656 95bf 3b93 a440
00000060: 06e3 7e3f 33e2 af3f 89e1 03c0 2b7e b23f
00000070: b558 e7bf aa8c 903d 1c33 1a3f 6571 493f
00000080: 8973 163e 82f8 b8be c2ab 47be 4a54 9a3e
00000090: 7ef0 22be e631 df3f f554 8ebf d191 ff3f
000000a0: 05a9 923e d316 d33e 4aef d3bc 4188 cbbd
000000b0: 62af 32bf d2df e83d 8b3d dbbf 013c debf
000000c0: 5951 843f db6e ac3e 675a 973f 7eab aabf
000000d0: 3e5c 3b3e 5d46 523f a1cd d0bf 1410 1240
000000e0: 840f 0a40 d185 0e40 65e7 1a3f c96e 1cbe
000000f0: 9bbd 9ebf 77df 1dbc 500d 29c0 ed25 e6be
00000100: 0d42 4a3f af46 dc3e 4a1c f0bf d932 d6bd
00000110: c67b d9be d079 a13e ce36 02bf 8c59 6b3f
00000120: a759 d5bf 6d2c bb3f bc34 c1bf efae 533f
00000130: be16 b9bf 640c 913e 8c40 84be 0a27 013f
00000140: 761b 1040 cc0d 07c0 2d93 c4bf 4c7b ed3d
00000150: 32fb 25be da79 da3f a324 20c0 39b5 ab3f
00000160: 2be7 c83f 3f82 5ebd 16d9 843e bc90 a5bf
00000170: ade8 86bf 15f8 debf 4914 c73d f00f a03e
00000180: 734b e1be 5387 79be 631b 02c0 cb59 753d
00000190: b4ff 9c3f 2f72 663f 45e7 b33d 2590 a8be
000001a0: 5b2a fd3f 7ff3 a63b d4ff e73f 3231 9fc0
000001b0: 3028 0ebf 6216 9e3f bcac 1dc0 702a 8ebf
000001c0: 2e99 993f 1dab ef3f f891 1cbf 83c6 f7bd
000001d0: 4eef b3bf e8c5 cf3e 73b9 43bf 5012 0540
000001e0: 6e66 873f 2f7b b1be ab7a a1bf 2c3f 01c0
000001f0: 1d68 f1bf 303d 9dbe 17ce 65bf 82db 11c0
00000200: 3b72 d43f 4411 c63f 02f5 2c40 2a28 82be
00000210: a8bc 51c0 b5b2 863e 9765 3340 2870 81bf
00000220: e8ea 883d 385f 8140 9dff 1abf 00a8 cd3f
00000230: e171 353f 2fd7 1ac0 6c0c 943f 6657 673f
00000240: 7ae6 4fbf 05e9 903f b9a2 39c0 a4ea 99bf
00000250: 8785 bf3e aeb3 3240 7906 b53d 893b 4fc0
00000260: 514e 83ba be03 3fbf 1bd0 96c0 2813 10c0
00000270: fc77 143f 6b11 89bf 8238 4c3f 9dc8 8c3e
00000280: 1f80 92be a253 9f3f acce 8d3e 1aa0 d13e
00000290: 4446 1cbf 04dc 1b40 9d8b ebbf 8a83 003e
000002a0: b95a ce3f 7366 db3e 3f81 7040 092e 0abf
000002b0: 787f 31c0 a3b0 d73f 743e 66c0 d4c5 d03f
000002c0: 514c 183f 1486 9c3e 12b1 dbbf 8340 8fbf
000002d0: 14ab 483d c14d 2c40 eb08 52bf 209b 1940
000002e0: 91b2 2c40 b9a1 00c0 4404 1040 fb41 2cc0
000002f0: 1306 b5be 872e 44bf 8c7e 9ec0 0697 0ebf
00000300: c144 a8be 58de 30be a02b 0dbe 2ce2 66be
00000310: c625 babd 0f3d 2d3f a9da 423e 3035 a53d
00000320: 3c99 35bf 2408 a13e 9759 d9be e757 94bd
00000330: a935 1d3e e6e3 b93c ee3e cfbe ddf5 debc
00000340: 3227 39bf 5cdf c7be b2c2 bd3e aa13 1e3e
00000350: 0c65 eabe e202 01be 8fee ddbe 844e 523d
00000360: 7d2f 1bbf 5402 283f cc15 1d3e d40c 0a3e
00000370: 3fd1 083e dcef 77be 746a 2bbd 9e83 e63d
00000380: 5e39 403a 4a0a b63d 7cff 85bd 3871 6e3a
00000390: fef9 ddbe 460f 0abf ca0a a23e ba73 8ebe
000003a0: 079a e7be ef62 a53e f1b7 1d3e 2d2f a43e
000003b0: 944c 0a3e 04b3 013e 9f9a 073f ccf8 d1be
000003c0: 3ab5 723e b19c 593e 6cda 203e e936 a53e
000003d0: 8c7d 37bf b4b5 f63e fead 0dbf 0eca 89be
000003e0: df27 043f 1c15 833f 9b69 56bf a927 893e
000003f0: 0ead d7be 0e35 283d 1387 c73e 01f5 a2be
1.6738249 1.926154 -1.7690374 -0.2491866 -0.45516878 -1.5416957 -2.526918 0.06832944
-1.0298845 -0.73959833 0.2328958 0.9107986 0.79515606 -0.35920656 1.4013495 0.13238595
1.5170367 0.61419016 -1.3149779 -2.0105956 -0.47409508 1.1278136 -1.1667068 5.1429725
0.9956516 1.3740906 -2.0606406 1.3944753 -1.8073946 0.070580795 0.60234237 0.7868865
0.1469251 -0.36127096 -0.19499114 0.30142432 -0.15912053 1.7437103 -1.1119677 1.9966375
0.28644577 0.4122835 -0.025870938 -0.09938098 -0.6979886 0.11370815 -1.7128156 -1.7362062
1.0337325 0.33678326 1.1824464 -1.3333585 0.18296906 0.82138616 -1.6312753 2.2822313
2.157197 2.2269175 0.6050933 -0.15276636 -1.2401613 -0.009635798 -2.6414375 -0.4495081
0.79007035 0.43022677 -1.8758633 -0.10458917 -0.42477244 0.31538248 -0.50864875 0.9193351
-1.6667985 1.4622933 -1.5094218 0.826888 -1.4460065 0.28329766 -0.25830495 0.50450194
2.251676 -2.110217 -1.5357414 0.11595783 -0.16209105 1.7068436 -2.5022361 1.341468
1.5695547 -0.05432343 0.25946873 -1.2934794 -1.0539757 -1.7419459 0.09720666 0.3126216
-0.44002876 -0.24368028 -2.0329216 0.059900086 1.2265534 0.9001798 0.087843455 -0.32922474
1.9778551 0.005094945 1.8124948 -4.9747553 -0.5553007 1.2350581 -2.4636679 -1.1106701
1.1999872 1.8724095 -0.6116023 -0.1209841 -1.4057405 0.40580678 -0.7645485 2.0792427
1.0578134 -0.34664294 -1.261556 -2.0194807 -1.8859898 -0.30710745 -0.89767593 -2.2790227
1.659736 1.5474019 2.702454 -0.25421268 -3.2771397 0.26308218 2.8030756 -1.0112352
0.0668543 4.0428734 -0.60546285 1.6066895 0.7087689 -2.4193838 1.1566291 0.90367734
-0.81211054 1.1321112 -2.9005568 -1.2024732 0.3740656 2.7922168 0.08839125 -3.2380087
-0.0010017847 -0.74615085 -4.7129035 -2.2511692 0.5799558 -1.070844 0.79773724 0.27496806
-0.28613374 1.2447398 0.2769674 0.4094246 -0.61044717 2.4353037 -1.8401982 0.12550178
1.6121436 0.428516 3.7578886 -0.53976494 -2.773405 1.685078 -3.5975618 1.6310372
0.5949145 0.30571043 -1.7163413 -1.1191562 0.048991278 2.6922457 -0.8204486 2.400093
2.6983988 -2.0098708 2.2502604 -2.6915271 -0.35356197 -0.76633495 -4.9529476 -0.55699193
-0.32864955 -0.17272317 -0.13786173 -0.22547215 -0.09089236 0.67671293 0.19028725 0.08066785
-0.7093694 0.31451523 -0.42451164 -0.072433285 0.15352501 0.022691678 -0.404777 -0.027216846
-0.7232543 -0.39037597 0.37062603 0.15437189 -0.45780218 -0.12598756 -0.43346068 0.05134441
-0.60619336 0.6562855 0.15340346 0.13481456 0.13361071 -0.24212593 -0.04184957 0.11255573
0.0007332767 0.08888681 -0.065428704 0.00090958504 -0.4335479 -0.53929555 0.31648856 -0.27822667
-0.452347 0.32302043 0.154022 0.32067242 0.13505775 0.12665945 0.5297031 -0.4101013
0.23701945 0.2125118 0.15708321 0.32268456 -0.71675944 0.48185503 -0.55343616 -0.26911968
0.5162334 1.0240817 -0.8375489 0.2678807 -0.42124218 0.041066222 0.3897024 -0.31827548

lstm.bias_ih_l1 f4 [256]
00000000: de92 1f3f 934c 72be 35f7 5dbf d7c1 6cbf
00000010: 38e9 19bf f839 603e 322d 743f 5e21 823f
00000020: d02a 663f a616 233f bd1c dbbe 7d9a 423f
00000030: 4b95 95bf e8d5 543d 2a93 a23e 3056 6fbe
00000040: c375 20be e4e6 723f bb27 a13e 4a4a 433e
00000050: 2b98 7a3f 6560 3b3b 9e0f e3be 6e77 9a3d
00000060: 785a 4c3f 4e92 4d3f 0be6 20bf 8c94 96bd
00000070: dc67 373f bdb5 053f 773f 14bf 198c b0bc
00000080: ca43 4cbf 557c 3dbf f168 9fbf 8e32 a8bf
00000090: fcca 86bf 60aa 003f 8ae5 a83e d2ae 90bc
000000a0: 6ab5 6c3f 2d55 b2be ca38 23be 71ad 30bf
000000b0: 83a1 c4bf eb13 2a3f d35c 183f 093a 5f3f
000000c0: d7f1 053e a65a 0ebf 41da 793f fe06 4bbe
000000d0: 9e9f a3bd 483b 3fbf f664 683f b51e 20bf
000000e0: 166b 9e3e 25e8 c13f 1646 093e bbcd ee3d
000000f0: aaa2 32be dcc3 41bf 0c0e 9c3a 7801 5cbf
00000100: 0824 413f acdb 523f 63ed 1c3f d0a1 f9bd
00000110: f8d0 733e d002 96bf 4558 69bf 3102 09bf
00000120: 2c78 d23e 1be7 093f b8b0 20bd 614e ddbe
00000130: 7be9 febe 74b7 cc3e 4ae6 0e3f 635a 863f
00000140: b56a 55bc ffb8 733f b182 863f a7d7 abbf
00000150: 2800 cbbe 1639 a73e 73cb 59bf 1e19 d13e
00000160: 0601 26bf 60a1 4c3f 9ed3 8f3e ca74 61be
00000170: 5cab 1b3f d74a 2a3f fc60 0f3f cfbe 79bf
00000180: b0a9 b2bc 7bed 8a3f d6ec 203f 9381 0fbf
00000190: 8f4c f63e 614a 6cbf 2962 19bf 47ca 6fbf
000001a0: 9e28 a7bf 5d38 a73f 1072 75bf 5d6d 42be
000001b0: 252c 13bf f9f7 0dbf fa28 a8bf 81d8 973f
000001c0: dc49 c13f ef7b 98be 0a1a 4a3e 4d8e 153f
000001d0: 78aa 9f3e 876a 653f 02f5 143e 2bf9 f83e
000001e0: 138d 5d3e 3230 a53f 8d71 e73e d8e6 86bf
000001f0: e93f 67be 82e6 0fbf 833b 5bbd 232c 043f
00000200: 8ce8 aa3f bf9d f53e 1692 c73d 79c9 d3bd
00000210: 81ba 06bf ba17 32bf 4f79 a8bf cea9 b8be
00000220: 1e11 ff3e d8e1 d3be ffb3 153f a4d4 1fbf
00000230: a829 82bd bb97 c9be 16c7 0d3f 161f 163f
00000240: f7c7 2b3f adbf ff3e f39b f3be c59c 2dbf
00000250: 27e8 073f 33eb c33e 35fd 09bf 84e5 623d
00000260: f2ef 1c3f 9403 59bf 100c 9bbe f5ba 323f
00000270: f4f6 9fbe fb02 c23e e66c a9be b075 623f
00000280: a6a5 9cbe e514 7d3d 613c 123f c570 053f
00000290: 22e1 2a3f 394b 1f3f 8a08 80bf 0feb 483f
000002a0: 3dd1 babe 3fc5 0abf 1971 fbbe 0562 e3be
000002b0: 778d ea3d 2940 2a3e c0b9 b4bd 2444 8b3e
000002c0: 5ca5 21bf 664f ae3c 2d6c 923e 5cc5 18bf
000002d0: 481b dc3e 80ea c6be 8a56 6cbd 1d2e 013f
000002e0: 40ac d3bd d0a2 313c d99c a93e e24f 423f
000002f0: a61e 523f c99e 1ebe 1d19 42bf 9804 173f
00000300: 45b9 6fbf e42d 3d3d 21da 8f3e ec23 c6be
00000310: 4da7 09bf 64c7 74be 2230 4bbf d848 013e
00000320: 22d0 b1bf 0712 e6be 7ed8 e83d 5737 94bf
00000330: e9e9 233f 1428 203f 6f46 acbe e662 9fbf
00000340: c513 33be a2f4 98bf cdde 4fbf dc38 06bf
00000350: 087c 6dbe e9e1 d4be ffb4 c7be 80e4 963d
00000360: 55f1 2fbf fb58 18be 3e44 71bc 5937 fabe
00000370: 7f8a 4fbf 3d51 8bbf 3e40 c6be 6bde b23e
00000380: 9c46 31bf ab8c 0bbf fde7 ad3e 8cfa cf3e
00000390: 5d49 4d3d 875f cebe f14b 873d a176 2f3e
000003a0: 7418 bfbe 23c3 98be 764f 863f 7986 fabe
000003b0: 9c72 a2be 3651 20be ff65 afbe 0e3c 003e
000003c0: 8efb 913d a1b8 a8bf 3999 52bf ad2b 863e
000003d0: d631 923f 00fa 22be 3f22 8f3f d875 06bf
000003e0: 2b43 ab3e 6b41 b3bc 5def 49be 95b9 dbbc
000003f0: d0fb bcbf af37 00bc 77f9 b13e 3923 35bf
0.62333477 -0.23662023 -0.86705333 -0.92483276 -0.6012149 0.21897113 0.9538146 1.0166433
0.89909077 0.63706434 -0.42795363 0.7601698 -1.1686186 0.05196181 0.31752902 -0.23372722
-0.15669923 0.9488356 0.31475624 0.19071308 0.9788844 0.0028591391 -0.44347852 0.07542311
0.79825544 0.8030137 -0.6285102 -0.07352552 0.7164285 0.52230436 -0.5790934 -0.021551179
-0.7979094 -0.7401784 -1.24539 -1.3140428 -1.0530696 0.5025997 0.32987624 -0.017661486
0.92464316 -0.3483061 -0.15939632 -0.6901465 -1.536179 0.6643664 0.5951664 0.8719793
0.13080536 -0.5560707 0.97598654 -0.19826886 -0.07989429 -0.7469983 0.90779054 -0.62546855
0.30941075 1.514897 0.13405642 0.11660334 -0.17444864 -0.7568948 0.0011906042 -0.8593974
0.75445604 0.8236644 0.61299723 -0.121890664 0.23810184 -1.1719608 -0.91150314 -0.5351897
0.4110731 0.53868264 -0.039231032 -0.4322386 -0.49787506 0.39983714 0.55820143 1.0496334
-0.013025929 0.95204157 1.0508634 -1.3425187 -0.39648557 0.3266074 -0.85076064 0.40839475
-0.6484531 0.7993374 0.2809114 -0.22017208 0.6080835 0.66520447 0.5600736 -0.97556776
-0.021809429 1.0853723 0.6286138 -0.5605709 0.48105285 -0.92300993 -0.59915406 -0.93668026
-1.305927 1.3064076 -0.9587717 -0.18987031 -0.57489234 -0.554565 -1.3137505 1.1862947
1.5100665 -0.29782054 0.19736496 0.5842026 0.31184745 0.8961567 0.14546588 0.486276
0.21635847 1.2905333 0.4520382 -1.0539198 -0.22582974 -0.562111 -0.05352355 0.5162985
1.3352218 0.47971913 0.097446606 -0.10341162 -0.5262833 -0.69567454 -1.316202 -0.3606705
0.49817747 -0.41383243 0.5847778 -0.6243384 -0.063556015 -0.39373574 0.55381906 0.58641183
0.67102 0.49950925 -0.47579917 -0.67817336 0.5308861 0.3826538 -0.5390199 0.055394664
0.6130363 -0.84771085 -0.3028264 0.69816524 -0.31243098 0.378929 -0.33090895 0.88460827
-0.3059513 0.061787505 0.5712338 0.521252 0.66749775 0.62224156 -1.0002606 0.7848367
-0.3648776 -0.54207224 -0.49109724 -0.4441072 0.114527635 0.16626038 -0.088244915 0.27200425
-0.63142943 0.021278095 0.28598157 -0.59676147 0.42989564 -0.38850784 -0.057699718 0.5046099
-0.103355885 0.01084204 0.33127478 0.7590314 0.82078016 -0.15490259 -0.7581957 0.58991385
-0.93642074 0.046186343 0.28096107 -0.3869928 -0.53770906 -0.23904186 -0.7937032 0.12625444
-1.3891642 -0.4493563 0.113694176 -1.1579388 0.64028794 0.62561154 -0.33647487 -1.2452056
-0.1748801 -1.1949656 -0.8119934 -0.5243051 -0.23191845 -0.41578606 -0.39005277 0.07367802
-0.6872762 -0.14877693 -0.014725743 -0.48870352 -0.81070703 -1.0884167 -0.38720888 0.34935316
-0.69248366 -0.5451152 0.33966056 0.4062084 0.050118793 -0.40307257 0.066062815 0.17135097
-0.37323344 -0.29836378 1.0493 -0.4893072 -0.31728065 -0.1565598 -0.34257504 0.12522909
0.071280584 -1.3181344 -0.8226505 0.26205197 1.1421459 -0.1591568 1.1182326 -0.52523565
0.33449683 -0.02188178 -0.19720216 -0.02682189 -1.4764347 -0.007825776 0.3476064 -0.7075687

lstm.bias_hh_l1 f4 [256]
00000000: de84 293f 4502 b6be c2a5 68bf 7578 30bf
00000010: 9e88 ccbe 4f44 383e 2110 7a3f 96c7 863f
00000020: aa24 503f 763a 183f acd8 16bf e6db 1d3f
00000030: a6c5 88bf 7e97 873c b8fd 913e 926c bdbe
00000040: 09b3 a5bd 12de 4d3f a282 373e 5539 683d
00000050: e112 3f3f be86 44bd 1cc8 bfbe e368 b73d
00000060: 68f9 613f 3b2b 3c3f 8180 16bf 7bc7 26bd
00000070: 687d 303f 98ab b73e 3585 13bf fd03 2b3c
00000080: 097e 74bf 2169 5dbf 91b3 91bf cdae aabf
00000090: 9742 92bf 323c 2d3f bf16 2c3e 3d2e a43d
000000a0: 323b 7f3f 0b7e c2be 9a61 24be 0cc0 1abf
000000b0: ad12 cbbf 88c6 2d3f bccd 153f 2d6a 613f
000000c0: eb7c 283e 1e2d 01bf fe05 7e3f d816 aabd
000000d0: 5ddc febc ea6e 4bbf e5aa 693f 1e4b 27bf
000000e0: 0fda c93d e997 d03f f491 063e f00b 003d
000000f0: 94a2 8fbe c8c1 60bf 713f fd3d 4347 80bf
00000100: bf7c 523f 9197 3f3f 63e5 283f 8987 50be
00000110: 298a 5f3e 4b7e 8ebf b6fb 73bf 795c 31bf
00000120: 3322 123f 79f7 313f 251f 2dbd 896c e4be
00000130: 4ab2 b2be b822 0a3f 47f0 143f aa31 913f
00000140: 832f 0cbd d091 633f ee9b 733f eb14 afbf
00000150: 2f47 cebe 419b 963e 0184 5ebf 1df5 b73e
00000160: 41ae 2cbf 3495 283f ad73 ea3e 8496 b7bd
00000170: 1eb6 2c3f 6317 053f 331e 143f 732d 83bf
00000180: 1b2a a73d a88a 893f ab0c 383f 7821 1dbf
00000190: 2cf7 d03e 99b1 68bf 28af 2fbf be79 65bf
000001a0: fb04 a6bf 4398 a13f b2cb 44bf a33c e5bc
000001b0: 6c5b 19bf 26b9 22bf 0069 a8bf 259f 9a3f
000001c0: c9ba d73f 71ac bebe 006f 8f3e d814 383f
000001d0: a305 443e 9cd7 463f c53e 233d 6f2b a73e
000001e0: 68dd 4a3e 1300 a93f f7e1 c83e 88ce 90bf
000001f0: a803 e9bd dbd8 0abf 1f04 e1bd 39a4 0d3f
00000200: b0ed 9f3f 863f dd3e d354 903e 5fee 92be
00000210: ea59 0dbf 4a0f 3dbf 9834 a9bf 76b2 aebe
00000220: 207b 093f 39cf 6fbe 9821 1d3f c8da 1fbf
00000230: e5cc 47bd 4ad4 ddbe f86e 143f efe6 d13e
00000240: bcf7 0f3f 538f c53e 9a2f e9be 73e5 25bf
00000250: 6ec2 0b3f 8e0e 1f3f 5c59 22bf 6709 863e
00000260: caa5 c63e 90e9 51bf bd2e 2bbe a5da 1b3f
00000270: 2731 97be e236 a13e f623 98be d5fa 513f
00000280: 6c44 82be 5d8b 0f3e 8489 e03e d2fe da3e
00000290: 4618 f93e e45d 253f 9b93 7cbf 3972 253f
000002a0: 255c ccbe 329f 10bf a5de 03bf 852b 14bf
000002b0: 2ffc 743e d26b 1a3d f5a3 25bc e5ce 2d3e
000002c0: cffc 19bf 0ae9 233d b514 ed3e b4ea debe
000002d0: d293 243f bd36 eebe 56ee 07be 66b3 1d3f
000002e0: b935 8bbd fdf0 cf3d 59e8 ab3e b72e 553f
000002f0: 8d5c 553f 1f51 55be 8a0c 26bf 4031 143f
00000300: c729 4abf ea6f 953d f325 903e 34c2 f7be
00000310: 0ae5 17bf 6791 fdbd 7739 7dbf a46c 923d
00000320: 1a7f acbf 81df d6be 8f72 80bd e59e 7dbf
00000330: b444 273f 5556 f73e c4ff aebe 67f4 9fbf
00000340: b116 bebe bdf7 95bf 8cee 4dbf 328b 20bf
00000350: 722e 97be 53e6 abbe 2ac7 b9be 1499 5d3d
00000360: 1829 29bf 68fb 5bbe b522 233e fa48 e7be
00000370: 4ff5 6abf 69dc 98bf 4d6a eebe 191b c63e
00000380: ea1e 18bf 5b8a eabe fdb8 b83e c142 643e
00000390: 0c65 acbd 2fc3 c2be 069b d9bb dc7a 9c3e
000003a0: cdcc 93be a967 ddbe d5de 983f 113a 02bf
000003b0: 34cf c1be 2865 4fbe fb15 c4be 4feb 1c3e
000003c0: f447 673e c646 a1bf 1908 72bf 7527 a83e
000003d0: d791 a03f 93b1 a0be 90fa a43f 0d83 b7be
000003e0: ac33 d83e 82ec a6bd 6aaf 90be 6a8a 10bd
000003f0: a26a afbf 8d33 44bc 9dd4 c03e 76de 41bf
0.66218364 -0.35548607 -0.90877926 -0.689338 -0.3994798 0.17994808 0.9768086 1.0529659
0.81305945 0.59464204 -0.58924365 0.61663663 -1.0685318 0.01655173 0.28513885 -0.36996895
-0.08090789 0.8041698 0.17920926 0.0566953 0.7463818 -0.047980063 -0.3745736 0.089555524
0.8827119 0.73503464 -0.5878983 -0.040717583 0.68941355 0.35873103 -0.5762513 0.010437963
-0.95504814 -0.8648854 -1.1382924 -1.3334595 -1.1426572 0.67669976 0.16805552 0.08016632
0.996997 -0.37986788 -0.16052857 -0.6044929 -1.5865074 0.6788106 0.5851705 0.88052636
0.16453902 -0.5045947 0.99227893 -0.08305138 -0.031110937 -0.79466116 0.9127639 -0.65348995
0.098560445 1.6296359 0.13141614 0.031261384 -0.28053725 -0.87795687 0.12365616 -1.0021747
0.822216 0.74840647 0.65975016 -0.20364203 0.21830048 -1.1132292 -0.95305955 -0.6928173
0.57083434 0.6951824 -0.04226603 -0.44614056 -0.3490165 0.53959227 0.58179134 1.1343281
-0.034225 0.8889437 0.95159805 -1.3678259 -0.40288684 0.29415324 -0.8692017 0.35929194
-0.6745339 0.65852666 0.4579138 -0.089642555 0.6746539 0.5198881 0.5785858 -1.0248245
0.08162328 1.074544 0.7189433 -0.61379194 0.40813577 -0.9089599 -0.6862664 -0.8963889
-1.297027 1.2624592 -0.76873314 -0.027983015 -0.59905124 -0.63563764 -1.3157043 1.2079817
1.6853877 -0.37240937 0.28014374 0.71906805 0.19142775 0.77672744 0.039854784 0.32650325
0.19811022 1.3203148 0.39234897 -1.1313028 -0.113776505 -0.54237145 -0.10987114 0.5532871
1.2494411 0.43212527 0.28189716 -0.28697488 -0.5521532 -0.73851454 -1.3219175 -0.3412053
0.537035 -0.23418893 0.61379385 -0.6244321 -0.048779387 -0.43326026 0.57981825 0.409965
0.5623739 0.3858591 -0.4554413 -0.64803237 0.5459355 0.62131584 -0.634176 0.26179048
0.38798362 -0.81997013 -0.16717048 0.608805 -0.29529688 0.31487185 -0.29714936 0.82023364
-0.25442827 0.14018007 0.43854916 0.42772537 0.48651332 0.6459639 -0.9866273 0.64627415
-0.3991405 -0.5649291 -0.51511604 -0.57878906 0.23924325 0.03770048 -0.010109891 0.16973455
-0.6015138 0.040017165 0.4630486 -0.4353844 0.64288056 -0.46526137 -0.13274512 0.61601865
-0.06797356 0.10153387 0.33575705 0.83274406 0.83344346 -0.20831726 -0.64862883 0.5788765
-0.7897 0.072967365 0.28153953 -0.48390353 -0.5933386 -0.12381249 -0.9891581 0.07149628
-1.3476288 -0.41967395 -0.0627185 -0.9907058 0.6533921 0.48308054 -0.3417951 -1.2496461
-0.37126687 -1.1716229 -0.8044212 -0.62712395 -0.29527622 -0.3357416 -0.36284763 0.054101065
-0.6607833 -0.21482623 0.15931208 -0.45172864 -0.9178056 -1.1942264 -0.46565476 0.3869255
-0.5942217 -0.45808682 0.36078635 0.2229109 -0.08417711 -0.38039538 -0.0066407947 0.30562484
-0.28867188 -0.4324315 1.1943003 -0.5086985 -0.37853396 -0.20253432 -0.3829802 0.15324138
0.22586042 -1.2599723 -0.94543606 0.32842603 1.2544507 -0.31385478 1.2888966 -0.3584217
0.42226923 -0.08150579 -0.2825883 -0.035288252 -1.3704417 -0.011975181 0.3766221 -0.75730073
