loglizer/checkpoints/20240408183250.pth (torch, 814150 bytes, 10 tensors)

lstm.weight_ih_l0 f4 [512, 1]
000000 94 37 4b 3f 3d d6 b4 3f 13 d6 4b 3f 4d ef b5 be
       0.7938168 1.412788 0.79623526 -0.35534135
000010 06 0c b2 bf 2d 2b 8c be 29 d2 b7 be 8f 9a a7 3f
       -1.3909919 -0.2737669 -0.35902527 1.3094043
000020 88 f4 db 3f 02 a8 19 bf 3b 68 1f 3f 6a d7 f1 3e
       1.7184 -0.60021985 0.6226842 0.4723466
000030 66 03 d7 3f 18 7b 31 bf f7 26 ad 3f a7 75 dc 3e
       1.6797912 -0.6932845 1.3527516 0.43058512
000040 0c ae ab 3f 80 c8 65 bf 92 20 93 bf 71 80 ef be
       1.341249 -0.89759064 -1.1494315 -0.4677768
000050 e9 67 a7 bf 4f ca 00 3e ad 2e 77 3f 18 ea 0e bf
       -1.3078586 0.12577175 0.96555597 -0.5582595
000060 24 08 16 3f c8 ef 58 3d cb b2 a1 3f 2d 22 8d bf
       0.5860617 0.05296305 1.2632688 -1.1026055
000070 1d 65 a7 3f 0b 4e 40 bf 6a 00 26 40 43 a6 28 bf
       1.3077732 -0.75119084 2.5937753 -0.65878695
000080 fa d5 38 bf 13 9a 3c 3f f9 9d 11 3f 3e 86 b3 3f
       -0.722015 0.736726 0.5688167 1.4025342
000090 45 7d 09 3f 45 5f d8 3f 62 3e a0 3f cb 2a 50 be
       0.5370677 1.6904074 1.2519038 -0.20328824
0000a0 19 05 50 3f e5 0c bb be 40 6b aa 3f c2 68 8b 3f
       0.8125778 -0.36533275 1.331398 1.0891345
0000b0 20 ab 50 bf 26 06 d8 bf 8b 43 68 bf 58 b0 71 bf
       -0.81511116 -1.6876876 -0.9072806 -0.94409704
0000c0 6a 8f bb 3f 6e 98 17 3f 2a be df bf e4 54 5e be
       1.4653141 0.59216964 -1.7479908 -0.2171207
0000d0 0d ba 7b bf ab 63 ce 3f 3f 01 02 3f 42 1b 43 3e
       -0.98330766 1.6124166 0.5078315 0.19053367
0000e0 c7 43 93 bf b1 dd 4b bf 31 35 b0 3f 1d d4 c8 be
       -1.1505059 -0.7963515 1.3766233 -0.3922433
0000f0 71 cf 45 bf 33 20 d9 bf 43 f4 59 3f cf 68 21 be
       -0.77269655 -1.6962951 0.8513834 -0.15762638
000100 2b b2 b3 3e ba 1f 08 bf 8a 74 24 3f ae 1f 93 3f
       0.3509687 -0.5317341 0.64240324 1.1494043
000110 22 76 6f 3f b9 41 8a 3d bc 86 36 bf 23 fa d7 3e
       0.9353963 0.06750817 -0.7129934 0.42183027
000120 f8 15 ec be 18 79 aa bd 71 a4 96 bf 91 7d 94 bf
       -0.4611051 -0.08323878 -1.1768934 -1.160082
000130 55 48 60 bf 1e 48 a9 bf 56 ec a3 be 3a c8 bf 3f
       -0.8761037 -1.3225133 -0.32016248 1.4982979
000140 85 ff 6e bf 78 99 ad be e7 40 b3 3f a6 0d d0 3e
       -0.9335864 -0.3390615 1.4004182 0.40635413
000150 c8 21 b3 3f 42 cd 0a 3f f1 2a 39 bf 47 f7 02 bf
       1.3994684 0.5421945 -0.7233115 -0.51158565
000160 5d 6a a3 bf 93 1f a1 3f 18 82 21 3f 47 1e 32 bf
       -1.2766834 1.2587761 0.6308913 -0.6957745
000170 84 ac 24 3f af 68 ab 3f b5 91 8e 3f aa 69 4f 3f
       0.6432574 1.3391322 1.1138216 0.81020606
000180 38 87 9b bf b7 0c 8b 3f fe 87 09 3f cb 83 e5 be
       -1.215064 1.0863255 0.5372313 -0.44827113
000190 74 45 be 3f 56 53 2f 3f f2 8c 7e be 7e 53 03 bf
       1.4864945 0.68486536 -0.24858454 -0.51299274
0001a0 fd 3d e9 bf c5 68 01 bf 5a 1a c6 be 67 e2 d3 be
       -1.8222042 -0.5055049 -0.3869198 -0.4138367
0001b0 16 ab b5 bf c6 59 7d bf 98 4f 94 3e 99 cb 0f 3f
       -1.4192836 -0.9896511 0.28966975 0.5617004
0001c0 72 b1 18 3f 91 b7 d6 bf ca 14 25 be 94 a6 8f bd
       0.5964576 -1.677477 -0.16121212 -0.07014194
0001d0 a4 c0 a6 be d3 17 83 be 2a 1e 4c bf 90 9c 92 3d
       -0.32568848 -0.25604114 -0.79733527 0.07158768
0001e0 4a f0 01 bf c5 f5 be bf 54 46 5e 3f dc 28 54 3f
       -0.50757277 -1.4918753 0.8682606 0.82874846
0001f0 c0 eb 5f 3e e5 75 af be 89 37 d3 bf c8 6c 7f 3f
       0.21867275 -0.34269634 -1.6501323 0.9977536
000200 d5 9a ae be a8 f4 28 c0 00 56 9b 3e f8 e0 aa bd
       -0.34102502 -2.6399326 0.3033905 -0.08343691
000210 c8 ed a1 bf b8 3c fd 3d 59 e4 3c 3f 25 06 be bf
       -1.265069 0.12365097 0.7378593 -1.4845625
000220 9a 80 2f bf ca 42 d1 be 97 5f 11 be 7e 40 c3 3e
       -0.68555605 -0.4087127 -0.14196621 0.3813514
000230 85 1b 56 3e d3 38 a1 3f c7 d6 e1 be 16 56 9a be
       0.20908935 1.2595466 -0.44109175 -0.30143803
000240 0c fa c0 3e e7 dd 27 3d 5a d6 70 bf e7 da b7 3f
       0.3769077 0.040983107 -0.94077075 1.4363679
000250 02 89 34 3c 19 16 a4 bf 46 f5 5c 3e 2d 21 ec 3e
       0.011018993 -1.2819244 0.2157794 0.4611906
000260 c7 02 91 3e 0b 04 c2 be ed fd 27 3f b3 e4 45 bf
       0.2832243 -0.3789371 0.65621835 -0.7730209
000270 d4 dc 0e 3f 80 4e ff be 90 11 0f 3f ae b2 21 bf
       0.55805707 -0.49864578 0.55886173 -0.6316327
000280 26 3b 89 3f 97 f9 11 bf 4f cf b3 bd 92 d0 8d bf
       1.0721176 -0.5702147 -0.08779775 -1.1079276
000290 e9 8a d5 3f d1 f9 28 bf 0e 9b a5 bf 47 ee c8 be
       1.6683017 -0.6600619 -1.2937944 -0.3924429
0002a0 74 a2 bc 3e 40 7e 2e bf 31 e5 a0 3f a0 f1 d8 3e
       0.36842692 -0.6816139 1.2569944 0.42371845
0002b0 e7 09 02 3e 80 fc e3 bf d8 c5 f9 be 5c d7 3f be
       0.1269909 -1.7811432 -0.48783755 -0.18734497
0002c0 e7 c3 12 3f 8e 5e 2b 3d 90 a7 58 3f cc 07 3e 3e
       0.57330173 0.04183822 0.8463068 0.18557662
0002d0 64 25 8a 3f 26 82 9d be 0f 8a a4 3e 7f 43 41 3f
       1.0792661 -0.30763358 0.3213658 0.75493616
0002e0 f2 67 0a 3f 62 15 cc be c8 1c ee 3e 0b 85 27 3e
       0.5406486 -0.39860064 0.46506333 0.16359346
0002f0 a2 d9 c8 be 3d 54 29 bf 93 45 8d 3f af 83 de 3e
       -0.3922854 -0.6614416 1.1036857 0.43459842
000300 81 fd 1a 3e c0 b1 c8 bc 9f 87 e1 3e 99 2b 2e 3e
       0.15135767 -0.02449882 0.44048783 0.17008819
000310 43 aa 92 3d 5e 36 27 be c9 9c 8d 3e f0 e6 95 3d
       0.07161381 -0.16329333 0.2765868 0.073194385
000320 99 35 72 be a4 f8 01 bf cf 89 15 3f 6c c6 17 3f
       -0.23653258 -0.5077002 0.58413404 0.5928714
000330 13 21 2e 3e 35 4e 3f bf 1b b7 42 be 4d 26 53 3e
       0.17004804 -0.7472871 -0.19015162 0.2062008
000340 a6 27 09 bf 8c 34 a3 bf 24 25 4d 3e ec ab 11 3f
       -0.53576124 -1.2750411 0.200337 0.56902957
000350 79 bc c9 3e fe 96 19 3e 28 95 9e be 15 ea 22 3f
       0.39401606 0.14999005 -0.30973172 0.6363843
000360 f3 f0 90 be 66 84 db be 85 81 44 bf d2 9e e5 be
       -0.2830883 -0.4287445 -0.7676013 -0.44847733
000370 3d b4 7c bc 21 15 97 3e 4d b6 06 3e 81 28 9e bf
       -0.0154238315 0.29508308 0.1315548 -1.2356111
000380 85 c5 02 bf 11 a8 7d 3e ff 10 06 40 10 00 98 3f
       -0.5108264 0.24771143 2.0947874 1.1875019
000390 da 3c 02 3f d9 5a ea 3e c5 80 7c bf b9 73 01 bf
       0.508741 0.45772436 -0.98633987 -0.50567204
0003a0 d3 56 dc be 9e 45 67 be 5e de fa 3e f8 11 ff 3d
       -0.43034992 -0.2258515 0.48997778 0.12454599
0003b0 00 12 e2 be 71 2e 05 3f 79 b6 4a 3f 5d 0c c3 bf
       -0.44154358 0.5202399 0.7918468 -1.5238148
0003c0 df 10 7a 3e 4a 4e 68 bf aa 20 21 3f 84 96 84 bf
       0.24420498 -0.9074446 0.62940466 -1.0358434
0003d0 5e 73 b4 3d 1a c1 0c bf 0f 57 88 bd eb a5 f5 be
       0.08811067 -0.5498215 -0.0665723 -0.47978148
0003e0 f9 77 9c 3e 1f 40 34 bd 10 6a 0f 3e ed 8a 31 3e
       0.30560282 -0.044006463 0.14005303 0.17338152
0003f0 be d5 b3 be 90 fe 24 bf 86 61 fd be ef 9c 9b 3e
       -0.3512401 -0.6445093 -0.49488467 0.30393168

lstm.weight_hh_l0 f4 [512, 128]
000000 69 60 05 3e 8c 36 08 be 30 4a 0f be d0 33 4e 3d
       0.13025059 -0.13302058 -0.13993144 0.05034238
000010 13 d6 ab 3d ec f7 98 be 4a 45 d8 3e 14 87 8c 3e
       0.08390441 -0.2987665 0.42240363 0.27446806
000020 54 04 c8 3e c9 6c 3c 3d 74 c2 36 3c 74 19 f8 be
       0.39065802 0.046002183 0.01115476 -0.4845692
000030 9b 29 4f be 78 ec 3b be 8f f8 48 3e 1f 15 ed be
       -0.20230715 -0.18351924 0.19626068 -0.46305177
000040 2d 19 b3 3e 03 8b cb 3d 7f 3a 7e 3e 07 4e 86 be
       0.34980145 0.09938624 0.24827002 -0.26231405
000050 bf 4f 07 be f2 05 2a 3d 60 1f 58 3e 12 9f 4f 3c
       -0.13214014 0.041509576 0.21105719 0.012672203
000060 6b fe c7 be e5 9c 59 bc f7 00 cd be 48 27 97 3e
       -0.39061293 -0.0132820355 -0.400398 0.29522157
000070 b2 e9 ec be b8 c2 a6 bd a4 83 f7 bd 04 4f 3a 3e
       -0.46272045 -0.081426084 -0.12085655 0.18194205
000080 f2 93 8f 3e a5 72 1b bf bb ba b3 bd 8a 97 a5 be
       0.2804256 -0.6072181 -0.087758504 -0.32342178
000090 df 7e 1a bd f9 80 71 be 4c 5d 33 3e 97 2b 97 bd
       -0.03771865 -0.23584355 0.17516059 -0.07381361
0000a0 60 da 84 be 17 20 50 be 34 69 8d be 9c a5 ae be
       -0.25947857 -0.20324741 -0.27619326 -0.34110725
0000b0 2a 7c 04 3e 0f 2e 49 be fa a4 16 be 32 af 24 bc
       0.1293799 -0.19646476 -0.14711371 -0.010051535
0000c0 e9 6f 94 3e e0 2d 50 bb 74 d2 3c be 5a bf 81 3e
       0.2899163 -0.0031765625 -0.18439656 0.25341302
0000d0 45 ca b0 bd d6 b5 85 bd 78 7b b6 3c 7c 91 2e 3e
       -0.0863233 -0.06528823 0.022275671 0.17047685
0000e0 24 b0 2b be 8b 84 68 3d df ea 59 bc b0 c1 a4 bd
       -0.16766411 0.056767028 -0.013300627 -0.080447555
0000f0 07 f0 ab 3c dd 4e a3 be 73 b7 92 be f6 11 48 3e
       0.020988477 -0.31896105 -0.28655586 0.19538102
000100 e1 33 67 be e3 1e 28 bd 87 f4 1a 3e 7e 11 17 3f
       -0.22578384 -0.04104508 0.15132342 0.59011066
000110 ca cf 2a 3f 3f de 2b be 93 f0 a4 bd 7c 20 a6 bc
       0.6672331 -0.16783999 -0.080536984 -0.020279162
000120 75 5a 21 bd b7 c2 01 3d cd 46 9b 3e 0f 6a 99 3e
       -0.039392907 0.031679835 0.30327454 0.2996373
000130 53 e6 75 be e7 4e 0f 3d fb bd fd 3d 90 9d b2 be
       -0.24013643 0.034987357 0.123897515 -0.34885836
000140 f9 1b ef 3d 41 56 cd be aa 52 f7 bd 0a d7 87 bc
       0.11675257 -0.4010487 -0.12076314 -0.01658203
000150 fe c9 9e be 0b 04 94 be f3 c6 1e bd 37 72 18 be
       -0.31013483 -0.28909335 -0.03876395 -0.1488732
000160 b1 67 00 be 80 22 7e 3d 36 f0 c8 3d e4 57 2b be
       -0.12539555 0.06204462 0.098114416 -0.16732746
000170 0a d3 87 3e d0 f5 c6 3e 1e a2 b0 3d 29 85 09 3e
       0.26528198 0.38859415 0.086246714 0.13429703
000180 ec 66 80 bc 47 f0 85 3e 61 63 3f 3e ca a4 18 3f
       -0.015674077 0.2615988 0.18690254 0.5962645
000190 0c 39 9d 3e 1d 52 9d 3e 85 db b3 bd 8b f2 2d 3e
       0.30707586 0.3072671 -0.087821044 0.16987054
0001a0 27 e4 2c bd 1e 27 51 be 30 6b 83 be 16 20 5d 3e
       -0.04220977 -0.20425078 -0.25667715 0.21594271
0001b0 29 fb 11 3e 63 36 32 3d b3 ee da ba 28 cf c2 3d
       0.14255966 0.0435089 -0.0016703218 0.09512168
0001c0 56 30 78 be 2a 85 83 3e b4 a0 dc 3d 72 b3 c3 3e
       -0.24237189 0.25687534 0.10772839 0.38222843
0001d0 a6 b4 87 be 75 40 fb be 02 4c ac be a0 8d e4 bd
       -0.2650501 -0.49072614 -0.3365174 -0.11159825
0001e0 3a 93 83 3e 5b 40 15 3e c6 99 51 3e de 10 07 be
       0.25698262 0.14575331 0.20468816 -0.13190028
0001f0 3c 92 1b 3e 70 a0 94 bd a9 1c 5f 3c 74 ed 0b 3f
       0.15192503 -0.072571635 0.013617673 0.546592
000200 c2 e9 e3 3e 6d 79 5c bf a0 3f 6d 3f 3f 5a 3c 3f
       0.4451428 -0.8612278 0.9267521 0.73575205
000210 36 ef 9d 3e 82 78 38 bf 73 9f 06 3f 7e a2 d6 be
       0.30846566 -0.7205888 0.5258705 -0.41920847
000220 47 e8 53 3f 5f 92 dc 3f b8 07 83 bf b1 61 ac be
       0.827763 1.7232169 -1.023673 -0.33668283
000230 b9 99 2f bf de 64 21 3f 55 43 13 40 d5 5b 96 bf
       -0.6859394 0.63044536 2.3009846 -1.1746775
000240 0b aa 7f ba 7b 48 1f bf 43 a9 6e bf 4f 27 93 3f
       -0.00097528164 -0.6221997 -0.9322702 1.1496371
000250 c9 46 84 bf f1 b9 41 bf d4 4f 0a 3f d1 73 40 c0
       -1.0334102 -0.7567435 0.5402806 -3.0070689
000260 48 9e 61 3f 2e 76 99 3f 2b e8 e8 3e d7 a4 c0 3e
       0.88132143 1.198919 0.4548963 0.37625763
000270 97 d0 22 c0 7d fb 9d 3e fd 1b 1e 3f 90 ff e7 40
       -2.5439813 0.30855933 0.61761457 7.2499466
000280 18 ab 28 40 9d 6a 4e 3d 20 73 ae 3f 41 9f 95 3f
       2.6354427 0.050394643 1.3628883 1.1689225
000290 31 3b 2c bf 3d cc 42 c0 47 10 e6 be 93 68 03 c0
       -0.6727782 -3.0437157 -0.44934294 -2.0532577
0002a0 de 76 ff 3a 38 cd 5e be 1d c2 65 3d 38 db 59 be
       0.0019490381 -0.21757972 0.056093324 -0.21275032
0002b0 26 ab 6b 3e 66 9a 0a 40 d8 55 b5 be 51 27 67 3f
       0.23014507 2.1656737 -0.35417056 0.9029437
0002c0 ef 8d 9f bf d5 91 24 3e 67 7b db bf e0 46 6f bf
       -1.246519 0.16071256 -1.7147034 -0.9346752
0002d0 97 82 fc be c9 a9 7c 3f c3 67 00 3f 90 2c 0a 3e
       -0.49318382 0.9869657 0.5015833 0.13493562
0002e0 4c d8 0c 3f 7b 50 69 be 46 6f a0 3e 38 7a e9 3e
       0.5501754 -0.22784607 0.31334895 0.45601058
0002f0 10 21 5f 3f f4 d3 4f 3f f0 9c 8b bf 98 a5 45 40
       0.87159824 0.8118279 -1.0907269 3.088232
000300 ee 36 a1 be c1 33 8d be 4f c2 b2 3f ba ce d8 3e
       -0.3148722 -0.27578548 1.3965548 0.4234522
000310 c4 fc b6 bd 96 70 7a be e2 4c 54 bf 7b 8a db be
       -0.0893493 -0.2445701 -0.82929814 -0.4287909
000320 a6 0f 70 bf e2 2d 11 bf 92 63 db 3e 74 e0 16 3f
       -0.9377388 -0.56710637 0.42849404 0.5893624
000330 95 5e 38 3e 60 8c 3b be 8e fc eb 3d 37 ad 02 bf
       0.1800483 -0.18315268 0.1152278 -0.51045555
000340 3c 6d cd 3e e0 2e 68 bd 81 59 43 3f ce 14 8d be
       0.40122402 -0.05668533 0.7630845 -0.27554935
000350 dd f0 8f bf e8 ce 02 bf a0 9c d3 be b5 e1 63 3e
       -1.1245381 -0.51096964 -0.41330433 0.22254069
000360 6b fe e8 bf 88 7d a8 bf 3f f1 fb be 48 97 c9 be
       -1.8202642 -1.3163309 -0.49207494 -0.3937323
000370 92 57 43 bf be 19 bf 3f 5a 45 3e bf bd 4f 1e 3f
       -0.76305497 1.4929731 -0.7432457 0.6184042
000380 d7 71 ff 3f 64 9c 88 3f 86 ab 4d 3e cf 61 e8 3e
       1.9956616 1.0672727 0.20084962 0.45387122
000390 38 d7 40 be 94 cd be bf b8 f6 e9 bf bf bf 94 bf
       -0.188321 -1.4906487 -1.8278418 -1.1621016
0003a0 bc d5 05 3d d1 37 6c be bf 0c 4b 3e 02 25 de 3e
       0.032674536 -0.23068167 0.19829081 0.4338761
0003b0 7b 75 3d 40 96 ed 7b be e0 3b 2f bf 69 7a 80 bf
       2.9602954 -0.2460235 -0.68450737 -1.0037357
0003c0 c0 16 98 bf e2 c5 c5 bf 6e 71 e6 3e 88 bf 2a 3f
       -1.1881943 -1.5451014 0.45008415 0.66698503
0003d0 58 3e b8 be 97 90 9a be 8f a1 5b 3f ec 0c 6e be
       -0.35985065 -0.30188438 0.85793394 -0.23247117
0003e0 f4 da cc be 93 ec 7c 3d b6 6b 55 bc 27 9a a0 be
       -0.40010798 0.061749052 -0.013026169 -0.3136761
0003f0 f7 f4 bf 3d 28 fb cd be 0a e6 81 be 55 02 d5 3e
       0.09372895 -0.4023068 -0.25370818 0.41603342

lstm.bias_ih_l0 f4 [512]
000000 53 1f a3 3e 00 41 fa bd 44 a3 9b 3f 70 0c b1 be
       0.31859836 -0.12219429 1.21592 -0.34579802
000010 80 af 56 be 57 b9 32 bf c2 f1 1e c0 9d 80 c6 3f
       -0.20965385 -0.69814056 -2.4835057 1.5508
000020 42 a0 a8 bf 01 cf 1c 40 30 33 25 3f 1d fc 0e 3f
       -1.3173907 2.4501345 0.6453123 0.55853444
000030 cc b8 a6 3f f8 21 cf bf c7 cb 6f 3f df 2a 90 3f
       1.3025146 -1.6182241 0.93670315 1.1263083
000040 4a ad 87 3f 3e ea 3a bf 1b 2e 01 3f f7 45 80 bf
       1.0599759 -0.73013675 0.50460976 -1.0021352
000050 a3 9c 41 3e b0 01 3a 3f 28 47 31 3f 59 8c 87 be
       0.18907408 0.72658825 0.692492 -0.26474264
000060 58 b3 1e 3f 23 d6 1b 40 1e 0d a8 3f 28 14 af 3c
       0.61992407 2.4349449 1.3129003 0.021371916
000070 27 66 a2 3f 4e b2 84 3f 51 23 96 bf c6 68 c9 3f
       1.2687424 1.0366914 -1.1729528 1.5735099
000080 60 72 04 40 01 bc 57 3f 0c 37 4f 3f af 87 96 3f
       2.069481 0.84271246 0.8094337 1.1760157
000090 99 26 12 c0 7f 74 cb 3f 6c 5e b4 3f d1 53 0c 3f
       -2.2836058 1.5894927 1.4091315 0.54815394
0000a0 a1 37 58 3f 7e a0 80 3f 22 de b2 3f c9 6f ab 3f
       0.8445988 1.0048978 1.397404 1.3393489
0000b0 20 bf da bf 3f 84 3d 3e 0a 0c ec bf 0a f5 e1 bf
       -1.7089577 0.18507479 -1.8441174 -1.7652905
0000c0 d4 e8 d9 3f bf 34 49 c0 c2 8d d0 be 82 8a 09 3f
       1.7024179 -3.1438444 -0.40733153 0.5372697
0000d0 71 78 00 3e ca 20 cb 3f c0 d5 9e 3e bc 39 5a be
       0.12545945 1.5869381 0.31022453 -0.21311086
0000e0 a2 d4 92 bf 7a fb c2 bf 92 b7 3b 3f 03 0f a9 3f
       -1.147114 -1.5232995 0.7332698 1.3207706
0000f0 7a 88 9d 3e 2c b8 9c 3f 9a 7f cb 3e dc b5 72 3f
       0.30768186 1.2243705 0.3974579 0.94808745
000100 62 8e 59 3d 42 ba 5d be c6 ef 9e 3e 33 f4 ec 3f
       0.053114302 -0.21653083 0.31042308 1.8512024
000110 45 6d e3 3f b6 b7 9b bf 63 da 8b bf 3e f2 36 3e
       1.7767721 -1.2165439 -1.0926021 0.17865846
000120 e5 c8 63 bf be af 84 3e 77 68 4e 3f 25 9c 9f 3c
       -0.88978416 0.2591533 0.8062815 0.019483635
000130 b2 ff 02 3e 5c 04 ae bf a4 bf b2 bf 7c 24 c6 3f
       0.12792853 -1.359508 -1.3964734 1.5479884
000140 76 e4 a3 3e 87 b4 d0 3c 9b ab 75 3f 7b ac 35 3f
       0.3201024 0.025476707 0.95964974 0.7096631
000150 20 99 a5 3f 1b d1 e5 3d 89 62 34 bf 67 27 a6 3e
       1.2937355 0.11221524 -0.7046285 0.32451937
000160 4f f5 af 3f a0 40 92 3f 58 10 49 3f 89 3d 03 c0
       1.3746737 1.1425972 0.78540564 -2.0506308
000170 e2 5a 8b 3f 55 bd a8 3f e7 53 d5 3f b5 ef c0 be
       1.088711 1.318278 1.666623 -0.37682882
000180 83 70 d3 bf 3b 44 6a 3f 76 78 62 c0 52 57 65 bf
       -1.6518711 0.9151036 -3.5386024 -0.89586365
000190 1b 01 d9 3f ae 06 e4 3c df 11 cf 3f cf 16 a7 3e
       1.6953462 0.027835216 1.6177329 0.3263459
0001a0 3a c6 af bf 5e 18 9f 3e 93 49 47 3f e6 e8 a3 be
       -1.3732369 0.31073278 0.7784664 -0.32013625
0001b0 f5 a8 8f 3f 8d 12 13 3f f6 d3 6f bf 0e 3e ae 3f
       1.1223437 0.5745018 -0.936828 1.3612688
0001c0 7a 80 0a bd b8 2c d8 3e 24 1b cd 3f 2b e1 9f 3f
       -0.03381393 0.42221618 1.6023908 1.2490591
0001d0 75 df bf bf e9 22 0d 40 40 ef 67 bf c2 20 0f 40
       -1.4990069 2.2052557 -0.9059944 2.2363744
0001e0 ac 1e a2 be 5e c1 53 bf a4 5e 85 3f df 51 7e 3f
       -0.31664026 -0.8271693 1.0419507 0.99343675
0001f0 3d 0b 11 3f 9c 45 1b bf 89 55 7c bf 96 c6 d9 3f
       0.56657773 -0.6065309 -0.98568016 1.7013729
000200 c7 61 bd be a9 80 cd 3e e8 22 fe 3e dd 7a 92 be
       -0.3698866 0.40137222 0.49636006 -0.28609362
000210 9d 94 8b be 52 95 a2 3d 50 db dc be 67 fd 84 bf
       -0.2726182 0.07938637 -0.43136072 -1.0389832
000220 25 38 3d bf d2 ad ff be 8d 6f 7e 3e c3 00 61 3f
       -0.73913795 -0.49937302 0.24847241 0.8789179
000230 e2 fc b9 3e 73 40 e8 3e d5 cf cc be 53 9d 18 3f
       0.36325747 0.4536167 -0.40002313 0.5961506
000240 91 61 dc 3e 47 8d 45 be c9 5b 11 bf 47 80 87 3f
       0.43043187 -0.19292174 -0.5678068 1.0586022
000250 fd b5 41 bf 36 ee 28 3f 35 91 c5 3e 6d ed 67 3f
       -0.7566832 0.6598848 0.38587347 0.9059666
000260 ab 02 e4 3e b6 94 f6 be 07 99 4b 3f 7c 08 92 be
       0.44533285 -0.48160332 0.79530376 -0.28522098
000270 90 8e eb 3e 79 f0 52 bf a6 eb 18 bf d9 ef 7d bf
       0.46007204 -0.8239818 -0.5973457 -0.99194103
000280 51 4e 08 3f bb 8c 83 bf ee 62 04 3f 6d 71 86 bf
       0.532445 -1.0277323 0.51713455 -1.0503365
000290 6f 3f fe 3e 89 3c 93 bf d9 9e 8d bf db be 56 bf
       0.4965777 -1.1502849 -1.1064101 -0.8388497
0002a0 0a ba ce 3e 2c dc 42 bf bd d2 86 3e 06 43 dc 3e
       0.40376312 -0.76117206 0.26332656 0.43019885
0002b0 f8 8e 94 3d 01 d5 95 be d6 c6 17 bf f1 f6 1f bf
       0.072538316 -0.29264072 -0.59287775 -0.6248618
0002c0 e5 f0 69 3f c0 d6 54 be d5 ab 9f 3f b4 f2 0e 3f
       0.913832 -0.20785046 1.2474314 0.55839086
0002d0 14 89 aa 3d e2 d6 0c bf 75 95 be 3e ab f6 29 3f
       0.08326927 -0.55015385 0.37223402 0.6639201
0002e0 ee b7 c4 be ec ed 6a bf b7 38 31 3f 4f b4 3e 3e
       -0.38421577 -0.9176929 0.69227165 0.1862347
0002f0 c1 be 99 be 70 8f 97 3f 64 d8 c2 be c1 4e d9 3e
       -0.30028346 1.1840649 -0.38055718 0.42442897
000300 8d 3a b1 be d1 25 c5 be 45 c0 27 3f e6 35 35 3f
       -0.34614983 -0.38505414 0.65527755 0.7078537
000310 ef e1 0e 3f 02 74 52 bf f2 73 12 bd b8 6c 78 3c
       0.558135 -0.82208264 -0.035755105 0.015162639
000320 05 f8 ad be f3 f7 c8 be ce 03 19 3f 2d 4a 29 3f
       -0.33978286 -0.3925167 0.5977143 0.6612881
000330 14 ae a4 3e 41 80 43 3d 5c 95 33 be bf c6 0b 3f
       0.3216406 0.047729734 -0.17537445 0.5460014
000340 b2 52 01 bf d4 9f b5 3e 7f ec ef 3d ca 67 c7 3e
       -0.5051681 0.35473502 0.1171503 0.38946372
000350 cf 5d fd 3e 8d 10 91 3e 7a c6 f5 be 26 f3 5a bf
       0.49485633 0.2833294 -0.48002988 -0.85527265
000360 7b e7 3b bf c5 8e 26 bf fa 58 46 bf 9f 7c 3c bf
       -0.73400086 -0.650616 -0.7747952 -0.73627657
000370 ac 0e 09 3f ec f1 a5 3e d5 5e 07 3f c3 df c3 3d
       0.5353801 0.32411134 0.5287908 0.095641635
000380 65 66 2e bf 24 15 92 3e d2 3c 2a bf a2 9a cb bd
       -0.6812499 0.28531754 -0.66499054 -0.09941603
000390 13 cf 09 3f 66 e5 3f 3f 11 21 19 3f 0b fa 38 bf
       0.53831595 0.7495941 0.5981608 -0.72256535
0003a0 0d 97 f1 be 82 00 a8 be c3 13 cb 3e 1e 6b 4e be
       -0.47185555 -0.32812887 0.39663514 -0.2015805
0003b0 1b 9f 02 bf 25 04 b3 be ea 41 c5 be e9 2b 4e bf
       -0.51024026 -0.349641 -0.3852685 -0.8053575
0003c0 fd f0 de 3e c6 6b 84 bf e7 0e a5 3e c3 f9 8b bf
       0.43543234 -1.034539 0.32237932 -1.0935596
0003d0 49 fc d4 bd 1c 7b 87 3f f8 52 8c bf b0 62 bd be
       -0.10399682 1.0584445 -1.096282 -0.36989355
0003e0 5b 96 b0 3d c7 00 b3 be fa 4f 1d 3e 2c d4 b7 3e
       0.08622428 -0.3496153 0.1536254 0.35904062
0003f0 f6 88 c1 be 50 91 3f bf b6 fa bd be 9c 76 38 3f
       -0.37799805 -0.74831104 -0.3710534 0.72055984

lstm.bias_hh_l0 f4 [512]
000000 19 eb be 3e 50 48 89 be 55 28 8f 3f 78 90 5a be
       0.3728874 -0.26812983 1.1184183 -0.21344173
000010 f4 76 1a be 06 1a 39 bf b8 d0 17 c0 d5 2b bf 3f
       -0.1508444 -0.72305334 -2.3721142 1.4935251
000020 8d bb a8 bf 9e 98 18 40 f7 8e 2b 3f 15 33 e6 3e
       -1.3182236 2.384315 0.6701502 0.44960847
000030 13 47 a3 3f ba ae c6 bf 0d 53 79 3f 96 58 90 3f
       1.2756065 -1.5522072 0.9739235 1.1277034
000040 ab 33 85 3f 21 f5 31 bf c3 bc f3 3e 65 4b 78 bf
       1.0406393 -0.6951466 0.4760495 -0.9699004
000050 79 3e 3c 3e 5f bb 35 3f 55 52 20 3f 08 4c 8a be
       0.18383206 0.7098903 0.6262563 -0.27011132
000060 27 00 27 3f 5d e7 22 40 ab 35 a2 3f 1e 9c e4 bc
       0.6523461 2.5453713 1.2672628 -0.027906474
000070 b1 27 b1 3f 2e a4 93 3f 91 7e 9e bf e2 f1 cb 3f
       1.3840238 1.1534479 -1.2382375 1.5933192
000080 31 02 fc 3f 37 25 43 3f 88 ec 4b 3f 8d c9 94 3f
       1.9688169 0.7622866 0.79657793 1.1624008
000090 f0 1c 0f c0 df 7d d9 3f ed 21 aa 3f e6 46 ce 3e
       -2.2361412 1.6991538 1.3291603 0.40288466
0000a0 14 6d 57 3f 8a 1d 83 3f 6d 5e a7 3f ae 31 a0 3f
       0.84150815 1.024339 1.3075691 1.2515161
0000b0 d7 75 e7 bf e1 4c 8b 3e 41 68 e9 bf 07 1d db bf
       -1.8082837 0.2720709 -1.8234941 -1.7118233
0000c0 f2 37 d6 3f 68 bd 46 c0 f8 8d d1 be 23 c5 da 3e
       1.6735823 -3.1053104 -0.40928626 0.42728528
0000d0 0d 76 01 3e c0 ee d2 3f f2 25 5c 3e 6b e5 6f be
       0.12642689 1.6479111 0.2149885 -0.2342736
0000e0 6e 21 98 bf bc 33 c0 bf 35 82 45 3f b5 e8 ac 3f
       -1.1885202 -1.5015788 0.77151805 1.3508517
0000f0 9a 3c 64 3e 09 f7 98 3f 4c c6 9c 3e 27 50 78 3f
       0.22288743 1.1950389 0.30620039 0.969973
000100 a8 20 7b bc a7 e2 99 be 7a 8d 29 3e 0b a2 ea 3f
       -0.01532761 -0.30055735 0.16557875 1.8330702
000110 94 7e d2 3f 00 b9 95 bf bf 92 92 bf 53 29 70 3e
       1.6444879 -1.1697083 -1.1451033 0.23453264
000120 dd 47 86 bf 96 3d 8e 3e 5e 21 30 3f 49 89 ca 3d
       -1.0490681 0.2778136 0.68800914 0.09889466
000130 a9 95 f5 3d c8 4e b0 bf 9e 75 b4 bf 2b aa c3 3f
       0.11991436 -1.3774042 -1.4098394 1.5286306
000140 39 61 a3 3e d7 a8 a5 3b 97 a5 6b 3f 88 ca 39 3f
       0.31910113 0.0050555277 0.92049545 0.72574663
000150 07 1b 9f 3f 52 5b 89 3d f0 9b 2e bf 17 7e a4 3e
       1.2430123 0.06706871 -0.6820669 0.3212745
000160 ab c4 b6 3f c3 be 7b 3f d1 a1 40 3f 24 1c 09 c0
       1.4278768 0.98337954 0.7524691 -2.1423426
000170 ee f7 87 3f cc 65 b3 3f 48 d4 d3 3f e9 6e 78 be
       1.0622537 1.4015441 1.6549158 -0.24261059
000180 66 7a d7 bf c4 4e 84 3f 88 0e 68 c0 e1 1e 7e bf
       -1.6834228 1.0336537 -3.625887 -0.9926587
000190 66 8c d4 3f 17 bc 52 3b 78 df cc 3f 2c 30 87 3e
       1.6605346 0.0032155567 1.6005697 0.2640394
0001a0 3d fe c1 bf 7e 24 c9 3e 7e 8f 3c 3f 46 fe dd be
       -1.5155712 0.39285654 0.7365645 -0.43358058
0001b0 0e 9e 8f 3f d7 97 0f 3f 30 f4 67 bf a8 4c ab 3f
       1.122011 0.56091064 -0.90606976 1.3382769
0001c0 d3 97 01 bd af 8c bc 3e b1 1d c1 3f 43 e3 a3 3f
       -0.03163893 0.36826083 1.5087186 1.280373
0001d0 93 f9 b2 bf b5 a8 13 40 75 92 62 bf 53 91 0f 40
       -1.3982414 2.307172 -0.88504726 2.243245
0001e0 ed 35 78 be be c7 71 bf 17 d7 82 3f 67 c1 79 3f
       -0.24239321 -0.9444541 1.022189 0.97560734
0001f0 b2 2f 14 3f 38 ca 21 bf 27 1d 75 bf 20 22 ca 3f
       0.5788528 -0.63199186 -0.9574761 1.5791664
000200 7d bf be be 77 8f a3 3e c9 e9 f4 3e 6d e0 89 be
       -0.3725547 0.31945392 0.47834614 -0.26929036
000210 1e ff 9b be 92 b6 4c 3d 4e 07 b0 be 82 d6 82 bf
       -0.30468076 0.0499788 -0.34380573 -1.0221713
000220 20 53 63 bf 9e de fd be 0c 93 89 3e 34 6d 54 3f
       -0.88798714 -0.49583906 0.2687 0.8297913
000230 02 64 a2 3e cb 00 c0 3e cd 78 04 bf 56 c1 14 3f
       0.31716925 0.37500605 -0.5174683 0.5810751
000240 68 a4 c3 3e 34 20 3c bd d8 49 f0 be fe 06 8c 3f
       0.3821137 -0.04592915 -0.46931338 1.0939634
000250 0e 87 53 bf f6 77 1f 3f 30 34 9d 3e 8f 10 6b 3f
       -0.8262795 0.6229242 0.30703878 0.9182214
000260 85 f2 fb 3e 90 c6 e4 be 17 ce 5d 3f 3b 4c 66 be
       0.49208465 -0.4468274 0.86642593 -0.22490017
000270 af 15 c0 3e 99 27 52 bf 54 9d 31 bf c5 37 74 bf
       0.37516543 -0.8209167 -0.6938069 -0.953976
000280 f3 b6 fb 3e 39 c9 71 bf d6 09 eb 3e 8b cd 8e bf
       0.49163017 -0.94447666 0.45905942 -1.1156477
000290 bc ba 06 3f af e2 90 bf 04 5e 75 bf 55 23 6a bf
       0.52628684 -1.1319178 -0.9584658 -0.9146016
0002a0 74 ae fa 3e 06 f7 58 bf c9 f4 09 3e 26 87 aa 3e
       0.48961222 -0.8475193 0.13472284 0.33306235
0002b0 f0 9b 92 3d 47 e0 84 be 75 a3 eb be eb ec 2c bf
       0.07158649 -0.2595236 -0.46023145 -0.6754901
0002c0 3d fa 78 3f 8e d1 36 be eb ee 9b 3f 29 8f 18 3f
       0.97256833 -0.17853376 1.2182287 0.59593445
0002d0 40 51 ce 3d 2a 81 0d bf ef f8 8c 3e 0f 7d 29 3f
       0.10074091 -0.55275214 0.2753367 0.6620645
0002e0 d1 93 92 be 53 6f 80 bf 48 b7 0a 3f f2 e9 1d 3e
       -0.286284 -1.0033973 0.54185915 0.15421274
0002f0 69 1a dd be de 01 92 3f 95 58 86 be c0 8d 14 3f
       -0.43184212 1.140682 -0.26239458 0.58028793
000300 fe 67 be be f0 52 a4 be 49 d3 24 3f 6d 4e 4e 3f
       -0.37188715 -0.32094526 0.64384896 0.8058842
000310 24 e1 1d 3f 9a 05 6a bf 24 f6 00 be 2d 7c be 3b
       0.6167166 -0.914148 -0.12593895 0.0058131428
000320 59 66 d8 be b9 b8 b1 be 2c c1 16 3f 41 bc 1e 3f
       -0.42265585 -0.34711245 0.58888507 0.62006
000330 dc 85 94 3e c2 9e 86 3d ce 42 1d be 0e 64 ed 3e
       0.29008377 0.065732494 -0.15357515 0.46365398
000340 b9 8b 04 bf 15 68 bb 3e f2 91 03 3e 61 35 c1 3e
       -0.517757 0.36602846 0.12848642 0.37736037
000350 9b 6d cc 3e 52 52 a0 3e 54 43 e6 be c5 b5 66 bf
       0.39927372 0.31312805 -0.44973242 -0.9012111
000360 15 58 3e bf e0 2a 1b bf 4f 22 2f bf aa 41 64 bf
       -0.7435315 -0.606123 -0.68411726 -0.89162695
000370 06 3f 03 3f 76 b3 da 3e 2b e9 d3 3e 96 da 06 3c
       0.5126804 0.42715043 0.4138883 0.008230826
000380 62 0b 4c bf 8c 02 c1 3e d3 eb 2c bf 63 50 ec bd
       -0.7970487 0.37697256 -0.6754734 -0.1153877
000390 2d 3f 16 3f ff 8b 46 3f 26 e4 e6 3e 44 87 5f bf
       0.5869015 0.7755737 0.45095938 -0.87315774
0003a0 47 95 b8 be 42 b6 83 be 0d 74 f3 3e 61 78 5d be
       -0.3605139 -0.2572499 0.47549477 -0.21627952
0003b0 b5 bd ed be fc 80 be be ea a1 ed be da 3e 4e bf
       -0.46433797 -0.37207782 -0.46412593 -0.80564654
0003c0 c6 78 bb 3e 7c 4b 8a bf b1 32 b1 3e d0 87 8c bf
       0.3661558 -1.0804286 0.34608987 -1.0978947
0003d0 80 ca bb 3c eb e8 94 3f 48 a1 88 bf 50 12 e8 be
       0.022923708 1.1633581 -1.0674219 -0.4532647
0003e0 d0 b3 40 3e 08 de 9f be cf 90 06 3e 99 44 c6 3e
       0.18818593 -0.31224084 0.13141178 0.3872421
0003f0 d5 03 f6 be ab 49 27 bf 67 fa a8 be 5a 6b 33 3f
       -0.480498 -0.65346783 -0.33003542 0.7008568

lstm.weight_ih_l1 f4 [512, 128]
000000 bc 32 15 bd a3 29 11 3d b4 6e a6 3e bf cd b4 bd
       -0.036425337 0.0354401 0.32506335 -0.088283055
000010 f4 91 f3 3b 69 d6 61 3e 27 68 ab 3e a5 ea c7 be
       0.0074331705 0.22054447 0.334779 -0.39046207
000020 a6 56 be be c1 9f c1 be 97 92 b4 bd 83 ff da 3e
       -0.37175483 -0.37817195 -0.08817022 0.42773065
000030 78 c2 ec 3d 53 13 5f 3e 14 b3 17 3e cb 04 0d 3f
       0.115605295 0.21784715 0.14814407 0.5508544
000040 01 0f 84 be 1c 4c c1 3c 3f 88 02 bd bb 29 d5 3e
       -0.25792697 0.023595862 -0.031868216 0.416334
000050 df 29 1c 3e ee 09 2c 3f 9f fc f9 be d6 fb c1 3d
       0.15250348 0.6720265 -0.48825547 0.09471862
000060 7c d0 92 bd cd 9d 2e 3f 50 2d 5c 3b 1a 77 12 bf
       -0.071686715 0.68209535 0.0033596344 -0.57212985
000070 73 47 ad 3e 33 87 8c 3e cd f6 0d be a2 6c b7 bd
       0.33843574 0.274469 -0.13863678 -0.08956267
000080 7a d0 45 3d 97 a0 e4 3e ae 7c 13 3f 9c 37 2c 3f
       0.048294522 0.4465377 0.5761212 0.67272353
000090 20 7a 1c 3e 67 64 a0 3e f0 25 5a bd 42 a0 0f 3e
       0.15280962 0.313266 -0.053258836 0.14025977
0000a0 9c 16 ef 3d 58 64 d6 3e b8 a0 39 3e a6 ba 18 3f
       0.11674234 0.4187343 0.18127716 0.596598
0000b0 e3 8c 0e bd f1 52 1e be 07 95 55 3e c2 9b 28 3d
       -0.03480233 -0.15461327 0.2085763 0.041164167
0000c0 8f 44 d5 be 4e 95 56 3e 99 ad a0 3d 71 97 32 bf
       -0.4165387 0.20955393 0.07845611 -0.6976233
0000d0 8b 7b 2f be 14 b4 b4 3e 84 e5 75 bd 8d 8b 89 be
       -0.17136972 0.3529364 -0.060033336 -0.2686428
0000e0 76 22 1a 3e e1 7f 2b bd 5e ba 0d bf 12 6e 01 bf
       0.15052208 -0.04187 -0.553625 -0.5055858
0000f0 c6 c2 8c bd 17 48 00 3f 5c 48 f1 3e 16 bd cb be
       -0.068730876 0.5011 0.47125518 -0.397927
000100 ac 2c 82 3e d7 23 9f 3c ef 26 41 be bc dd e1 be
       0.25424707 0.01942627 -0.18862508 -0.44114482
000110 b1 3e 08 bf 3d 5c 4b 3e 7d 3c bd 3d ee 17 a2 3d
       -0.5322066 0.19859405 0.09240053 0.079147205
000120 2c b9 c3 3d f1 62 49 3e bc 75 90 bd 20 36 29 be
       0.09556803 0.1966665 -0.07053706 -0.16524553
000130 e5 88 dc 3e 1c 36 d5 3d 35 97 b2 bd d1 99 91 3e
       0.43073192 0.10410711 -0.08720247 0.28437665
000140 4d a1 e5 bd a3 34 9a 3e c0 83 60 3e fa 6e d9 bd
       -0.11212406 0.30118284 0.21925259 -0.1061687
000150 7b 9a a9 3e 91 b3 7b 3e c8 5e 0b 3e b5 34 90 3e
       0.33125672 0.24580218 0.13610375 0.28165212
000160 c8 1c 88 3e 74 6a 09 3f a1 ee 41 be 9f d9 02 3e
       0.26584458 0.5367806 -0.18938686 0.12778328
000170 b0 1e 56 bd 39 17 18 bf ed 59 a7 be cc 5a 9e be
       -0.05227536 -0.59410435 -0.32685795 -0.30928648
000180 33 bf a6 3e fe 29 f0 be 6a 7a ba be 14 81 b9 be
       0.32567748 -0.46907037 -0.3642152 -0.3623129
000190 a7 ad fa be e9 2d 57 bf 4b fa 2a 3e ee 44 84 bd
       -0.4896061 -0.8405443 0.16697042 -0.0645846
0001a0 18 1f ef 3e e3 52 e7 3d 77 d0 55 3e 1a 1d 4b bc
       0.4670341 0.11295106 0.20880304 -0.012397075
0001b0 79 87 e4 bd 26 b2 7c bd 36 87 54 bd 41 af e3 bc
       -0.11158652 -0.061693333 -0.05188676 -0.027793529
0001c0 4f bd 3f 3e e9 4e f6 bd 88 24 a5 be 94 43 04 be
       0.18724559 -0.1202677 -0.32254434 -0.12916404
0001d0 14 f4 29 3e 7e 65 46 3f 57 4c 11 3f 2d 34 4a 3e
       0.16597015 0.77498615 0.5675711 0.19746466
0001e0 32 98 0c be ac da 72 bd 1a 92 12 be 46 97 08 3f
       -0.13729933 -0.059290573 -0.14313546 0.53355825
0001f0 f9 7b 4f be 62 91 d4 3c 72 38 4b bd d7 90 fc be
       -0.20262136 0.02594823 -0.049614377 -0.49329254
000200 79 a1 27 bd 7d 39 7c be 22 44 de bd 33 0c 2b 3e
       -0.040925477 -0.24631305 -0.10852839 0.16703872
000210 cf c7 7a 3f e7 6c 38 bf 28 b9 2b be 6c cc c7 3d
       0.97961134 -0.7204117 -0.1676985 0.09755787
000220 db 49 b6 3e a9 d9 d5 3e 0a 7c 19 bf 78 e8 e1 be
       0.35603222 0.41767624 -0.59954894 -0.44122672
000230 69 a6 86 bf 59 13 68 be 0d 75 01 3f b6 e2 4a bf
       -1.0519534 -0.2266363 0.5056923 -0.79252183
000240 af 50 c1 3e ac db 20 3e 37 b2 f0 3e 2a 16 cd be
       0.3775687 0.15708798 0.47010967 -0.40055972
000250 a0 4e f8 bd 19 2b 3a be b6 ea c8 3e 6f 7e 98 be
       -0.121243715 -0.18180503 0.3924157 -0.2978396
000260 93 57 3c bf d2 3f 10 bf e3 8e 45 bd 65 17 d5 be
       -0.7357113 -0.5634738 -0.04823197 -0.4161941
000270 b2 ea e6 be 81 ea 87 be 70 07 e6 be 48 8a 54 3f
       -0.45100933 -0.265461 -0.4492755 0.830235
000280 5a 34 b2 3e 14 ec 0e bf 1a ac ff be 88 83 39 bf
       0.34805566 -0.55828977 -0.4993599 -0.72466326
000290 26 19 35 be c4 d8 ec be bc aa 3a 3f b7 2b 69 be
       -0.17685375 -0.4625913 0.7291677 -0.22770582
0002a0 2c 2a 54 bf 11 a4 04 bf 4a 55 c9 be b5 c2 41 bf
       -0.8287685 -0.51812845 -0.39322883 -0.75687724
0002b0 b4 93 0f 3e 82 80 08 3d 01 0d 6f be 97 a9 57 be
       0.14021188 0.03332568 -0.23344804 -0.21060787
0002c0 31 83 05 be b2 07 ef bc 30 a3 36 bf 36 cc 47 3f
       -0.13038327 -0.029178474 -0.71342754 0.78045976
0002d0 f1 86 03 3f a5 06 55 bf 91 55 54 3e 5b 35 53 3e
       0.5137778 -0.83213264 0.20735766 0.20625822
0002e0 dc 70 14 be c5 39 41 bd 56 06 0f 3f 3b 1f 21 3e
       -0.14496177 -0.047174234 0.5586904 0.1573457
0002f0 1f ea 0e 3e 5f a7 87 3c 9c 5b 0d bf 48 59 77 3f
       0.13956498 0.016559301 -0.5521791 0.9662061
000300 3f cb 92 be da e3 37 bd dd 72 6f 3e aa a5 54 3f
       -0.2867069 -0.04489503 0.2338366 0.83065283
000310 bc bf 9b 3d a1 ce ed be bf ee 16 be d4 90 2a be
       0.0760493 -0.46446708 -0.14739512 -0.1665681
000320 d7 c8 07 bf 70 a8 12 bf 16 70 73 3e 69 7d 8c 3f
       -0.5304083 -0.57288265 0.23773226 1.0975772
000330 4a 00 77 be 03 12 14 bb d5 b0 ba 3d af 2a 16 bf
       -0.24121204 -0.0022593744 0.09115759 -0.5865888
000340 45 b6 e4 3e 2e 4b 13 3f cc 7f 15 bf 26 e1 82 3f
       0.4467031 0.5753659 -0.5839813 1.022496
000350 9b f7 05 bf 83 23 18 bf 37 6c 62 be 6a e4 31 bf
       -0.5233094 -0.59429187 -0.22111593 -0.6948916
000360 55 ed 6d be b3 22 0c bf b9 b2 4d 3e 40 44 97 be
       -0.23235066 -0.54740447 0.20087709 -0.29544258
000370 c6 19 3d 3e cb 74 d9 3e f8 cc 0b 3f 90 2d 59 bf
       0.18466863 0.42471918 0.5460963 -0.8483515
000380 8f f8 cb 3e 43 15 ea 3e c4 59 47 3e d8 4d 2f 3f
       0.39838073 0.45719346 0.19467837 0.68478155
000390 de e4 b2 3f 46 b1 09 be 42 d9 68 be 85 8d 86 3f
       1.3976095 -0.1344653 -0.22739127 1.0511938
0003a0 33 fc 4b bd ef 52 85 be 73 63 49 bf 01 1b 10 3e
       -0.049801063 -0.26039836 -0.7866737 0.14072801
0003b0 92 6e 90 3e ed ed 02 3f 2a d9 8e 3e 4c 09 0c bf
       0.28209358 0.51144296 0.27900058 -0.54701686
0003c0 6b 2f d9 be 7c 10 6a 3d ab 1e 24 3f 84 07 7e 3f
       -0.4241899 0.057144627 0.64109296 0.9923022
0003d0 a2 5c ec bd d8 65 4e bf e2 14 56 bd 1b 62 26 bf
       -0.11541106 -0.8062415 -0.05226601 -0.6499345
0003e0 54 37 76 3e 3e 3b 93 bc fb 19 19 3f f0 33 0e bf
       0.24044544 -0.017972585 0.5980527 -0.55548
0003f0 82 24 74 3e f8 88 4f 3f 5f 09 47 3d 32 57 2c 3f
       0.23842052 0.8106837 0.04859292 0.6732055

lstm.weight_hh_l1 f4 [512, 128]
000000 05 c1 10 3e 64 7e 24 3e f3 c6 8b 3e a7 10 58 3d
       0.14136131 0.16063839 0.27300224 0.052750256
000010 76 43 30 bd 1a b8 27 bd b5 d3 65 bd 07 64 de 3d
       -0.043033086 -0.040947057 -0.056110103 0.108589225
000020 03 c0 f1 3b 3a 02 8b 3e 1c 53 e7 3e 52 55 e9 3c
       0.007377626 0.27150136 0.45180595 0.028483067
000030 3b bf 4e be 73 32 2a 3f 7f 97 0f be 4c d9 da 3b
       -0.20190136 0.6648323 -0.14022635 0.006678736
000040 2e c5 b9 3d dd 59 62 3e e3 22 e5 bc 08 7f 9c be
       0.09070812 0.22104593 -0.027970737 -0.30565667
000050 d7 07 f5 3d 36 fe c2 bd a6 7d d8 bb 2c ec 2d bd
       0.11964386 -0.09521143 -0.0066067753 -0.04246156
000060 e7 c1 3c 3e a9 c7 10 3e de 10 c7 bd d6 04 82 bd
       0.18433343 0.14138664 -0.09720014 -0.06348579
000070 df 44 ee 3c 22 39 d2 be d0 f0 4e bd be 8f 94 be
       0.029085575 -0.41059214 -0.050522625 -0.29015917
000080 e0 51 c5 bc d1 dd 57 bd a0 8c 95 3d 85 09 44 bd
       -0.024086893 -0.052701775 0.07302213 -0.04786064
000090 1e e6 0e 3f ee ab 3f bc a7 55 cb be 15 2b 5f 3e
       0.5581988 -0.011698706 -0.39713785 0.21793778
0000a0 9b 09 0c 3f 9e b2 5d bd be b8 74 bd 4f 19 db bd
       0.54702157 -0.05412542 -0.059746496 -0.106981866
0000b0 ac 26 92 be b0 69 7e 3e 8a e3 84 bd 75 d3 a3 be
       -0.2854513 0.24845004 -0.06488712 -0.31997266
0000c0 16 4b 93 3d 48 0e a0 3d 35 83 05 3e 2c f0 b5 3d
       0.07192056 0.07815224 0.13038333 0.088837
0000d0 f3 45 c6 3e b7 c1 d5 3e 96 e1 70 be ba 38 f9 3c
       0.38725242 0.41749355 -0.23523554 0.030422557
0000e0 db 14 d6 3c 35 dd 89 bd 73 ae d8 3d a3 c0 b9 3d
       0.026132992 -0.06731645 0.105801485 0.09069946
0000f0 a3 33 eb be 83 ee cf 3c 1e 36 d2 be 12 a5 5b bf
       -0.45937833 0.025382286 -0.41056913 -0.8579875
000100 01 9c b4 bd b1 00 8c 3e e6 72 13 bd 38 e0 8b 3d
       -0.08818818 0.27344278 -0.035998248 0.06829876
000110 60 b5 2f bc 05 2f 39 3f ff 2b b4 3e ce c4 0f 3d
       -0.0107243955 0.7233737 0.35189816 0.035099797
000120 ba 25 01 be 7c a0 1f 39 47 d3 ce 3c 48 24 6f bd
       -0.12612048 0.00015223207 0.02524723 -0.05838421
000130 92 15 66 3e 9c 60 80 3e 70 3f b9 bd 4b 89 b7 ba
       0.22469166 0.25073707 -0.09045303 -0.0014002708
000140 80 81 3b 3e 2e d4 14 3f 21 7e 9d 3d ff d3 b4 3e
       0.18311119 0.5813626 0.07690073 0.3531799
000150 df 79 53 3e 41 b2 21 3e d6 1a fa bd 28 2a 26 bd
       0.20651959 0.15790655 -0.1221215 -0.040567547
000160 25 30 92 be f6 20 55 3d 12 fc 3f 3e 81 dc 24 be
       -0.28552356 0.052033387 0.18748501 -0.1609974
000170 51 2c 6d 3e a2 e8 85 3e c6 2b b0 bd e3 67 98 be
       0.23161437 0.26154047 -0.08602099 -0.2976676
000180 c8 5e 36 bf 18 34 eb bd 71 5d 4d bc 17 59 1b 3e
       -0.71238375 -0.114845455 -0.012534485 0.15170704
000190 f9 a0 5e bd 48 cc 17 3d 4a 87 75 bf 05 86 bb be
       -0.054352734 0.037060052 -0.9590956 -0.36625686
0001a0 81 dc 88 3d 3a 4d b1 3c 41 89 7a be e8 03 ec 3d
       0.06682683 0.02164327 -0.2446642 0.115241826
0001b0 73 8e d8 be c9 ab 9c 3d fd 69 7e be cc 3e ab bd
       -0.4229618 0.07649953 -0.24845119 -0.08361587
0001c0 7d 91 a3 be af 71 0d be 3a bc a1 3d 6e 1b c1 3e
       -0.31946936 -0.13812898 0.078972295 0.3771624
0001d0 52 4c 9c 3d cd 81 64 3e 6f 9a da bd 6c b5 88 3d
       0.076317444 0.2231514 -0.10673987 0.066752285
0001e0 4a f9 b4 be 1f 04 e4 3e 5c 94 a2 bd ed c5 f3 3d
       -0.35346442 0.44534394 -0.079384536 0.11902986
0001f0 4c ae 09 bb ed f5 9a 3d ef c4 4f be 23 05 80 be
       -0.002100843 0.07566438 -0.20289968 -0.2500392
000200 1f bf c8 bb c4 9a 02 be cf 85 62 bc 5e 58 15 be
       -0.006126299 -0.12754351 -0.013825848 -0.1458449
000210 33 ca 00 bb de cb ac 3d 3a 9a 84 bc 89 94 3e bc
       -0.001965177 0.08437322 -0.016186822 -0.011632093
000220 18 a3 a4 bc 08 88 d5 be 8d 83 46 be 6f 76 ad bc
       -0.0200973 -0.41705346 -0.1938612 -0.021174638
000230 96 cc b2 ba 60 a7 2a be f6 6e 5b 3e 57 d3 7f bd
       -0.0013641294 -0.16665411 0.21429047 -0.06245741
000240 ab 0a 77 bd 99 e8 45 be a3 78 bb 3d 8e 06 0a 3e
       -0.06031291 -0.1932701 0.09153869 0.13479063
000250 a3 79 a5 be eb 0c 3e 3d 67 06 d2 bc c0 f3 e5 3d
       -0.32319364 0.04639904 -0.025637819 0.11228132
000260 5a 5f 93 bd b0 2a 50 3d 61 0c de 3c db 39 67 3d
       -0.07195921 0.05082196 0.027105512 0.05645166
000270 b5 df 3c bd 1f 05 68 bc 7a 3a 31 bd 87 fd 02 bd
       -0.04611178 -0.014161377 -0.04326866 -0.031980064
000280 92 6b 34 3e dd 34 ea 3d b9 5e 11 3f 3f 40 35 bd
       0.1761916 0.11435864 0.5678516 -0.044250723
000290 c4 bc d5 bd 6b db 3b 3e c5 23 35 3e fb cb df bd
       -0.10436395 0.1834542 0.17689426 -0.10927578
0002a0 9d 3f ad bc 2a e9 17 3e 80 2a 55 3d 3f 6b e2 3d
       -0.021148497 0.14835039 0.052042484 0.11055612
0002b0 87 86 95 3e 32 bb 0f 3d 2a f2 60 be 97 e3 69 3e
       0.292042 0.035090633 -0.21967378 0.22840725
0002c0 cc 24 6d 3e 91 1c ad bc 35 7c 3c 3d df d4 7f bc
       0.23158568 -0.021131786 0.04601689 -0.015614717
0002d0 08 36 64 be 07 05 7b bd e7 36 05 3d 1d 93 ba bd
       -0.22286236 -0.06128409 0.032523062 -0.09110091
0002e0 04 7e 41 bc d3 39 06 3d 16 ce ae bd 43 98 30 bc
       -0.01180983 0.03276999 -0.085354015 -0.0107784895
0002f0 1a 57 28 3e dc 81 6e 3b 92 74 ee 3e f6 96 85 3d
       0.16439477 0.003639332 0.4657331 0.06522934
000300 3c e7 3f be a5 88 95 bd da 83 b3 3c ea 27 37 be
       -0.18740553 -0.073014535 0.021913458 -0.1788632
000310 60 95 b4 be 47 a4 d4 3c c4 cd b9 bd 5c fb 13 be
       -0.35270214 0.02595724 -0.0907245 -0.14451355
000320 0a 37 10 be 44 f1 a9 bd c2 02 85 bd ca c5 0e 3d
       -0.14083496 -0.08297971 -0.06494667 0.034856595
000330 c5 60 8e be b4 c1 34 be 88 df 1c 3e 17 4f ab 3d
       -0.27808204 -0.17652017 0.15319645 0.083646946
000340 33 68 42 be 6d 97 04 be 25 28 79 be 91 56 0c be
       -0.18985061 -0.1294839 -0.2433172 -0.13704897
000350 8b 5c 21 bd 91 ba 5d bf 20 71 96 3d dc 6a 80 3d
       -0.039394896 -0.866128 0.07345796 0.06270382
000360 2e 0f 16 3e 09 83 1d be 7d d0 d6 bd 5d f6 9e bd
       0.14654228 -0.15382017 -0.10488985 -0.07761834
000370 91 98 1a be c6 dc 5c 3c bc 8e 0a bd 4e 31 29 3e
       -0.15097262 0.013480371 -0.03382753 0.16522714
000380 3e 39 8c 3e 76 f2 1c 3e dc ef 8c bd 57 d2 21 be
       0.27387422 0.15326867 -0.06881687 -0.15802895
000390 45 e4 0e 3d 5e 01 03 be d4 78 98 bc 92 79 df 3d
       0.034885664 -0.1279349 -0.018612303 0.109118596
0003a0 5d a6 e2 bc e2 d1 e0 3c e5 c0 87 be 0a a0 5e be
       -0.027667219 0.02744383 -0.26514354 -0.21740738
0003b0 a4 46 a4 bd 3a 57 80 bd 65 fe c3 3d 2d 74 e9 3d
       -0.08021286 -0.06266637 0.09570006 0.11399112
0003c0 35 c6 1a bd 7a fa f7 3d b8 1d 83 3e c7 ca ac bd
       -0.03778668 0.121083215 0.2560861 -0.08437114
0003d0 8f d1 1d be d1 cd 38 be 5a e0 80 bc 54 2f 85 bb
       -0.15411972 -0.18047263 -0.01573198 -0.00406448
0003e0 0e ec 29 3d a7 11 ab bd 61 bf ee 3e 35 02 7a be
       0.041484885 -0.08352976 0.46630386 -0.24414904
0003f0 32 a7 3f ba 59 d5 05 be 04 71 8d 3d c6 12 b2 3e
       -0.0007310986 -0.13069667 0.06906322 0.34779948

lstm.bias_ih_l1 f4 [512]
000000 16 87 d9 be fe 0f fc 3e 13 52 32 be 20 e4 b5 be
       -0.42485875 0.4923095 -0.17414121 -0.35525608
000010 93 eb 03 bf dd 45 70 3e 11 94 68 bf 9e e4 3b 3e
       -0.5153133 0.2346415 -0.9085093 0.1834893
000020 cc 36 47 be aa 03 db 3e 5c c6 8e 3e f4 d1 d1 be
       -0.19454497 0.42776233 0.2788571 -0.40980494
000030 4e 1a 94 be dd 4c a0 3e 33 d8 bf 3e ff 9d 0c bf
       -0.2892632 0.31308642 0.37469634 -0.5492858
000040 21 11 d8 be 96 c5 ea 3e c9 d2 a1 3d ff 6f 32 bf
       -0.42200568 0.4585387 0.07901532 -0.6970214
000050 53 7e 04 bf 19 5d cd be a4 37 52 be e8 ef d8 3d
       -0.51755255 -0.4011009 -0.20529038 0.105926335
000060 e6 4b 0b 3d 4c e2 ad 3e 25 ff 43 bf 4f 59 2a bf
       0.03400793 0.33961713 -0.76561195 -0.66542524
000070 62 82 f2 be aa 83 b0 be 2e be 0e bf a9 55 86 3d
       -0.473651 -0.34475452 -0.5575894 0.06559307
000080 79 8b 4a 3f fa a1 e1 be 81 d6 2a 3f 27 bf 08 bf
       0.7911907 -0.4406889 0.66733557 -0.53416675
000090 1e 21 11 3e 03 95 11 3f f4 b2 aa 3e 23 3c 81 3e
       0.1417279 0.56868 0.33339655 0.25241193
0000a0 0b 6c 4c 3d 1c e8 ec bd 32 8e b9 be 52 73 f2 3d
       0.049907725 -0.11567709 -0.362413 0.11838402
0000b0 80 4d 20 3f 9b 87 8f 3d 59 e4 db 3e 00 86 23 3d
       0.62618256 0.070082866 0.42947653 0.039922714
0000c0 80 67 d8 be 35 f5 a8 be 3f 41 e7 be 46 19 46 3e
       -0.42266464 -0.32999578 -0.45166966 0.19345579
0000d0 7a 92 38 bf 3b 79 5f 3e 2b 02 67 bf 4e 1d 8c 3e
       -0.72098505 0.2182359 -0.90237683 0.27366108
0000e0 63 db a7 be f0 b7 c2 bd 59 8e b5 be ec 00 9b be
       -0.32784566 -0.095077395 -0.35460165 -0.3027414
0000f0 75 86 b3 3e 2f 2d 5a be c1 66 37 3f 1b 1e c7 3d
       0.3506352 -0.21306299 0.71641165 0.09722539
000100 c3 3e 00 3f 64 dd 6e 3e 1d eb 26 bf 9a 79 21 3f
       0.50095767 0.23326641 -0.65202504 0.63076174
000110 f4 5b c2 3e 66 55 09 3f a8 80 09 3f 63 2f e5 be
       0.3796078 0.5364593 0.5371194 -0.44762716
000120 38 ec 95 3e 4f 85 92 bd da 3b ce be 61 5c bf be
       0.29281783 -0.07154333 -0.40280038 -0.37375167
000130 fe e9 8f bf c2 23 b3 bf 96 c1 0d bf 45 a8 ac 3d
       -1.1243284 -1.3995287 -0.55373514 0.08430532
000140 e6 d9 f8 3e 1b ee 9d bd 24 57 d4 3e ac 0b e6 bc
       0.48603743 -0.07711431 0.41472733 -0.028081737
000150 84 40 5b 3d 0e 02 f4 3e 11 1d d6 3e 77 a6 fb be
       0.053528324 0.47657818 0.4181905 -0.4915044
000160 17 1e 0c be fd e5 93 3e 75 e2 69 bf b7 10 99 be
       -0.13683353 0.28886405 -0.9136117 -0.29895565
000170 b0 cd a7 3e 93 c8 b3 3c 52 ad d2 be dc 54 1f bf
       0.32774115 0.021946227 -0.41147858 -0.6223886
000180 dd ed 15 3f f6 30 3e 3e 8f c5 3b 3e 11 d6 d7 3e
       0.58566076 0.18573365 0.18337081 0.42155507
000190 cc cc 0b be 3d 82 15 3e 4c b3 55 be 7d 88 e5 3e
       -0.13652343 0.14600463 -0.20869178 0.44830695
0001a0 67 3f 52 bf 4d 55 47 bf b3 79 05 3f ba e1 08 3f
       -0.82127994 -0.77864534 0.52138823 0.5346943
0001b0 6b fa 1b 3f 6c bf 37 3f d8 e4 cb bd 2e 39 b6 be
       0.6092898 0.7177646 -0.09955758 -0.355905
0001c0 0d be 2f bf 45 07 3a bf 86 99 14 bf 18 39 ac be
       -0.6864937 -0.7266734 -0.5804676 -0.3363731
0001d0 49 c9 6e bc ba eb 06 3f b8 1c 0b bf 78 e0 58 bf
       -0.014574357 0.5270344 -0.54340696 -0.8471751
0001e0 57 57 17 3c 6f db 7b bf 4f a3 ee 3e 8c 16 63 3e
       0.009237132 -0.98381704 0.4660897 0.2217657
0001f0 21 87 1b bf 0a e4 7f 3e 7a 74 a6 3e 88 c5 1e bf
       -0.60753065 0.24989334 0.3251074 -0.6202016
000200 35 05 ed be b3 c4 76 3e 79 ed df 3d cc 18 4c 3e
       -0.46293035 0.24098472 0.10933966 0.19931334
000210 05 54 4e be 98 95 3a 3e ba 93 e5 bc ef c5 83 3e
       -0.20149238 0.18221128 -0.028024543 0.2573695
000220 b8 c1 9e be 99 c7 6a 3e 0a 43 9c 3e d9 39 9c be
       -0.3100717 0.22927703 0.30519897 -0.30512884
000230 5e 08 85 bf c8 65 95 3e 32 01 d6 3e 47 2c 60 be
       -1.0393178 0.29179215 0.41797787 -0.2189189
000240 31 62 95 bd eb 79 44 3e c5 8b 7f be 83 b7 44 be
       -0.07294119 0.19187133 -0.24955662 -0.19210629
000250 22 10 a9 3e 41 9a 6b be 03 49 a8 be 35 c7 2b 3e
       0.3302012 -0.23008062 -0.32868204 0.1677521
000260 f4 e6 6a 3e 3a 0f 3f bf a8 2d 5b 3b c5 04 eb be
       0.22939664 -0.7463261 0.0033443961 -0.45902076
000270 b1 89 16 be fd 09 e7 be 53 d2 dd bd aa e9 be 3e
       -0.14700963 -0.45124808 -0.10831132 0.37287647
000280 ff da 45 bd 01 48 53 bd a9 53 05 3f bb ea b8 be
       -0.048304554 -0.05158234 0.5208078 -0.36116585
000290 4a 60 29 3e fa ce f2 bc a3 5a 29 3e 40 66 6b 3e
       0.16540638 -0.02963971 0.16538481 0.22988224
0002a0 15 fc 5a bf f1 3b bf 3e c6 e9 db bd 18 4d 6c 3d
       -0.85540897 0.3735042 -0.10737948 0.05769071
0002b0 83 c5 eb 3e 50 3f 2b 3f e4 01 ee 3e 4e ff 52 bf
       0.46049127 0.6689348 0.46485817 -0.82420814
0002c0 c5 9f b6 be b0 35 2a be 69 b4 fe bd 8c 4f b3 3e
       -0.3566877 -0.16622043 -0.12436754 0.35021627
0002d0 3d d8 1a 3f 0e 41 6e 3e 6c 55 5a be bd 59 df 3e
       0.60486203 0.23267004 -0.21321648 0.43623152
0002e0 59 02 0d be 1e 5d 0f bf 40 e6 c5 bd 2b 6c a8 bd
       -0.13770427 -0.5600146 -0.09663057 -0.082237564
0002f0 f5 4e 85 bf a5 bf 20 be f5 65 10 3f ab 65 3b bd
       -1.0414721 -0.15698107 0.56405574 -0.045751255
000300 79 08 e0 3e 24 2f 45 3e cd de fe bd 54 28 ab 3e
       0.43756464 0.19256264 -0.124448396 0.33429205
000310 ae 4a 42 3e 2e 52 12 be c6 e1 59 3e 10 91 be 3d
       0.189738 -0.14289162 0.21277532 0.09305012
000320 01 8e 4f 3e 80 6b 2a 3d 81 c8 68 bc 23 bd 02 be
       0.20269014 0.041606426 -0.01420796 -0.12767462
000330 47 37 a4 3e 99 17 a3 3e f9 00 1b bd 43 32 93 3e
       0.32073423 0.3185394 -0.037842724 0.28749284
000340 96 7b 33 bf e6 0a 02 3f 57 86 d2 3e 5f 86 84 bd
       -0.7011045 0.5079788 0.41118118 -0.06470942
000350 aa f7 8f 3d 92 48 fa 3e 87 26 e4 3e 29 49 89 be
       0.0702966 0.48883492 0.44560644 -0.2681363
000360 5b bb 50 3f 90 fc 0c 3f 8b 30 a9 be 59 47 3c bf
       0.8153588 0.5507288 -0.33044848 -0.7354637
000370 bf 3b 58 3e 23 78 a0 be cf 67 56 be 5c c4 40 3d
       0.21116541 -0.31341657 -0.20938037 0.047062263
000380 76 9e f8 3e ab de d4 3c ba 56 90 3e 04 04 c2 3e
       0.48558396 0.025985083 0.28191167 0.3789369
000390 3b a7 8f 3d 83 61 4f 3f b2 ce 39 3f 9a ea 4d 3f
       0.070143186 0.81008166 0.72581017 0.804361
0003a0 f9 5a de bd 11 77 e6 bd bb e0 14 bf 3c c4 e4 be
       -0.108571954 -0.11253179 -0.5815541 -0.44680965
0003b0 f7 65 ef 3e 11 b4 d9 3e d7 66 f0 bd 4f 42 2d be
       0.4675748 0.42520192 -0.11738365 -0.16919826
0003c0 5d 1d 19 bf 09 33 46 3e 0e 92 bf be ae c6 15 3f
       -0.5981043 0.19355406 -0.37416118 0.58506286
0003d0 2b f0 5f 3d 57 8f 08 3f 6c b2 83 be eb 9d 45 bf
       0.0546724 0.5334372 -0.25722063 -0.7719409
0003e0 61 49 88 3e f8 ef 0c 3f 72 b4 1d 3f a1 9e a4 3e
       0.26618484 0.55053663 0.6160346 0.32152274
0003f0 e4 35 12 be cf b6 f4 3e bf 16 81 3d ef 9f 5e 3f
       -0.1427837 0.47795722 0.063031666 0.8696279
